modelo_final_multimapas.pth (torch, 45077 bytes, 6 tensors)

net.0.weight f4 [128, 14]
0	0x3eeb6ada	0.4597996
1	0xc04598c0	-3.0874481
2	0x3f903b0f	1.1268023
3	0xc1539a9f	-13.225249
4	0xbec2814e	-0.37989277
5	0x3de49ef8	0.111631334
6	0xbe827649	-0.2548087
7	0x3e3ef918	0.18649709
8	0x3e84de81	0.25951007
9	0x3f21a922	0.631487
10	0x3f75678c	0.95861125
11	0x3e0cf0e9	0.13763775
12	0xbfbd106f	-1.477064
13	0xbf34b6fc	-0.7059171
14	0xc0cc0c38	-6.3764915
15	0xbfb1e1bc	-1.3897014
16	0xc0244db2	-2.5672421
17	0x4004b227	2.0733736
18	0xbfa5cdef	-1.2953471
19	0xbee90369	-0.45510414
20	0x3ec0b2ea	0.376365
21	0xbe84899f	-0.25886247
22	0x3ea65faf	0.32494876
23	0x3f142df0	0.57882595
24	0x3f13327e	0.5749892
25	0x3d7d9124	0.061905995
26	0xc0c55272	-6.166314
27	0xbfe17de6	-1.7616546
28	0x3d67abe0	0.056560397
29	0x3e2d0b32	0.16898802
30	0xbda726aa	-0.081616715
31	0x3d2fc2d0	0.042910397
32	0xbdb60f6c	-0.0888966
33	0xbb64c000	-0.003490448
34	0xbdd00ae6	-0.10158329
35	0x3e0e854e	0.13918039
36	0xbd8f19c8	-0.06987339
37	0xbd4e62b4	-0.0503871
38	0x3d233268	0.039842993
39	0xbe54f7e8	-0.20797694
40	0x3daf2bbc	0.085532635
41	0x3baa0600	0.0051887035
42	0xc0120e91	-2.282139
43	0xbf8c66e5	-1.0968901
44	0xc0a9c5d4	-5.305399
45	0xc1060b2b	-8.377727
46	0xbf7d8396	-0.9902891
47	0xbf26e516	-0.6519331
48	0x3f406454	0.7515309
49	0xbedbae84	-0.42906582
50	0xbc6396e6	-0.013890957
51	0x3dab842b	0.083748184
52	0xbff4425d	-1.9082752
53	0xbffcce93	-1.9750541
54	0xbd6a9d05	-0.05727865
55	0x40039554	2.0559893
56	0xbf66254b	-0.89900655
57	0x3f968e8a	1.176225
58	0xbe9bf36e	-0.3045916
59	0xbf97c7b1	-1.1857816
60	0x4045bfbd	3.0898278
61	0x3ea38bb2	0.31942517
62	0x3ea38781	0.3193932
63	0xbf6652c8	-0.89970064
64	0x3d7dde10	0.061979353
65	0xbe6b7ecf	-0.22997592
66	0x3f5b235d	0.85600835
67	0xbebe6547	-0.37186643
68	0xbd39bd61	-0.04534662
69	0xc074af65	-3.8232052
70	0xbffde5b4	-1.9835725
71	0x400dd391	2.216038
72	0xbee83e02	-0.45359808
73	0x4086c355	4.2113442
74	0xbecbe867	-0.39825746
75	0xbf9f6d02	-1.2455142
76	0x3e812287	0.25221655
77	0x3f4fbcd8	0.8114753
78	0x3ec394b7	0.38199398
79	0x3e81f3e7	0.25381395
80	0x3f6c3a2b	0.9227626
81	0xbc8bd2a7	-0.01706822
82	0xc069b84d	-3.6518738
83	0x3ff9397d	1.9470669
84	0xbe013d7e	-0.12621114
85	0x3e56c3bf	0.20973109
86	0xbdd5b9ac	-0.10435805
87	0xbe6fdfe7	-0.23425256
88	0x3e4f6ceb	0.20256393
89	0x3d7c2997	0.0615631
90	0xbdb1d46e	-0.08683096
91	0xbe5a8925	-0.21341379
92	0xbd40caf9	-0.04706857
93	0xbe4e7ca3	-0.20164733
94	0xbe58a571	-0.21156861
95	0x3e05d860	0.13070822
96	0x3cc81c2b	0.024427494
97	0xbdf17b5f	-0.11791109
98	0xc07c2102	-3.9395146
99	0x40486fd3	3.1318252
100	0xbeed6ccc	-0.46372068
101	0x3f9aec6e	1.2103403
102	0xbf45f34d	-0.7732437
103	0x3e366b08	0.17814267
104	0xbe5e2f40	-0.21697712
105	0x3f5ca37f	0.86186975
106	0x3f546195	0.829614
107	0x3f73507d	0.9504469
108	0xbeb87c0d	-0.36032143
109	0x3f2b3145	0.66872054
110	0xbeb02958	-0.34406543
111	0x3e03a153	0.12854509
112	0xbe1d3acc	-0.1535446
113	0xbc06a660	-0.008218378
114	0xbbf75f40	-0.0075491965
115	0xbe06c5e6	-0.1316143
116	0xbdb065ee	-0.086131915
117	0xbe8708a0	-0.26373768
118	0xbe4309a5	-0.19046648
119	0x3e74ae4a	0.23894611
120	0xbe88a492	-0.26688057
121	0xbe828e5b	-0.25499234
122	0x3dffa540	0.12482691
123	0x3d4e7610	0.050405562
124	0xbe6840f9	-0.22681035
125	0xbdb5e8c4	-0.08882287
126	0xc0c49b54	-6.143961
127	0x3f8b6335	1.088965
128	0xc1393929	-11.576455
129	0xbef4619c	-0.4773072
130	0xbf8ec935	-1.1155154
131	0xbff9d631	-1.9518491
132	0xbe51f5e3	-0.20503955
133	0xc0272120	-2.6113968
134	0xbebb7a74	-0.36616862
135	0xbf3c50be	-0.735607
136	0x3f8d8118	1.1055021
137	0xbedfd2ee	-0.43715614
138	0xbf9655b1	-1.1744901
139	0x401f9ae3	2.4938285
140	0xc051f892	-3.2807965
141	0x4003acc1	2.057419
142	0xc08a2c95	-4.317942
143	0xc0ad0f68	-5.4081306
144	0xbf8d98e6	-1.1062286
145	0xbf748ffa	-0.9553219
146	0xbe2ce90e	-0.16885778
147	0xbface91c	-1.3508639
148	0xbee987dd	-0.45611468
149	0xbccce319	-0.025010632
150	0x3efc66c8	0.49297166
151	0xbf4d8f7b	-0.8029706
152	0xbf6d5480	-0.9270706
153	0x40022e91	2.0340922
154	0xc00707c6	-2.1098495
155	0x3ffb7766	1.9645813
156	0x3f4868cf	0.78284925
157	0x407f5050	3.989277
158	0xbfb4e364	-1.4131894
159	0x3f20c0ef	0.62794393
160	0x3e10d014	0.14141876
161	0x3f24d99d	0.6439455
162	0x3f04aeba	0.5182911
163	0x3e920ca6	0.28525275
164	0x402b4be2	2.6765065
165	0x3ff1b629	1.8883716
166	0xbf8cebad	-1.1009423
167	0xc022f836	-2.5463996
168	0xbfcd7de8	-1.6054049
169	0x40156c08	2.3347187
170	0xc09d341c	-4.912611
171	0xbf29be90	-0.663064
172	0x4029f53d	2.6555932
173	0x3d9e1ad6	0.07719962
174	0x3f92f05c	1.1479602
175	0xc05f2d7e	-3.4871516
176	0x3eb4eca9	0.35336807
177	0x3e752883	0.23941235
178	0xc00e6566	-2.2249389
179	0xbf5b223b	-0.85599107
180	0xbe2f4c9e	-0.17119071
181	0xc010b69b	-2.2611454
182	0x403f1aa3	2.9860008
183	0xbfb76ade	-1.4329488
184	0x40533366	3.300012
185	0xc0cb6879	-6.356503
186	0x3dac9c4f	0.08428251
187	0x3eac7d7f	0.33689496
188	0x3ce4ae92	0.027915273
189	0xbf44e4b9	-0.76911503
190	0x3e82bf02	0.25536352
191	0xbdd14e75	-0.102200426
192	0xc01cb96e	-2.4488177
193	0xbff3fec1	-1.906212
194	0x3f9359f2	1.1511824
195	0x3f6af914	0.91786313
196	0x3ee5b734	0.44866335
197	0xbe1fcdfd	-0.15605922
198	0xbffad275	-1.9595476
199	0x3e846de1	0.2586508
200	0xbf274a34	-0.653476
201	0x3f7206e8	0.9454179
202	0xbf54e024	-0.8315451
203	0x3f7b3ae7	0.9813675
204	0xbde59ba2	-0.11211325
205	0xbed18a45	-0.40925804
206	0x3f0d8746	0.55284536
207	0x3ea5ca69	0.3238099
208	0x3f3348b0	0.7003279
209	0xbea95f6d	-0.33080617
210	0x40d28fd8	6.580059
211	0xbf8fdee9	-1.1239902
212	0x410e3ead	8.890302
213	0xbfbbd499	-1.4674255
214	0xbf0945cd	-0.5362213
215	0xbf0286d8	-0.50987005
216	0x3df5c5df	0.120006315
217	0x3ee9ea5b	0.45686612
218	0xbd9fafdf	-0.077972166
219	0x3dfbd954	0.122973114
220	0x3e9b5f17	0.30345985
221	0x3fa4a534	1.2862916
222	0xbed75900	-0.4206009
223	0xbf913978	-1.1345663
224	0x3f52e747	0.8238415
225	0x3fc86575	1.5655962
226	0xbfc806c5	-1.5627066
227	0xc0466060	-3.0996323
228	0x3f6998df	0.9124889
229	0x3ee6397e	0.44965738
230	0xc0c305b3	-6.0944457
231	0x3ec467ac	0.38360345
232	0x3f25ea26	0.6481041
233	0x3f2277e0	0.63464165
234	0xc04b01f2	-3.1719937
235	0xc0625740	-3.5365753
236	0x3d3d4794	0.04621084
237	0xc0644090	-3.5664406
238	0xbe5a43d2	-0.21314934
239	0x400655ef	2.098995
240	0xbfd3e35d	-1.6553761
241	0xbfdb6b93	-1.7142204
242	0x3d1aee7c	0.037825093
243	0xbf4b826d	-0.7949589
244	0x3efbc8fc	0.49176776
245	0x3fb10ed1	1.3832647
246	0x3f185df1	0.59518343
247	0x3ee92d84	0.45542538
248	0x3f5f5165	0.87233573
249	0xbef7546e	-0.48306602
250	0x403aa1c6	2.9161239
251	0x3fdd86b8	1.7306738
252	0xbcf36a3a	-0.029713739
253	0x4024afa5	2.5732205
254	0xc01eb834	-2.4799929
255	0xc007cb47	-2.121782

net.0.bias f4 [128]
0	0x3dc3e9b7	0.09566062
1	0x3eaf340d	0.342194
2	0xbe54ec16	-0.20793185
3	0xbea9da32	-0.33174282
4	0x3f5101e8	0.81643534
5	0x3e083e92	0.13305119
6	0x3e7e204d	0.2481701
7	0x3f2f76df	0.6854076
8	0x3da955ec	0.082683414
9	0xbf2a3ebc	-0.66501975
10	0xbec90c74	-0.39267313
11	0x3f1230ca	0.57105696
12	0x3e8fb68b	0.28068957
13	0x3f0af765	0.54283744
14	0x3ef3ecf8	0.4764173
15	0xbf73da5c	-0.95255065
16	0x3e9d8626	0.3076641
17	0x3f713984	0.94228387
18	0x3f354539	0.7080875
19	0x3f536a2e	0.8258389
20	0xbd1705e8	-0.036870867
21	0xbf0df6b5	-0.5545457
22	0x3c985b5a	0.018598247
23	0x3e2a0e46	0.16607007
24	0xbc1e9100	-0.009678125
25	0xbdc1ba79	-0.09459395
26	0xbe164dab	-0.14678065
27	0x3f25d00a	0.6477057
28	0x3fac333c	1.3453135
29	0x3f0d241b	0.5513322
30	0x3ff6dddf	1.928646
31	0x3eeeac76	0.46615952
32	0x3fd40e36	1.6566837
33	0x3f19cdf5	0.6007989
34	0x3d4573ae	0.048206024
35	0xbe7eafeb	-0.24871795
36	0x3f837f55	1.0273234
37	0x3fb8b84b	1.4431242
38	0xbe9ce7da	-0.3064564
39	0x3f89bb44	1.0760274
40	0x3ef9f791	0.4882169
41	0xbbe12d80	-0.006871879
42	0xbd8ecf22	-0.06973101
43	0x3eb9ea1a	0.36311418
44	0x3fc0446f	1.5020884
45	0xbe267674	-0.16256124
46	0x3ef99f10	0.48754168
47	0x3f2eb3b2	0.68242943
48	0xbe93c481	-0.28860858
49	0x3ea38c8f	0.31943175
50	0xbe7ce06f	-0.2469499
51	0xbe56560d	-0.20931263
52	0x3c4e8660	0.01260528
53	0x3f0e39c8	0.5555692
54	0xbe27795b	-0.16354887
55	0xbe1de97a	-0.15421095
56	0x3eec91d5	0.4620501
57	0xbeae00a2	-0.33984858
58	0x3e9bb159	0.30408743
59	0xbf50255c	-0.81307006
60	0xbf0cb8d3	-0.5496952
61	0xbd84aaa6	-0.06477861
62	0xbe34511e	-0.17609069
63	0xbe8ab478	-0.27090812
64	0x3e882a14	0.26594603
65	0x3f39e7f9	0.7261959
66	0x3f3a9612	0.7288524
67	0x3dddecd3	0.10836186
68	0xbe3ccc10	-0.18437219
69	0x3fa4032d	1.2813469
70	0x3f2b238f	0.66851133
71	0x3ee6996f	0.45038936
72	0xbd29c3f9	-0.04144666
73	0x3e12bbff	0.14329527
74	0xbda5be91	-0.08092988
75	0xbf314d06	-0.69258153
76	0x3dd94500	0.10608864
77	0xbe59d859	-0.21273936
78	0x3efe9438	0.49722457
79	0x3e5b7896	0.21432719
80	0xbe60b48a	-0.2194387
81	0xbe12bf0f	-0.14330696
82	0x3f743c04	0.95404077
83	0xbdad26c7	-0.08454662
84	0x3e69647c	0.22792238
85	0xbf18bcf1	-0.596633
86	0x3e391d17	0.18077503
87	0x3fca64d4	1.581202
88	0xbd9a9a56	-0.075489685
89	0x3f84b51b	1.0367769
90	0x3f18e093	0.59717673
91	0x3ebdb0db	0.37048993
92	0x3f01c2e0	0.5068798
93	0x3f58b078	0.8464427
94	0x3d22f120	0.039780736
95	0x3ce73950	0.02822557
96	0x3e012e0a	0.12615219
97	0xbe757e9f	-0.23974083
98	0x3e176592	0.1478484
99	0x3f3b8e96	0.73264444
100	0xbef20232	-0.472673
101	0xbd197400	-0.03746414
102	0x3f7bd560	0.9837246
103	0x3e82b357	0.2552745
104	0x3f8c3302	1.0953066
105	0x3f21e57b	0.63240784
106	0xbd94f770	-0.072737575
107	0x3e3e0fec	0.18560761
108	0x3d7a911f	0.061173555
109	0x3f9669b1	1.1751004
110	0xbdfd1179	-0.12356848
111	0x3fbe0b47	1.4847192
112	0x3dbb47ff	0.091445915
113	0x3dfe7570	0.12424743
114	0xbf8d28f6	-1.1028125
115	0xbdd46407	-0.10370641
116	0x3f0c86a3	0.5489294
117	0x3fc4ca22	1.5374186
118	0xbe89fefb	-0.26952347
119	0xbe6cbf65	-0.23119886
120	0x3fb4938e	1.410753
121	0x3e9b5be0	0.30343533
122	0xbf395240	-0.7239113
123	0x3e488d2e	0.19585106
124	0x3fc6b5d0	1.5524235
125	0x3eded8d4	0.43524802
126	0x3f271688	0.65268755
127	0x3efcb5c1	0.49357417

net.2.weight f4 [64, 128]
0	0x3d4c5a99	0.04989109
1	0x3d5bf9f2	0.053705163
2	0xbb70ec20	-0.0036761835
3	0x3d2404ec	0.040043756
4	0xbd8a4757	-0.06751888
5	0xbd423c0c	-0.047420546
6	0x3d4a7cce	0.04943543
7	0x3d9cc411	0.07654584
8	0xbbb59740	-0.005541712
9	0x3cc26ba2	0.023732964
10	0xbdb1a4ea	-0.08674033
11	0xbdb91a5b	-0.0903823
12	0x3d577a13	0.052606653
13	0xbd33c01c	-0.04388438
14	0x3d242652	0.040075608
15	0xbdae1035	-0.08499185
16	0x3d1991a2	0.037492402
17	0xbdbea262	-0.09308316
18	0x3b8e39ca	0.004340385
19	0x3d8dbe3d	0.06921051
20	0x3d091f6e	0.03347724
21	0x3ce56895	0.02800397
22	0x3c520e28	0.012820758
23	0xbd2faed4	-0.04289134
24	0x3d939949	0.07206971
25	0xbd302fdf	-0.043014403
26	0x3d874001	0.06604005
27	0x3d384f62	0.04499758
28	0xbdb50a02	-0.088397995
29	0xbc9af2b5	-0.01891456
30	0xbd8784fb	-0.06617161
31	0xbd7097c6	-0.058738492
32	0xbd737f0a	-0.059447326
33	0x3d97526b	0.07388767
34	0x3da7fb75	0.082022585
35	0x3b5797c0	0.0032896847
36	0x3d425506	0.047444366
37	0x3d91f872	0.07127465
38	0xbcb757a5	-0.02238066
39	0xbd71df97	-0.059051123
40	0x3c72e1f4	0.014824379
41	0x3d850d9b	0.06496736
42	0x3d1491ae	0.036271743
43	0x3d8afe87	0.067868285
44	0x3d1d855b	0.038457256
45	0x3d16363a	0.03667281
46	0xbd63a3af	-0.055576023
47	0xbc02350b	-0.007947217
48	0xbd7965ee	-0.060888223
49	0xbca98f55	-0.020698229
50	0x3d0e7a4a	0.034784593
51	0x3cd01b10	0.02540353
52	0xbd46064f	-0.04834586
53	0xbd4a21c1	-0.049348596
54	0x3d91b1b1	0.0711397
55	0xbb105880	-0.0022025406
56	0xbd10fe74	-0.035398915
57	0xbd36c6be	-0.04462313
58	0x3c2380b5	0.009979417
59	0x3d1b2441	0.03787637
60	0xbdc4c465	-0.09607772
61	0xbd160c60	-0.036632895
62	0x3cc40278	0.023926958
63	0x3d8ada07	0.06779867
64	0x3c586678	0.013208024
65	0x3b212537	0.0024588832
66	0xbdb90e9f	-0.09035992
67	0x3d8292d1	0.06375659
68	0x3db3c1c7	0.087771945
69	0xbcd3d9e0	-0.025860727
70	0xbc03bd3a	-0.008040721
71	0xbd39fc6c	-0.045406744
72	0xbd901829	-0.07035858
73	0xbc6ca670	-0.014443979
74	0x3d625614	0.05525787
75	0xbc63c983	-0.013903025
76	0x3d66ef2a	0.05638043
77	0x3d1846c6	0.03717687
78	0x3c966456	0.01835839
79	0xbd25a7d5	-0.04044326
80	0x3dab4f95	0.083647884
81	0xbcabde8c	-0.020980142
82	0xbd92409b	-0.07141229
83	0x3b4883bd	0.00305961
84	0x3d95a97a	0.07307716
85	0xbda97f1e	-0.08276199
86	0xbd4c66b2	-0.049902625
87	0xbdc29f9e	-0.09503101
88	0x3da21843	0.07914784
89	0x3b8afbb0	0.0042414293
90	0xbd122507	-0.035679843
91	0xbdca3d50	-0.09874976
92	0x3da8af73	0.08236589
93	0xbccbd3d0	-0.024881274
94	0xbd3076ee	-0.04308217
95	0x3db2af43	0.08724835
96	0xbd90e8f1	-0.0707568
97	0xbd4579c5	-0.04821183
98	0x3cd8b93f	0.02645552
99	0x3d264b01	0.040598873
100	0xbcb991d2	-0.02265254
101	0x3d29809e	0.041382425
102	0xbcbc36bc	-0.022975318
103	0x3d610242	0.054933794
104	0xbcf4e773	-0.02989552
105	0xbc8f6e97	-0.017508788
106	0xb95a0800	-0.0002079308
107	0x3d3684d6	0.044560276
108	0xbd8a3cbd	-0.06749866
109	0x3d240d0d	0.04005151
110	0xbdc5315f	-0.096285574
111	0x3c8875e5	0.016657779
112	0x3c9cd154	0.019142784
113	0x3d5f928e	0.054583125
114	0x3c6c2135	0.014412214
115	0x3cfa6f1f	0.030570565
116	0xbcf38016	-0.029724162
117	0xbd9be533	-0.07612076
118	0x3c96ed92	0.01842383
119	0x3d697b9e	0.057002656
120	0xbdac6606	-0.08417897
121	0x3cea32c5	0.028588662
122	0x3c48a9a8	0.01224748
123	0xbd7399a0	-0.05947268
124	0xbd7c6f10	-0.061629355
125	0x3d60c0ae	0.054871254
126	0xbd90432c	-0.07044062
127	0xbd908060	-0.070557356
128	0x398b32dc	0.0002655004
129	0xbd8d2c41	-0.068932064
130	0xbcd7761c	-0.026301436
131	0xbd8ae850	-0.06782591
132	0x3d908d16	0.0705816
133	0xbd0b60d5	-0.034027893
134	0xbcd92182	-0.026505236
135	0xbd9780dd	-0.073976256
136	0x3d0cfc72	0.034420438
137	0xbd05c5a7	-0.0326592
138	0xbda9865e	-0.08277582
139	0x3c51f181	0.012813927
140	0x3b533520	0.003222771
141	0x3d64ac7e	0.055828564
142	0xbd538cb0	-0.051647842
143	0xbcff9951	-0.031201037
144	0x3d56a1ad	0.05240028
145	0x3c96aa57	0.018391771
146	0xb9a901ce	-0.00032235536
147	0xbc87d8ee	-0.016582932
148	0xbdc5c4dc	-0.096566886
149	0xbdb2aa65	-0.087239064
150	0x3d927b85	0.07152466
151	0x3d57440a	0.05255512
152	0xbd94302f	-0.07235753
153	0x3ca036a7	0.01955731
154	0x3c054268	0.008133508
155	0x3d1ed8be	0.03878092
156	0x3d807805	0.06272892
157	0xbd98f1a7	-0.074679665
158	0xbc9ccbf2	-0.019140217
159	0xbd7ce41f	-0.06174099
160	0x3da35ec3	0.07977059
161	0xbc82fe08	-0.015990272
162	0x3d0cec88	0.03440526
163	0x3be8cad0	0.0071042553
164	0xbc246713	-0.01003434
165	0xbc74d68f	-0.014943733
166	0x3d50ef6a	0.051009573
167	0xbd8b63ac	-0.0680612
168	0xbd81bf7e	-0.06335352
169	0xbcc37f30	-0.023864359
170	0xbd9e28f8	-0.07722658
171	0xbd7058d0	-0.05867845
172	0x3ccddb47	0.025128974
173	0x3cfe2538	0.031023607
174	0xbda7f824	-0.08201626
175	0x3cb083fe	0.021547314
176	0xbd539859	-0.051658962
177	0xbceb9faa	-0.028762657
178	0xbd848c6c	-0.06472096
179	0xbdb36ca4	-0.08760956
180	0x3d8d91a3	0.069125436
181	0xbc8d8fa8	-0.017280415
182	0xbd67fe52	-0.056639023
183	0xbd670250	-0.05639869
184	0xbc193190	-0.0093501955
185	0x3cf448a6	0.029819798
186	0x3d322cf2	0.043499894
187	0xbb893e38	-0.0041883253
188	0x3d95dd01	0.07317544
189	0xbd970504	-0.073740035
190	0x3d975aeb	0.07390388
191	0x3b7fb380	0.0039016902
192	0x3d55d742	0.05220724
193	0x3d2cbddd	0.042173255
194	0xbd7d3ac9	-0.06182364
195	0xbd98b2bc	-0.07455966
196	0xbdaa7029	-0.08322174
197	0xbc0c3dc3	-0.008559647
198	0x3ca06cd1	0.019583138
199	0xbcc042a2	-0.023469273
200	0xbd4e944d	-0.0504344
201	0xbcbff88c	-0.023433946
202	0x3d357504	0.044301048
203	0xbce4a443	-0.027910357
204	0xbc08fe08	-0.008361347
205	0xbd862556	-0.0655009
206	0x3d4dcff6	0.050247155
207	0x3d5be0ee	0.053681307
208	0xbd622516	-0.05521115
209	0xbb8dad40	-0.0043236315
210	0x3d860c6f	0.0654534
211	0xbd2a1289	-0.041521583
212	0x3d7f0cce	0.06226807
213	0xbde72c10	-0.11287701
214	0x3d66903a	0.05628989
215	0xbc8bca14	-0.017064132
216	0x3d8085e9	0.06275541
217	0xbc2aa313	-0.0104148565
218	0x3cd4b6f4	0.025966145
219	0xbdb1e6a6	-0.08686571
220	0x3d16f33d	0.036853064
221	0xbc6377b0	-0.013883516
222	0x3c126598	0.008935355
223	0x3d8c356f	0.06846129
224	0xbd74a16e	-0.059724264
225	0x3ce0958c	0.02741506
226	0x3c803677	0.01565097
227	0xbbe94f0e	-0.0071200198
228	0xbd6f0e47	-0.058363225
229	0xba8e5e80	-0.0010861903
230	0xbd5cb150	-0.053880036
231	0xbca57e78	-0.020201907
232	0xbc824295	-0.01590089
233	0xbddb8d5e	-0.10720323
234	0xbc530860	-0.012880415
235	0xbda938fe	-0.082628235
236	0x3d9ebbc7	0.077506594
237	0xbdd79811	-0.10527051
238	0x3d605281	0.05476618
239	0xbcda5dfd	-0.026656145
240	0xbcf9af40	-0.030479074
241	0x3da9dfbd	0.08294628
242	0xbcaa6f87	-0.020805134
243	0xbc30e7a3	-0.010797414
244	0xbd41824c	-0.0472434
245	0xbde2d4d2	-0.110757485
246	0x3cbf1f13	0.023330247
247	0x3cd6e750	0.026233345
248	0xbd8db473	-0.069191836
249	0xbd23c298	-0.0399805
250	0xbcf316ca	-0.029673953
251	0x3d0458da	0.032311298
252	0xbd40638a	-0.046969928
253	0xbd98e596	-0.07465665
254	0xbdc85c55	-0.09783236
255	0x3c8d36fb	0.01723813

net.2.bias f4 [64]
0	0xbda66e1d	-0.08126471
1	0x3d091738	0.03346941
2	0x3e03e0b3	0.12878685
3	0x3eaa70d6	0.33289212
4	0xb9642726	-0.00021758358
5	0x3d60634b	0.054782193
6	0xbba70840	-0.005097419
7	0x3e8bd141	0.27308086
8	0x3bfcb5eb	0.007712116
9	0x3fbd921c	1.4810214
10	0xbda8dd97	-0.0824539
11	0xbeb03912	-0.3441854
12	0x3cf91ca4	0.030409165
13	0x3e78d109	0.2429849
14	0x3f05081e	0.5196551
15	0xbdee9567	-0.1164959
16	0x3cefebea	0.029287297
17	0x3cca1324	0.02466733
18	0x3d91a0f0	0.071107745
19	0x3d2629f9	0.040567372
20	0x3f09febe	0.5390433
21	0xbdd94b1b	-0.10610028
22	0xbb747c7b	-0.0037305641
23	0x3cde8491	0.027162822
24	0x3cff155e	0.031138118
25	0x3cbac9e0	0.02280134
26	0x3f070692	0.527444
27	0xbca7e130	-0.02049312
28	0x39ee0ed8	0.00045405957
29	0xbd185230	-0.037187755
30	0x3c503653	0.012708264
31	0x3b919828	0.0044431873
32	0xbd508b04	-0.050913826
33	0xbf78a01d	-0.97119313
34	0x3d00e9ed	0.03147309
35	0x3d5e0b69	0.0542101
36	0x3cdc53ac	0.026895367
37	0xbef03adc	-0.46919906
38	0x3e71a64b	0.23598592
39	0x3e3cb027	0.18426572
40	0x3ef415b1	0.476728
41	0xbd8c293d	-0.06843803
42	0xbd19b558	-0.03752646
43	0x3f1f03fc	0.62115455
44	0xbc0fb090	-0.008770123
45	0xbdcc6f32	-0.09982146
46	0x3ee103ed	0.43948308
47	0xbd6b9a7a	-0.057520367
48	0xbcef4492	-0.029207502
49	0x3fe7a885	1.8098303
50	0xbe7ff333	-0.24995117
51	0xbc7d0f8a	-0.015445599
52	0x3e1a891c	0.15091366
53	0x3d3a26de	0.045447223
54	0xbdabb653	-0.08384385
55	0x3f03cce0	0.5148449
56	0x3d025d88	0.03182748
57	0x3cb9ed84	0.022696264
58	0x3d271d8e	0.04079967
59	0xbc8433d1	-0.01613799
60	0xbda8db87	-0.082449965
61	0x3cf822df	0.030290065
62	0x3c9669df	0.01836103
63	0x3f6ce257	0.9253287

net.4.weight f4 [4, 64]
0	0xbdccc2aa	-0.09998067
1	0xbbb867b5	-0.005627597
2	0xbfdc2553	-1.719889
3	0xc0a8f3f1	-5.279778
4	0x3d69e2f9	0.057101224
5	0x3d032794	0.032020167
6	0xbdb00492	-0.08594622
7	0xc0db17d5	-6.846659
8	0xbd3377bb	-0.043815356
9	0xc09b94ae	-4.8618994
10	0x40cb1619	6.3464475
11	0x4091a381	4.551209
12	0x3c95b205	0.018273363
13	0xc097c67b	-4.7429786
14	0xc18b828d	-17.438745
15	0x40f9c69d	7.805495
16	0x3cbae233	0.022812938
17	0xbd45e0b0	-0.04830998
18	0x3d267220	0.04063618
19	0xbf55b465	-0.83478385
20	0xc150ca94	-13.049458
21	0xc0bc5eae	-5.8865576
22	0x3c94e566	0.018175792
23	0x3cdd68e5	0.027027557
24	0x3ca12468	0.01967068
25	0x3d2f34fa	0.04277513
26	0xc1403cb8	-12.014824
27	0xbdff9bc7	-0.12480884
28	0xbdb8c185	-0.09021286
29	0x3d074156	0.033021294
30	0x3c1bb7be	0.009504257
31	0xbd84b49f	-0.06479763
32	0x3ccc3600	0.024928093
33	0x4036e08b	2.857455
34	0x3de1da3e	0.110279545
35	0xc1b69034	-22.820412
36	0xbc1053d8	-0.008809052
37	0xc0f366f6	-7.6063185
38	0xc0afa3a2	-5.4887247
39	0x40849645	4.1433434
40	0xc12e7f44	-10.906071
41	0x3de22a70	0.110432506
42	0xbd6500c5	-0.055908937
43	0x40d45030	6.6347885
44	0xbd5ae600	-0.053442
45	0x3d10a74f	0.035315808
46	0xc158948e	-13.536268
47	0x3c786900	0.015161753
48	0xbbd960c8	-0.0066338517
49	0xbfb54e62	-1.4164546
50	0xc0d0069e	-6.500808
51	0x3d9feb6f	0.07808577
52	0xc15649d4	-13.393024
53	0xc0cdfddd	-6.437239
54	0x3de39497	0.11112326
55	0xc11eb909	-9.920175
56	0x3c83ec2d	0.016103828
57	0x3d7ec8cf	0.062203225
58	0x3d4d41e1	0.050111655
59	0x411efa5e	9.936125
60	0x3b353b2e	0.0027653682
61	0xc0b4a59c	-5.645216
62	0xc0b9c107	-5.804813
63	0x410c0fdc	8.753872
64	0xbc791915	-0.015203734
65	0xbdb352ae	-0.08756004
66	0xc0f5d2ef	-7.6819987
67	0xc08f0adf	-4.470077
68	0xbd990208	-0.074710906
69	0x3c093dc8	0.008376546
70	0x3c7eb62c	0.015546363
71	0xc102768b	-8.153941
72	0x3df1919e	0.117953524
73	0xc0130d39	-2.297682
74	0x40af5201	5.4787602
75	0x407a3c3b	3.9099262
76	0xbc802728	-0.015643671
77	0xc0d7c0b1	-6.742272
78	0xc14d2759	-12.822106
79	0x41805524	16.041573
80	0x3d7347f5	0.059394795
81	0x3d80197e	0.06254862
82	0x3d9cbd0e	0.07653247
83	0xc0c93427	-6.2876163
84	0xc13fc84f	-11.986403
85	0x3f5cc2b4	0.86234593
86	0xbc6444e7	-0.013932443
87	0x3de57941	0.11204768
88	0xbdaca974	-0.08430758
89	0x3c987438	0.018610105
90	0xc15d92cb	-13.848338
91	0x3d7de9e8	0.06199065
92	0xbc93e160	-0.018051803
93	0x3deede1b	0.11663457
94	0x3d1cbca0	0.038265824
95	0x3d97a8c4	0.07405236
96	0xbd42eb12	-0.04758746
97	0x40b73ac8	5.7259254
98	0x3dc82b6c	0.09773907
99	0xc1bac8ef	-23.348112
100	0x3d8dbb6c	0.069205135
101	0xc0c57df7	-6.1716266
102	0xc0a6b432	-5.2094965
103	0x40946c2c	4.6382046
104	0xc0ec7975	-7.3898263
105	0x3d40df0d	0.047087718
106	0xbc842322	-0.016130034
107	0x3f25e7ba	0.6480671
108	0xbc2b3d10	-0.01045157
109	0x3d3b63b7	0.045749392
110	0xc1517b0c	-13.092541
111	0x3cee3a48	0.029080525
112	0xbdc97804	-0.09837344
113	0xc0873f16	-4.226451
114	0xc0dabb2e	-6.835349
115	0x3ddce822	0.10786463
116	0xc1882c0d	-17.02151
117	0xc0d3cfeb	-6.6191306
118	0xbb8089e7	-0.0039226892
119	0xc15e9b5d	-13.9129305
120	0x3ce5f960	0.028073013
121	0x3c0b04a2	0.008484991
122	0x3e01b1b4	0.12665445
123	0x41369354	11.410969
124	0x3db1d6c0	0.086835384
125	0xc09c4df2	-4.884515
126	0xc0fcb2f6	-7.896846
127	0x4100047b	8.001094
128	0xbbe38060	-0.0069427937
129	0x3dd4a1ef	0.10382449
130	0xc0f99230	-7.799095
131	0xc0e46f94	-7.1386204
132	0x3ce99942	0.028515462
133	0x3d06f7e8	0.032951266
134	0x3de0b35c	0.1097171
135	0xc0f730cf	-7.724708
136	0x3d528eb8	0.05140564
137	0xc085d87d	-4.182677
138	0x40c191e4	6.049059
139	0x409107b4	4.5321903
140	0x3c33ab05	0.010966067
141	0xc10b6722	-8.712679
142	0xc184a588	-16.580826
143	0x40ccb923	6.3975997
144	0x3ce2b91b	0.027676156
145	0xb9d3f200	-0.0004042536
146	0xbd026e2c	-0.03184335
147	0xc062d8be	-3.544479
148	0xc14626ce	-12.384474
149	0xc08b828c	-4.359686
150	0xbc38ea39	-0.011286312
151	0x3dd12075	0.10211269
152	0x3dbabfbe	0.09118603
153	0x3c5cc49a	0.013474608
154	0xc164a6cb	-14.290721
155	0x3c7384a0	0.014863163
156	0xbc954560	-0.018221557
157	0x3d0dcd86	0.03461983
158	0x3b8bd8ab	0.004267772
159	0x3d9c88a6	0.07643251
160	0x3daaf95e	0.08348344
161	0x4028633f	2.6310575
162	0x3cf41285	0.029793987
163	0xc1b9ca77	-23.22386
164	0x3d38849f	0.045048352
165	0xc0c8339c	-6.2563
166	0xc0a4ec42	-5.15384
167	0x40a0bc5a	5.022992
168	0xc10ee2c9	-8.930367
169	0xbca35feb	-0.019943198
170	0x3dcb685e	0.09932016
171	0x40a786a9	5.235188
172	0x3b7c2980	0.0038476884
173	0xbd9a122f	-0.075229995
174	0xc14ec7e9	-12.923806
175	0xbd92cb78	-0.07167715
176	0xbde319e6	-0.11088924
177	0xc0088e58	-2.133688
178	0xc0f2d36f	-7.58831
179	0x3ddd0f77	0.10793965
180	0xc192d3a7	-18.353346
181	0xc0a4cb3a	-5.149808
182	0x3dee15f2	0.116252795
183	0xc12026f1	-10.009507
184	0xbdb4991a	-0.08818264
185	0xbc9299fa	-0.017895687
186	0xbdef8c1a	-0.11696644
187	0x411eebb9	9.932549
188	0xbdf83166	-0.12118797
189	0xc0a233b2	-5.0688105
190	0xc0c39e01	-6.1130376
191	0x40de685b	6.9502387
192	0xbd41dfa4	-0.04733242
193	0x3d923fcb	0.07141074
194	0xc00c817c	-2.195403
195	0xc116d6ca	-9.427439
196	0x3dc0dd61	0.09417225
197	0xbca5cd3b	-0.020239463
198	0x3d803e8b	0.06261929
199	0xc065c461	-3.590111
200	0xbd4c3ef3	-0.04986472
201	0xc0a7cac1	-5.2435
202	0x40d702ab	6.7190757
203	0x4082ff68	4.0936775
204	0x3dc6bc10	0.09703839
205	0xc13d5512	-11.833269
206	0xc1886251	-17.048006
207	0x4059aeef	3.401302
208	0x3d85b7c3	0.065291904
209	0xbdf80afa	-0.121114686
210	0x3c7540eb	0.014969091
211	0xc0219226	-2.5245452
212	0xc146c6ea	-12.423563
213	0xc087577f	-4.2294307
214	0x3b432025	0.0029773798
215	0xbbc39c7f	-0.0059695835
216	0xbd04d7f8	-0.032432526
217	0xbe13bb0d	-0.14426823
218	0xc127c05b	-10.484462
219	0x3dc2a976	0.09504978
220	0xbc76a520	-0.015054017
221	0x3d9f3973	0.077746294
222	0xbd4a7575	-0.049428422
223	0xbdcb4318	-0.099249065
224	0x3df1c26a	0.1180466
225	0x40aa8f07	5.3299594
226	0xbdd17298	-0.10226935
227	0xc1add9c6	-21.731335
228	0x3dcbeee4	0.09957674
229	0xc106e9a9	-8.432046
230	0xc1089608	-8.536629
231	0x4003d12c	2.0596418
232	0xc11c87b1	-9.783128
233	0x3ba8f065	0.0051556104
234	0x3dec88cd	0.1154953
235	0x40ddd3f8	6.932125
236	0xbdfe21d2	-0.124087945
237	0x3bc4184c	0.0059843417
238	0xc136518a	-11.394907
239	0xbcc8fd68	-0.024534896
240	0xbd9edfa8	-0.07757503
241	0xbf5f1595	-0.87142307
242	0xc106af67	-8.417823
243	0x3d77dd7b	0.060513955
244	0xc17afe61	-15.687104
245	0xc0a13878	-5.038143
246	0xbd2e15f0	-0.04250139
247	0xc11b0ecd	-9.691113
248	0xbca76fc8	-0.020439044
249	0x3d5da774	0.054114774
250	0xbd63be6f	-0.055601534
251	0x411f59ba	9.959406
252	0xbd9c2a18	-0.07625216
253	0xc09cc765	-4.89934
254	0xc0d126f8	-6.536007
255	0x41135f88	9.210823

net.4.bias f4 [4]
0	0x4023666d	2.5531266
1	0xbff7fd61	-1.93742
2	0xc02397c6	-2.5561385
3	0xbfe97491	-1.8238698
