modelo_finetuned_multimapas.pth (torch, 45125 bytes, 6 tensors)

net.0.weight f4 [128, 14]
00000000: b94d d13e b556 74c0 f9cb a73f bbd8 2ec1
00000010: 54fe cfbe 5cd3 6a3d e52d 28be 0ca7 5a3e
00000020: 8699 593e 5e9f 153f 4fc8 363f 5743 87be
00000030: d208 52bf 6d0e d3bf dabd 5cc0 13f4 f5bf
00000040: 57d5 86c0 c929 513f 9df8 053f 3aa0 12bf
00000050: 21ab 353f d489 34bd 0507 623e e1ff f23e
00000060: e9d6 113f 7f80 903e a158 bac0 97c2 c2bf
00000070: e0ab 673d 320b 2d3e aa26 a7bd d0c2 2f3d
00000080: 6c0f b6bd 00c0 64bb e60a d0bd 4e85 0e3e
00000090: c819 8fbd b462 4ebd 6832 233d e8f7 54be
000000a0: bc2b af3d 0006 aa3b ec4e 89bf 1d77 86be
000000b0: 77af c2c0 90d3 cfc0 5f8f a3bf 0d9f ca3e
000000c0: bc2b 0b3f 99df 143d 6be7 9bbe e7d3 53be
000000d0: 0aad 74bf 77dc 7bbf 37ec 1c3f 5b75 1740
000000e0: 5306 42bf 428f 823f d855 e73b e9e8 b4bf
000000f0: 517e 3740 128e f93e e269 373e 1f48 56bf
00000100: dd45 753e 6cc4 56bd 50b4 1d3f ea27 8dbe
00000110: 231a 9e3e dd4a 5dc0 156f 36c0 b648 0340
00000120: 8785 0ebf f9b4 7c40 4cab 98be 17b5 10bf
00000130: 85f0 c6bd dce4 de3d 0728 0a3f aaae d23e
00000140: 6a3b f63e 722e 01bf f689 6ec0 06e7 0540
00000150: 7e3d 01be bfc3 563e acb9 d5bd e7df 6fbe
00000160: eb6c 4f3e 9729 7c3d 6ed4 b1bd 2589 5abe
00000170: f9ca 40bd a37c 4ebe 71a5 58be 60d8 053e
00000180: 2b1c c83c 5f7b f1bd a72d 82c0 14d5 4b40
00000190: 29a6 30bf f291 803f c851 83bf 449f 943d
000001a0: 1d7e 0fbf 612e 593f 454d 223f 2d3c 413f
000001b0: d794 b3be 9657 f43e 4136 41bf 032b b93e
000001c0: cc3a 1dbe 60a6 06bc 405f f7bb e6c5 06be
000001d0: ee65 b0bd a008 87be a509 43be 4aae 743e
000001e0: 92a4 88be 5b8e 82be 40a5 ff3d 1076 4e3d
000001f0: f940 68be c4e8 b5bd 9935 8dc0 9dfb d33e
00000200: 0a9d 3bc1 4b9d 6f3f c918 adbe 31d6 f9bf
00000210: 8218 10bf 2021 27c0 46f4 18be 9dd0 04bf
00000220: d808 e23e e26a 89bf 3615 1ebf 3e7e 3a40
00000230: cc00 0dc0 98a7 f63f e0c0 88c0 d37c a0c0
00000240: 0d6b 8dbe 7acf 0abf 29f9 a7be a805 9c3c
00000250: 4983 a1be 20db ec3d 9051 e93e f404 04bf
00000260: 4f1c b93e 5ec4 1c40 0e12 0cc0 f54f e93f
00000270: 8630 1f3f 03c6 6340 ef4b c4bf 43c6 9a3e
00000280: 4186 c33e f974 353f 5ba8 f13e a9ad 743e
00000290: 96de 1640 784b d83f 736c 99bf 4390 33c0
000002a0: b412 d5bf 04ed 0140 042d a5c0 a578 acbf
000002b0: bb8c 3140 c25b fdbe 483d aa3f e0e7 69c0
000002c0: 339e 1a3f c7e4 fa3e cdab 05c0 2f02 81bf
000002d0: 3c64 3bbe 430e edbf aa73 5240 bdf9 afbf
000002e0: fd24 6640 6927 b8c0 8102 e539 dd15 213e
000002f0: e71a c43e 355f c0be 79a8 aa3e 41a4 c6bc
00000300: 9111 cdbf 8af6 9bbf 68d0 8f3f 4e32 c53d
00000310: 4eb6 f4bd ed33 31be bbaf 46bd 1c54 623e
00000320: 0029 2b3e b8cb 8dbd 774d 87be 30a9 d53d
00000330: cf41 fa3a 6329 97be 79d3 853d e97a 44be
00000340: 43bc cb3d bcf8 13be 9d00 c740 5910 16bd
00000350: f58d 0f41 6cbd d4bf 8b5e 91bd c62e 9cbc
00000360: 348d 803e a832 0f3f d7d2 93be a0c2 b3bd
00000370: 6ac5 4b3f e09e c43f ef3a eabe fc92 88bf
00000380: 8fad ff3e f235 3f40 6190 12bf ce39 45c0
00000390: 894d 113f 19d2 9c3e 977c 86c0 fc4e 09bf
000003a0: 32fd 283f 2c8b 253f f565 37c0 a037 57c0
000003b0: e8b2 143e aa5c 84c0 7b9a 9fbd 0004 c93f
000003c0: 0e89 a3bf 3650 98bf b13e e63e dd8d 00bf
000003d0: b639 013f cc1f 943f 21fd 2f3f cf35 0c3f
000003e0: c78d 733f 9e95 bebc 7e52 2e40 ada0 963f
000003f0: debf 853e dcb8 ef3f 18c7 c4bf fd67 8ebf
0.4087961 -3.8177922 1.3109123 -10.927913 -0.40623724 0.057330474 -0.16423757 0.21352786
0.21249971 0.584463 0.71399397 -0.26418564 -0.8204471 -1.6488777 -3.4490876 -1.921511
-4.2135425 0.81704384 0.5233248 -0.57275736 0.70964247 -0.044076756 0.2207299 0.47460845
0.5696855 0.28223035 -5.823319 -1.5215634 0.056560397 0.16898802 -0.081616715 0.042910397
-0.0888966 -0.003490448 -0.10158329 0.13918039 -0.06987339 -0.0503871 0.039842993 -0.20797694
0.085532635 0.0051887035 -1.072721 -0.2626275 -6.083919 -6.4945755 -1.2778128 0.3957447
0.5436361 0.03634605 -0.30449995 -0.20686303 -0.95576537 -0.9838328 0.61297935 2.3665378
-0.757909 1.0199969 0.007059794 -1.4133579 2.8670847 0.48741204 0.17911485 -0.837038
0.23952432 -0.052433416 0.6160326 -0.27569515 0.30879316 -3.4576943 -2.85053 2.051313
-0.55672497 3.9485457 -0.2981819 -0.5652632 -0.09713844 0.10883495 0.53967327 0.41148883
0.48092204 -0.50461495 -3.7271705 2.0922256 -0.12621114 0.20973109 -0.10435805 -0.23425256
0.20256393 0.0615631 -0.08683096 -0.21341379 -0.04706857 -0.20164733 -0.21156861 0.13070822
0.024427494 -0.11791109 -4.068073 3.1848803 -0.6900354 1.0044539 -1.0259333 0.0725694
-0.5605181 0.84836394 0.63399154 0.75482446 -0.35074493 0.47723073 -0.7547341 0.36165628
-0.1535446 -0.008218378 -0.0075491965 -0.1316143 -0.086131915 -0.26373768 -0.19046648 0.23894611
-0.26688057 -0.25499234 0.12482691 0.050405562 -0.22681035 -0.08882287 -4.4127927 0.41402903
-11.72584 0.93599385 -0.33807972 -1.9518491 -0.56287396 -2.6113968 -0.14936933 -0.5188082
0.44147372 -1.0735743 -0.61751115 2.9139552 -2.2031736 1.9269896 -4.2735443 -5.0152373
-0.27620736 -0.54222834 -0.32807282 0.019045666 -0.31545475 0.11565232 0.4557004 -0.5157006
0.3615441 2.4494853 -2.188602 1.8227526 0.62183416 3.5589607 -1.5335673 0.30229387
0.38188365 0.7088161 0.47198758 0.23894371 2.3573356 1.6898031 -1.1986221 -2.80568
-1.6646333 2.0300913 -5.161745 -1.3474318 2.7742145 -0.49484068 1.3299952 -3.6547775
0.6039764 0.49002668 -2.088611 -1.0078791 -0.18299955 -1.8519977 3.2883096 -1.3748089
3.5960076 -5.754811 0.0004368015 0.15730996 0.38301775 -0.37572637 0.3333166 -0.024248244
-1.6020986 -1.2184613 1.1235476 0.096287355 -0.11948834 -0.17304964 -0.048507433 0.22102398
0.16714859 -0.06923622 -0.26426288 0.104326606 0.0019093099 -0.29523763 0.06534476 -0.19187512
0.099480174 -0.14450353 6.218825 -0.036636684 8.9721575 -1.6620307 -0.07098111 -0.019065272
0.2510773 0.5593667 -0.28871796 -0.08777356 0.79598105 1.5360985 -0.45748088 -1.0669856
0.49937102 2.9876676 -0.57251555 -3.081653 0.56758934 0.30629042 -4.2027087 -0.53636146
0.66011345 0.64665484 -2.865598 -3.36277 0.14521372 -4.1363115 -0.07793137 1.5704346
-1.2776201 -1.1899478 0.44969705 -0.50216466 0.50478685 1.1572204 0.6874562 0.54769605
0.9513821 -0.023264702 2.723785 1.1767784 0.26122946 1.872829 -1.5373259 -1.1125485

net.0.bias f4 [128]
00000000: cb4a 293f ab0b dd3e 16ec 54be 3c87 97bb
00000010: 65b3 e33e 203e 763e 4d20 7e3e 98a4 513f
00000020: ec55 a93d 7c29 40be 6207 be3d bbeb 2f3e
00000030: b599 ff3e 017c cb3e 6e07 793d 68e3 88be
00000040: 6940 283f c9cf 3d3f f8fb 4f3f 27ac c73e
00000050: 2afd 26bf c713 eabe 38e6 e43c 460e 2a3e
00000060: 0091 1ebc eb6c a4bd ab4d 16be 8b20 58bd
00000070: c0c4 7a3f 2f92 cf3e 67a3 af3f 1b42 47be
00000080: ebeb b33f f8c2 72be a00c d83c 3672 84bd
00000090: 7a1f 6b3e 688e 663f 2e8a 2a3d d22c ec3e
000000a0: d0c3 ea3e 802d e1bb 22cf 8ebd 23a4 433f
000000b0: 601c a53f 7476 26be a3a5 593d e66b aa3e
000000c0: 7f85 053e e7dc cd3d 6fe0 7cbe 60e3 80be
000000d0: 6086 4e3c 5d40 873f a10a abbe 7ae9 1dbe
000000e0: ce0d 3c3f 37bc 963e 065e 313f bff3 efbe
000000f0: 4871 acbe d6b3 0d3e 1e51 34be 80f6 85be
00000100: 3ee8 b13e 4b87 013f 739a b93e fef0 233f
00000110: 10cc 3cbe a368 653f dcd2 613f 6b5f 013f
00000120: afd9 e23e b8b3 203e 0dbd 033c f7cf 6b3e
00000130: 0045 d93d 1f3a 4dbe 74b8 f93e 9678 5b3e
00000140: 51eb b13e 0fbf 12be fe61 383e d721 c83e
00000150: 1ce1 8f3e feff c9be 0a93 a2bd c03b 983f
00000160: 569a 9abd e23f 253f 8129 ad3d 92ae a53e
00000170: ee7e 6ebd 7aaa de3d 0eb6 493d 5039 e73c
00000180: 0a2e 013e 9f7e 75be e167 aebe 5a5d c03e
00000190: 3202 f2be 0074 19bd bf55 043e 263f e8bd
000001a0: 8a5c 353f fba5 913e 70f7 94bd ec0f 3e3e
000001b0: 1f91 7a3d 45a5 3c3f 741f fdbe 8cf2 393f
000001c0: e0c1 ce3d 7075 fe3d 8067 983d 21ca 773e
000001d0: 4a2b 463f 432d 803f 16b4 bd3d d602 63be
000001e0: 1f03 8e3f 6bbb 133e 30dc bf3d b9bd 503f
000001f0: b8ad 613f a064 273e 722e 8e3e a6c5 2b3f
0.6612975 0.43172964 -0.20793185 -0.0046242755 0.44472805 0.24047136 0.2481701 0.81891775
0.082683414 -0.18765825 0.09278752 0.17179768 0.49921957 0.39743045 0.0607981 -0.26735997
0.6572328 0.7414518 0.8124385 0.3899853 -0.6523005 -0.45718214 0.027941808 0.16607007
-0.009678125 -0.08028587 -0.14678065 -0.05276541 0.97956467 0.40541217 1.3721741 -0.19458811
1.4056371 -0.23707187 0.026373208 -0.064670965 0.22961226 0.90061045 0.041635685 0.46127945
0.45852518 -0.006871879 -0.06973101 0.7642233 1.2899284 -0.16256124 0.05313648 0.33285445
0.13039206 0.100518994 -0.2469499 -0.25173473 0.01260528 1.0566517 -0.33406547 -0.15421095
0.73458564 0.29440472 0.69284093 -0.4686565 -0.33680177 0.13838133 -0.17609069 -0.26164627
0.347475 0.50597066 0.36250648 0.640396 -0.18437219 0.8961279 0.8821237 0.5053622
0.44306704 0.15693557 0.008040679 0.23028551 0.10608864 -0.20041703 0.4877354 0.21432719
0.34749845 -0.14330696 0.18006131 0.39088318 0.28101432 -0.3945312 -0.07938202 1.1893234
-0.075489685 0.645506 0.08455182 0.3235975 -0.05822652 0.108723596 0.049245887 0.02822557
0.12615219 -0.23974083 -0.34063628 0.37571222 -0.472673 -0.03746414 0.12923335 -0.113401696
0.7084433 0.28446946 -0.072737575 0.18560761 0.061173555 0.7368968 -0.4943806 0.7263572
0.100955725 0.12424743 0.07441616 0.241982 0.77409804 1.0013813 0.09262864 -0.2216905
1.1094702 0.14426963 0.09368169 0.81539494 0.881557 0.16346979 0.2776981 0.6709846

net.2.weight f4 [64, 128]
00000000: 995a 4c3d f2f9 5b3d 20ec 70bb ec04 243d
00000010: 5747 8abd 0c3c 42bd ce7c 4a3d 11c4 9c3d
00000020: 4097 b5bb a26b c23c eaa4 b1bd 5b1a b9bd
00000030: 137a 573d 1cc0 33bd 5226 243d 3510 aebd
00000040: a291 193d 62a2 bebd ca39 8e3b 3dbe 8d3d
00000050: 6e1f 093d 9568 e53c 280e 523c d4ae 2fbd
00000060: 4999 933d df2f 30bd 0140 873d 624f 383d
00000070: 020a b5bd b5f2 9abc fb84 87bd c697 70bd
00000080: 0a7f 73bd 6b52 973d 75fb a73d c097 573b
00000090: 0655 423d 72f8 913d a557 b7bc 97df 71bd
000000a0: f4e1 723c 9b0d 853d ae91 143d 87fe 8a3d
000000b0: 5b85 1d3d 3a36 163d afa3 63bd 0b35 02bc
000000c0: ee65 79bd 558f a9bc 4a7a 0e3d 101b d03c
000000d0: 4f06 46bd c121 4abd b1b1 913d 8058 10bb
000000e0: 74fe 10bd bec6 36bd b580 233c 4124 1b3d
000000f0: 65c4 c4bd 600c 16bd 7802 c43c 07da 8a3d
00000100: 7866 583c 3725 213b 9f0e b9bd d192 823d
00000110: c7c1 b33d e0d9 d3bc 3abd 03bc 6cfc 39bd
00000120: 2918 90bd 70a6 6cbc 1456 623d 83c9 63bc
00000130: 2aef 663d c646 183d 5664 963c d5a7 25bd
00000140: 954f ab3d 8cde abbc 9b40 92bd bd83 483b
00000150: 7aa9 953d 1e7f a9bd b266 4cbd 9e9f c2bd
00000160: 4318 a23d b0fb 8a3b 0725 12bd 503d cabd
00000170: 73af a83d d0d3 cbbc ee76 30bd 43af b23d
00000180: f1e8 90bd c579 45bd 3fb9 d83c 014b 263d
00000190: d291 b9bc 9e80 293d bc36 bcbc 4202 613d
000001a0: 73e7 f4bc 976e 8fbc 0008 5ab9 d684 363d
000001b0: bd3c 8abd 0d0d 243d 5f31 c5bd e575 883c
000001c0: 54d1 9c3c 8e92 5f3d 3521 6c3c 1f6f fa3c
000001d0: 1680 f3bc 33e5 9bbd 92ed 963c 9e7b 693d
000001e0: 0666 acbd c532 ea3c a8a9 483c a099 73bd
000001f0: 106f 7cbd aec0 603d 2c43 90bd 6080 90bd
00000200: dc32 8b39 412c 8dbd 1c76 d7bc 50e8 8abd
00000210: 168d 903d d560 0bbd 8221 d9bc dd80 97bd
00000220: 72fc 0c3d a7c5 05bd 5e86 a9bd 81f1 513c
00000230: 2035 533b 7eac 643d b08c 53bd 5199 ffbc
00000240: ada1 563d 57aa 963c ce01 a9b9 eed8 87bc
00000250: dcc4 c5bd 65aa b2bd 857b 923d 0a44 573d
00000260: 2f30 94bd a736 a03c 6842 053c bed8 1e3d
00000270: 0578 803d a7f1 98bd f2cb 9cbc 1fe4 7cbd
00000280: c35e a33d 08fe 82bc 88ec 0c3d d0ca e83b
00000290: 1367 24bc 8fd6 74bc 6aef 503d ac63 8bbd
000002a0: 7ebf 81bd 307f c3bc f828 9ebd d058 70bd
000002b0: 47db cd3c 3825 fe3c 24f8 a7bd fe83 b03c
000002c0: 5998 53bd aa9f ebbc 6c8c 84bd a46c b3bd
000002d0: a391 8d3d a88f 8dbc 52fe 67bd 5002 67bd
000002e0: 9031 19bc a648 f43c f22c 323d 383e 89bb
000002f0: 01dd 953d 0405 97bd eb5a 973d 80b3 7f3b
00000300: 42d7 553d ddbd 2c3d c93a 7dbd bcb2 98bd
00000310: 2970 aabd c33d 0cbc d16c a03c a242 c0bc
00000320: 4d94 4ebd 8cf8 bfbc 0475 353d 43a4 e4bc
00000330: 08fe 08bc 5625 86bd f6cf 4d3d eee0 5b3d
00000340: 1625 62bd 40ad 8dbb 6f0c 863d 8912 2abd
00000350: ce0c 7f3d 102c e7bd 3a90 663d 14ca 8bbc
00000360: e985 803d 13a3 2abc f4b6 d43c a6e6 b1bd
00000370: 3df3 163d b077 63bc 9865 123c 6f35 8c3d
00000380: 6ea1 74bd 8c95 e03c 7736 803c 0e4f e9bb
00000390: 470e 6fbd 805e 8eba 50b1 5cbd 787e a5bc
000003a0: 9542 82bc 5e8d dbbd 6008 53bc fe38 a9bd
000003b0: c7bb 9e3d 1198 d7bd 8152 603d fd5d dabc
000003c0: 40af f9bc bddf a93d 876f aabc a3e7 30bc
000003d0: 4c82 41bd d2d4 e2bd 131f bf3c 50e7 d63c
000003e0: 73b4 8dbd 98c2 23bd ca16 f3bc da58 043d
000003f0: 8a63 40bd 96e5 98bd 555c c8bd fb36 8d3c
0.04989109 0.053705163 -0.0036761835 0.040043756 -0.06751888 -0.047420546 0.04943543 0.07654584
-0.005541712 0.023732964 -0.08674033 -0.0903823 0.052606653 -0.04388438 0.040075608 -0.08499185
0.037492402 -0.09308316 0.004340385 0.06921051 0.03347724 0.02800397 0.012820758 -0.04289134
0.07206971 -0.043014403 0.06604005 0.04499758 -0.088397995 -0.01891456 -0.06617161 -0.058738492
-0.059447326 0.07388767 0.082022585 0.0032896847 0.047444366 0.07127465 -0.02238066 -0.059051123
0.014824379 0.06496736 0.036271743 0.067868285 0.038457256 0.03667281 -0.055576023 -0.007947217
-0.060888223 -0.020698229 0.034784593 0.02540353 -0.04834586 -0.049348596 0.0711397 -0.0022025406
-0.035398915 -0.04462313 0.009979417 0.03787637 -0.09607772 -0.036632895 0.023926958 0.06779867
0.013208024 0.0024588832 -0.09035992 0.06375659 0.087771945 -0.025860727 -0.008040721 -0.045406744
-0.07035858 -0.014443979 0.05525787 -0.013903025 0.05638043 0.03717687 0.01835839 -0.04044326
0.083647884 -0.020980142 -0.07141229 0.00305961 0.07307716 -0.08276199 -0.049902625 -0.09503101
0.07914784 0.0042414293 -0.035679843 -0.09874976 0.08236589 -0.024881274 -0.04308217 0.08724835
-0.0707568 -0.04821183 0.02645552 0.040598873 -0.02265254 0.041382425 -0.022975318 0.054933794
-0.02989552 -0.017508788 -0.0002079308 0.044560276 -0.06749866 0.04005151 -0.096285574 0.016657779
0.019142784 0.054583125 0.014412214 0.030570565 -0.029724162 -0.07612076 0.01842383 0.057002656
-0.08417897 0.028588662 0.01224748 -0.05947268 -0.061629355 0.054871254 -0.07044062 -0.070557356
0.0002655004 -0.068932064 -0.026301436 -0.06782591 0.0705816 -0.034027893 -0.026505236 -0.073976256
0.034420438 -0.0326592 -0.08277582 0.012813927 0.003222771 0.055828564 -0.051647842 -0.031201037
0.05240028 0.018391771 -0.00032235536 -0.016582932 -0.096566886 -0.087239064 0.07152466 0.05255512
-0.07235753 0.01955731 0.008133508 0.03878092 0.06272892 -0.074679665 -0.019140217 -0.06174099
0.07977059 -0.015990272 0.03440526 0.0071042553 -0.01003434 -0.014943733 0.051009573 -0.0680612
-0.06335352 -0.023864359 -0.07722658 -0.05867845 0.025128974 0.031023607 -0.08201626 0.021547314
-0.051658962 -0.028762657 -0.06472096 -0.08760956 0.069125436 -0.017280415 -0.056639023 -0.05639869
-0.0093501955 0.029819798 0.043499894 -0.0041883253 0.07317544 -0.073740035 0.07390388 0.0039016902
0.05220724 0.042173255 -0.06182364 -0.07455966 -0.08322174 -0.008559647 0.019583138 -0.023469273
-0.0504344 -0.023433946 0.044301048 -0.027910357 -0.008361347 -0.0655009 0.050247155 0.053681307
-0.05521115 -0.0043236315 0.0654534 -0.041521583 0.06226807 -0.11287701 0.05628989 -0.017064132
0.06275541 -0.0104148565 0.025966145 -0.08686571 0.036853064 -0.013883516 0.008935355 0.06846129
-0.059724264 0.02741506 0.01565097 -0.0071200198 -0.058363225 -0.0010861903 -0.053880036 -0.020201907
-0.01590089 -0.10720323 -0.012880415 -0.082628235 0.077506594 -0.10527051 0.05476618 -0.026656145
-0.030479074 0.08294628 -0.020805134 -0.010797414 -0.0472434 -0.110757485 0.023330247 0.026233345
-0.069191836 -0.0399805 -0.029673953 0.032311298 -0.046969928 -0.07465665 -0.09783236 0.01723813

net.2.bias f4 [64]
00000000: 1d6e a6bd 3817 093d b3e0 033e d670 aa3e
00000010: 2627 64b9 4b63 603d 4008 a7bb 41d1 8b3e
00000020: ebb5 fc3b 945c 853f 3f35 013e 3b4f b0bd
00000030: a41c f93c f023 863e 1e08 053f 1df7 9cbc
00000040: eaeb ef3c 2413 ca3c f0a0 913d f929 263d
00000050: 53ce 2f3f 25fc 0e3e 7b7c 74bb 9184 de3c
00000060: 7453 193d e0c9 ba3c 5961 153f 30e1 a7bc
00000070: d80e ee39 3052 18bd 5336 503c 2898 913b
00000080: 048b 50bd 257e d8be ede9 003d bb53 a23e
00000090: ac53 dc3c e47c 19bd b887 813e c829 833e
000000a0: ab43 233f 3d29 8cbd 58b5 19bd c172 d93e
000000b0: 90b0 0fbc 326f ccbd 9c81 fb3e 93c8 44bd
000000c0: 9244 efbc 1dfb 2e3f 33f3 7fbe 8a0f 7dbc
000000d0: 1c89 1a3e de26 3a3d 53b6 abbd e0cc 033f
000000e0: 885d 023d 84ed b93c 8e1d 273d 18d7 c33e
000000f0: 87db a8bd df22 f83c 99f5 723d b8a7 003f
-0.08126471 0.03346941 0.12878685 0.33289212 -0.00021758358 0.054782193 -0.005097419 0.27308086
0.007712116 1.0418878 0.12617968 -0.08608862 0.030409165 0.26199293 0.5196551 -0.019160802
0.029287297 0.02466733 0.071107745 0.040567372 0.686742 0.13963373 -0.0037305641 0.027162822
0.037433103 0.02280134 0.58351666 -0.02049312 0.00045405957 -0.037187755 0.012708264 0.0044431873
-0.050913826 -0.4228374 0.03147309 0.31704506 0.026895367 -0.03747262 0.25298858 0.25617814
0.6377513 -0.06843803 -0.03752646 0.42470363 -0.008770123 -0.09982146 0.49122322 -0.048042845
-0.029207502 0.6835192 -0.24995117 -0.015445599 0.15091366 0.045447223 -0.08384385 0.5148449
0.03182748 0.022696264 0.04079967 0.3825004 -0.082449965 0.030290065 0.05931625 0.5025592

net.4.weight f4 [4, 64]
00000000: aac2 ccbd b567 b8bb 5325 dcbf f1f3 a8c0
00000010: f9e2 693d 9427 033d 9204 b0bd d517 dbc0
00000020: bb77 33bd b23b 92c0 19c2 b840 0dfd 8240
00000030: 05b2 953c 7d12 98c0 8d82 8bc1 3508 2fc0
00000040: 33e2 ba3c b0e0 45bd 2072 263d 65b4 55bf
00000050: 77e0 30c1 103a cac0 66e5 943c e568 dd3c
00000060: 6824 a13c fa34 2f3d b83c 40c1 c79b ffbd
00000070: 85c1 b8bd 5641 073d beb7 1b3c 9fb4 84bd
00000080: 0036 cc3c 46b4 1240 3eda e13d 9433 a7c1
00000090: d853 10bc 38b1 fac0 a2a3 afc0 c424 8a40
000000a0: cb1c 14c1 702a e23d c500 65bd e1ad 9040
000000b0: 00e6 5abd 4fa7 103d d6b8 5cc1 0069 783c
000000c0: c860 d9bb 7b97 88bf 9e06 d0c0 6feb 9f3d
000000d0: d449 56c1 ddfd cdc0 9794 e33d 09b9 1ec1
000000e0: 2dec 833c cfc8 7e3d e141 4d3d 5465 1d41
000000f0: 2e3b 353b 9ca5 b4c0 07c1 b9c0 61ba f740
00000100: 1519 79bc ae52 b3bd efd2 f5c0 df0a 8fc0
00000110: 0802 99bd c83d 093c 2cb6 7e3c 8b76 02c1
00000120: 9e91 f13d 4bf9 edbf 74f5 9f40 b160 5140
00000130: 2827 80bc b1c0 d7c0 5927 4dc1 34d5 0641
00000140: f547 733d 7e19 803d 0ebd 9c3d 2734 c9c0
00000150: a83f 72c1 8366 ff3f e744 64bc 4179 e53d
00000160: fd41 b0bd 3874 983c 4cb9 5dc1 e8e9 7d3d
00000170: 60e1 93bc 1bde ee3d a0bc 1c3d c4a8 973d
00000180: 12eb 42bd b83f 9240 6c2b c83d 9e75 d0c1
00000190: 6cbb 8d3d 039b c9c0 32b4 a6c0 e7de 5040
000001a0: 292a c8c0 0ddf 403d 2223 84bc 9374 1ac0
000001b0: 103d 2bbc b763 3b3d 752d 4bc1 483a ee3c
000001c0: 0478 c9bd 7589 76c0 2ebb dac0 22e8 dc3d
000001d0: 0d2c 88c1 ebcf d3c0 e789 80bb 5d9b 5ec1
000001e0: 60f9 e53c a204 0b3c b4b1 013e 5849 1141
000001f0: c0d6 b13d f24d 9cc0 f6b2 fcc0 4e65 e540
00000200: 6080 e3bb efa1 d43d 3092 f9c0 946f e4c0
00000210: 4299 e93c e8f7 063d 5cb3 e03d cf30 f7c0
00000220: b88e 523d 3653 80c0 9064 cb40 b60d 6840
00000230: 05ab 333c 2267 0bc1 88a5 84c1 508c 8140
00000240: 1bb9 e23c 00f2 d3b9 2c6e 02bd bed8 62c0
00000250: 9ad0 47c1 bedd 69c0 39ea 38bc 7520 d13d
00000260: bebf ba3d 9ac4 5c3c cba6 64c1 a084 733c
00000270: 6045 95bc 86cd 0d3d abd8 8b3b a688 9c3d
00000280: 5ef9 aa3d f3ff 1540 8512 f43c 9e0a afc1
00000290: 9f84 383d 38b0 efc0 42ec a4c0 1a05 8a40
000002a0: a5c7 0bc1 eb5f a3bc 5e68 cb3d a667 bf3f
000002b0: 8029 7c3b 2f12 9abd e57b 4ec1 4a27 a6bd
000002c0: e619 e3bd 210d d2bf 6fd3 f2c0 770f dd3d
000002d0: a7d3 92c1 3acb a4c0 f215 ee3d f126 20c1
000002e0: 1a99 b4bd fa99 92bc 1a8c efbd 05c1 1041
000002f0: 6631 f8bd b233 a2c0 019e c3c0 de82 e940
00000300: a4df 41bd cb3f 923d 7c81 0cc0 cad6 16c1
00000310: 61dd c03d 3bcd a5bc 8b3e 803d 61c4 65c0
00000320: f33e 4cbd 9aad 9ec0 5bbd ba40 7073 7f40
00000330: 10bc c63d dc7b 3dc1 5162 88c1 e62a 2cc0
00000340: c3b7 853d fa0a f8bd eb40 753c 2692 21c0
00000350: 515b 52c1 2197 91c0 2520 433b 7f9c c3bb
00000360: f8d7 04bd 0dbb 13be f280 28c1 76a9 c23d
00000370: 20a5 76bc 7339 9f3d 7575 4abd 1843 cbbd
00000380: 6ac2 f13d 6b36 8140 9872 d1bd 9e94 b6c1
00000390: e4ee cb3d 048e 04c1 07cf 08c1 daf1 c43f
000003a0: ce47 14c1 65f0 a83b cd88 ec3d 06e7 9440
000003b0: d221 febd 4c18 c43b 35d4 3ac1 68fd c8bc
000003c0: a8df 9ebd 9e18 57bf 67af 06c1 7bdd 773d
000003d0: 61fe 7ac1 7838 a1c0 f015 2ebd cd0e 1bc1
000003e0: c86f a7bc 74a7 5d3d 6fbe 63bd 8223 1641
000003f0: 182a 9cbd 65c7 9cc0 2920 d2c0 5ee1 fe40
-0.09998067 -0.005627597 -1.719889 -5.279778 0.057101224 0.032020167 -0.08594622 -6.846659
-0.043815356 -4.569787 5.7736936 4.09339 0.018273363 -4.752257 -17.438745 -2.734876
0.022812938 -0.04830998 0.04063618 -0.83478385 -11.054801 -6.3195877 0.018175792 0.027027557
0.01967068 0.04277513 -12.014824 -0.12480884 -0.09021286 0.033021294 0.009504257 -0.06479763
0.024928093 2.292253 0.110279545 -20.900185 -0.008809052 -7.834133 -5.4887247 4.316988
-9.25703 0.110432506 -0.055908937 4.5212255 -0.053442 0.035315808 -13.795126 0.015161753
-0.0066338517 -1.0671228 -6.500808 0.07808577 -13.393024 -6.437239 0.11112326 -9.920175
0.016103828 0.062203225 0.050111655 9.837238 0.0027653682 -5.645216 -5.804813 7.7415013
-0.015203734 -0.08756004 -7.6819987 -4.470077 -0.074710906 0.008376546 0.015546363 -8.153941
0.117953524 -1.8591703 4.9987125 3.2715266 -0.015643671 -6.742272 -12.822106 8.427052
0.059394795 0.06254862 0.07653247 -6.2876163 -15.140541 1.9953159 -0.013932443 0.11204768
-0.08606336 0.018610105 -13.8577385 0.06199065 -0.018051803 0.11663457 0.038265824 0.07405236
-0.04758746 4.570278 0.09773907 -26.05743 0.069205135 -6.3001723 -5.2094965 3.2636049
-6.2551465 0.047087718 -0.016130034 -2.4133651 -0.01045157 0.045749392 -12.698598 0.029080525
-0.09837344 -3.8521397 -6.835349 0.10786463 -17.02151 -6.6191306 -0.0039226892 -13.9129305
0.028073013 0.008484991 0.12665445 9.080406 0.086835384 -4.884515 -7.896846 7.1686163
-0.0069427937 0.10382449 -7.799095 -7.1386204 0.028515462 0.032951266 0.1097171 -7.724708
0.05140564 -4.0101576 6.3560257 3.6258368 0.010966067 -8.712679 -16.580826 4.048378
0.027676156 -0.0004042536 -0.03184335 -3.544479 -12.488428 -3.654159 -0.011286312 0.10211269
0.09118603 0.013474608 -14.290721 0.014863163 -0.018221557 0.03461983 0.004267772 0.07643251
0.08348344 2.343747 0.029793987 -21.880184 0.045048352 -7.490261 -5.15384 4.3131227
-8.736241 -0.019943198 0.09932016 1.4953506 0.0038476884 -0.075229995 -12.905248 -0.081129625
-0.11088924 -1.6410257 -7.58831 0.10793965 -18.353346 -5.149808 0.116252795 -10.009507
-0.08818264 -0.017895687 -0.11696644 9.047124 -0.12118797 -5.0688105 -6.1130376 7.297225
-0.04733242 0.07141074 -2.195403 -9.427439 0.09417225 -0.020239463 0.06261929 -3.590111
-0.04986472 -4.9586916 5.8356147 3.9914207 0.09703839 -11.842739 -17.048006 -2.6901183
0.065291904 -0.121114686 0.014969091 -2.5245452 -13.147294 -4.5496984 0.0029773798 -0.0059695835
-0.032432526 -0.14426823 -10.531481 0.09504978 -0.015054017 0.077746294 -0.049428422 -0.099249065
0.1180466 4.037893 -0.10226935 -22.822567 0.09957674 -8.284672 -8.550544 1.5386307
-9.26753 0.0051556104 0.1154953 4.653201 -0.124087945 0.0059843417 -11.676808 -0.024534896
-0.07757503 -0.8402194 -8.417823 0.060513955 -15.687104 -5.038143 -0.04250139 -9.691113
-0.020439044 0.054114774 -0.055601534 9.383669 -0.07625216 -4.89934 -6.566426 7.9650106

net.4.bias f4 [4]
00000000: d3e2 5240 5d1f 65bf c29b 15c0 aae4 13c0
3.2950943 -0.8950098 -2.3376317 -2.3108315
