modelo_melhor_bom.pth (torch, 44941 bytes, 6 tensors)

net.0.weight f4 [128, 14]
0	0xbd5d2536	-0.053990565
1	0xc1240241	-10.25055
2	0xc0039292	-2.055821
3	0xc14aafad	-12.66789
4	0xbeee52d8	-0.4654758
5	0x3f747a3f	0.9549903
6	0xbd022372	-0.031772085
7	0xbd6f5a5a	-0.058435775
8	0x3dcecd67	0.10097771
9	0x3ef22985	0.47297302
10	0x3f04432b	0.5166499
11	0xbf155dd6	-0.5834631
12	0xbee4e8e8	-0.44708943
13	0xc0a614ce	-5.1900396
14	0xc101a375	-8.1024065
15	0x3fe820e4	1.8135037
16	0xbdeb1181	-0.11477948
17	0x3f1763f3	0.59136885
18	0xbf509558	-0.8147788
19	0x3e0c969c	0.13729328
20	0x3f95b81a	1.1696808
21	0x3fdc83fa	1.7227776
22	0x3cc53af3	0.02407596
23	0x3e8e5049	0.27795628
24	0x3fdc6e69	1.7221195
25	0x3f4b14bf	0.7932853
26	0xc102b3c6	-8.16889
27	0xbe324d70	-0.17412353
28	0x3d67abe0	0.056560397
29	0x3e2d0b32	0.16898802
30	0xbda726aa	-0.081616715
31	0x3d2fc2d0	0.042910397
32	0xbdb60f6c	-0.0888966
33	0xbb64c000	-0.003490448
34	0xbdd00ae6	-0.10158329
35	0x3e0e854e	0.13918039
36	0xbd8f19c8	-0.06987339
37	0xbd4e62b4	-0.0503871
38	0x3d233268	0.039842993
39	0xbe54f7e8	-0.20797694
40	0x3daf2bbc	0.085532635
41	0x3baa0600	0.0051887035
42	0xc01ad7bc	-2.4194174
43	0xc059af33	-3.4013183
44	0xc0abe845	-5.372103
45	0xc10b53d8	-8.70797
46	0xbf7eeb50	-0.9957781
47	0xbf1de516	-0.6167768
48	0x3aeccbf4	0.0018066154
49	0x3e77979f	0.24178933
50	0xbeb7ab2a	-0.35872775
51	0xbe85acb1	-0.26108316
52	0xc07aafe8	-3.9169865
53	0xc08f3750	-4.475502
54	0xbfead7cf	-1.834711
55	0x401691e4	2.3526545
56	0xbe71746b	-0.23579566
57	0x4008a0f6	2.1348243
58	0xbeeac7b4	-0.45855486
59	0xbf7b9caf	-0.98285955
60	0x40394546	2.894853
61	0xbc2a6773	-0.010400641
62	0x3ed0a371	0.40749696
63	0x3dc7a2c9	0.09747846
64	0x3dcdbff9	0.100463815
65	0xbe44118c	-0.19147319
66	0x3f3a0e3d	0.72677976
67	0xbf38770f	-0.7205667
68	0x3f21ae50	0.63156605
69	0xc0856e1d	-4.1696916
70	0xc035bbbe	-2.8395839
71	0x4012ebba	2.2956376
72	0xbd0559ef	-0.03255647
73	0x40a2591d	5.073378
74	0xbef2440b	-0.47317538
75	0x3f7bfc4b	0.98431844
76	0x3e4ae842	0.19815162
77	0x3eb0556a	0.34440166
78	0x3f127f5e	0.57225597
79	0x3ee35c4b	0.4440635
80	0x3f6359a5	0.8880866
81	0xbf1cc2e5	-0.61234885
82	0xc0908a51	-4.5168843
83	0x3fdf97dd	1.746822
84	0xbf4ac3d3	-0.79205054
85	0x3f7a2e58	0.97726965
86	0xc053850c	-3.3049955
87	0x3f81d704	1.0143743
88	0x3ed0f1a5	0.4080936
89	0x3fdac42c	1.7091117
90	0xbde3928f	-0.11111938
91	0x3f6cb8fb	0.9246976
92	0xbdb4dadf	-0.08830809
93	0xbe78b7f4	-0.24288923
94	0xbfabec0b	-1.343141
95	0xbf27367b	-0.65317506
96	0x3ff59c54	1.9188333
97	0x3f51c759	0.81944805
98	0xc04f1f96	-3.2363029
99	0x401145c9	2.2698843
100	0xbfba763d	-1.4567333
101	0x3f58dbc6	0.8471035
102	0xbf07fcdf	-0.53120226
103	0x3f182a54	0.5943959
104	0x3d3cfb47	0.046138074
105	0x3f2080d9	0.62696606
106	0x3f904bc5	1.1273123
107	0x3f9fc2dd	1.2481343
108	0xbe45a7ee	-0.19302341
109	0x3fa2bbc2	1.2713549
110	0xbe8d0ae2	-0.27547365
111	0xbf62c8f5	-0.88587886
112	0xbe1d3acc	-0.1535446
113	0xbc06a660	-0.008218378
114	0xbbf75f40	-0.0075491965
115	0xbe06c5e6	-0.1316143
116	0xbdb065ee	-0.086131915
117	0xbe8708a0	-0.26373768
118	0xbe4309a5	-0.19046648
119	0x3e74ae4a	0.23894611
120	0xbe88a492	-0.26688057
121	0xbe828e5b	-0.25499234
122	0x3dffa540	0.12482691
123	0x3d4e7610	0.050405562
124	0xbe6840f9	-0.22681035
125	0xbdb5e8c4	-0.08882287
126	0xc0c1047c	-6.0317974
127	0x3f7cb8c8	0.98719454
128	0xc13b04ad	-11.688642
129	0xbf29f619	-0.6639114
130	0xbf8ec935	-1.1155154
131	0xbff9d631	-1.9518491
132	0xbe5ef7ec	-0.21774262
133	0xc0272120	-2.6113968
134	0xbef52cfc	-0.47885883
135	0xbf592a0b	-0.8482978
136	0x3f80798a	1.0037091
137	0xbf0a1cc9	-0.5395017
138	0xbf869911	-1.0515462
139	0x40186590	2.381199
140	0xbfc5d15a	-1.5454514
141	0x4002d412	2.0441937
142	0xc0a53fa6	-5.1640196
143	0xc10b75a9	-8.716226
144	0xc05c8313	-3.4455001
145	0xbd0e5464	-0.03474845
146	0xc025853e	-2.5862575
147	0xc0121493	-2.2825058
148	0xbf886a92	-1.0657523
149	0xbf227765	-0.6346343
150	0x3fa1e78e	1.264879
151	0xbd17eac1	-0.037089113
152	0x3fc8fe1c	1.5702548
153	0x3fb00e50	1.3754368
154	0xbfff6457	-1.9952496
155	0x400be326	2.185739
156	0x3ffa45d6	1.9552562
157	0x4080e027	4.0273623
158	0xbfd016df	-1.625698
159	0x3f11d88f	0.5697107
160	0x3f02589c	0.5091646
161	0x3f53a1fb	0.8266904
162	0x3eebf7ce	0.46087497
163	0x3e694645	0.22780712
164	0x400f5e12	2.2401166
165	0x3fec503f	1.8461989
166	0xbfb04c82	-1.3773348
167	0xc015744a	-2.3352227
168	0xbfac8c8d	-1.3480393
169	0x409af409	4.8422894
170	0xbfeb91c2	-1.8403857
171	0xbfde9b77	-1.7391194
172	0x401fabc7	2.4948595
173	0x3fa4c400	1.2872314
174	0x3d00464c	0.03131704
175	0xc0bcedfb	-5.9040504
176	0x3dd8cf5d	0.105864264
177	0xbc046580	-0.00808084
178	0xbfe9c80a	-1.8264172
179	0xbea7e9f0	-0.32795668
180	0xbef6b41a	-0.48184282
181	0xc014724b	-2.319476
182	0x40576879	3.3657515
183	0xc000974b	-2.0092342
184	0x4029746a	2.6477304
185	0xc0ae19dd	-5.440657
186	0xbef8b11c	-0.48572624
187	0xbdc10cd8	-0.09426278
188	0xbc99291e	-0.018696364
189	0xbe238ac8	-0.1597091
190	0x3e17c8d8	0.1482271
191	0xbe56601a	-0.20935097
192	0xbfd0651d	-1.6280857
193	0xbf8e712e	-1.112829
194	0xbdd93079	-0.106049486
195	0x3fbe3118	1.4858732
196	0x40163d7f	2.3475034
197	0x3d5cff01	0.05395413
198	0xc029a863	-2.6509025
199	0xbfaa7194	-1.3315911
200	0xbffe7ca3	-1.9881786
201	0x3f635977	0.8880839
202	0xbec7e599	-0.39042357
203	0x3f90f009	1.1323253
204	0xbe20a63e	-0.15688416
205	0xbee875b8	-0.45402312
206	0x3fece05f	1.8505973
207	0x3f949aea	1.1609776
208	0xbcf6228f	-0.030045776
209	0xbfe21588	-1.7662821
210	0x40fa1fd3	7.816385
211	0xbff60eef	-1.9223307
212	0x40df380f	6.975593
213	0xbf95010a	-1.1640942
214	0x3f70244c	0.93805385
215	0x3f9f054c	1.2423491
216	0x3e7a727b	0.24457733
217	0xbf37e9fa	-0.71841395
218	0x3e74797a	0.23874465
219	0x3ee11e25	0.4396831
220	0x3eb94469	0.36185005
221	0x3ffc620e	1.9717424
222	0x3e865d1f	0.2624292
223	0xc0601c42	-3.5017247
224	0x3f780904	0.96888757
225	0x4044a6c7	3.0726793
226	0xbf67c9c5	-0.9054225
227	0xbe730a47	-0.23734389
228	0x405048b4	3.2544374
229	0x3e0c8ecb	0.13726346
230	0xc0fe5d6a	-7.948903
231	0xbe3e91ec	-0.18610352
232	0x3e666ac6	0.22501668
233	0x3e58a1d4	0.21155483
234	0xc0330834	-2.7973757
235	0xc04fb612	-3.2454877
236	0x3ed00a33	0.4063278
237	0xc07ee0a0	-3.98246
238	0xbf5ada70	-0.8548956
239	0x3f5dccef	0.8664083
240	0xbfbc2129	-1.469762
241	0xc006270c	-2.0961332
242	0x3ea5235b	0.32253537
243	0x3e21b53b	0.1579179
244	0x3f651080	0.894783
245	0x3fcaf939	1.5857307
246	0x3edb120f	0.42787215
247	0x3e9382c3	0.288107
248	0x3fc8c72a	1.568578
249	0xbfd5f6ae	-1.6715906
250	0x40048209	2.0704367
251	0x3f9634ba	1.1734841
252	0xbf69252a	-0.9107233
253	0x4013acc8	2.3074207
254	0xbf90da1e	-1.1316564
255	0xbf800a41	-1.0003129

net.0.bias f4 [128]
0	0x3e7e255e	0.24818942
1	0xbfa771c1	-1.308159
2	0xbe54ec16	-0.20793185
3	0xbeab3d58	-0.3344524
4	0x3e33e39e	0.17567298
5	0x3e577132	0.21039274
6	0x3f12dbe9	0.57366806
7	0x3e875263	0.26430044
8	0x3da955ec	0.082683414
9	0xbf471706	-0.77769506
10	0xbbc9ec14	-0.006162176
11	0x3e71447c	0.23561281
12	0x3ebd4da7	0.36973307
13	0x3ffa497d	1.9553677
14	0xbf704295	-0.93851596
15	0xc007b3d8	-2.1203518
16	0x3f8901f2	1.0703719
17	0x3f9a3d47	1.204995
18	0x3e9dbaaa	0.30806476
19	0x3f34920c	0.7053535
20	0xbed83ff0	-0.4223628
21	0xbf5e18fb	-0.8675687
22	0x3c985b5a	0.018598247
23	0x3e2a0e46	0.16607007
24	0xbc1e9100	-0.009678125
25	0x3e0385d7	0.12844025
26	0xbe1dc7c3	-0.15408234
27	0x4010c6c6	2.2621322
28	0x3fa0fb5a	1.2576706
29	0x3f03a835	0.5142854
30	0x3fc5a8ad	1.5442101
31	0x3f734f5d	0.95042974
32	0x3fd1e618	1.6398344
33	0x3fdfbee3	1.7480129
34	0x4005e6db	2.0922153
35	0xbf4509fe	-0.7696837
36	0x40437881	3.05423
37	0x3fe3f8d8	1.7810316
38	0x4003bbcd	2.0583375
39	0x3f313b0e	0.69230735
40	0x3f67c1e0	0.90530205
41	0xbbe12d80	-0.006871879
42	0xbd8ecf22	-0.06973101
43	0xbecf6f3e	-0.4051456
44	0x3fb7e02a	1.4365284
45	0xbe267674	-0.16256124
46	0x3eda5483	0.42642602
47	0x3f94a30f	1.1612262
48	0xbef58198	-0.47950435
49	0x3e4a62c7	0.19764243
50	0xbe7ce06f	-0.2469499
51	0xbd8c62c0	-0.068547726
52	0x3c4e8660	0.01260528
53	0x3cc3ec37	0.023916347
54	0x3e101bfc	0.14073175
55	0xbe1de97a	-0.15421095
56	0x3f299ae4	0.6625197
57	0xbfa5dd54	-1.2958169
58	0x3efe3f31	0.49657586
59	0xbf8b86f5	-1.0900561
60	0x3eaf75b6	0.34269494
61	0xbfc854c9	-1.5650874
62	0xbe34511e	-0.17609069
63	0xbe79c226	-0.24390468
64	0x3e19e2f1	0.15027978
65	0x3f8fe058	1.1240339
66	0x3f2124c0	0.629467
67	0x3f8d5249	1.1040736
68	0xbe3ccc10	-0.18437219
69	0x3fdd12cd	1.7271363
70	0xbf2360e0	-0.63819695
71	0x3fb5daf3	1.4207443
72	0xbcb4875f	-0.022037206
73	0x3e12bbff	0.14329527
74	0xbe962ad4	-0.2932955
75	0x3f6c77ce	0.9237031
76	0x3dd94500	0.10608864
77	0xbf68c2dc	-0.9092233
78	0x3f57cdcf	0.84298414
79	0x3e5b7896	0.21432719
80	0xbf4d8cd2	-0.80293
81	0xbe12bf0f	-0.14330696
82	0x3fe326cc	1.7746215
83	0xbf88c145	-1.0683981
84	0x3e6a0d26	0.22856578
85	0xbfdb66ef	-1.7140788
86	0xbf271b7a	-0.652763
87	0x3fa8755a	1.3160813
88	0xbd9a9a56	-0.075489685
89	0x3fa8d336	1.3189456
90	0x3f26dfae	0.6518506
91	0x4006bfc7	2.1054552
92	0x3f90c744	1.1310811
93	0x3fc23180	1.5171356
94	0x3e782851	0.2423413
95	0x3ce73950	0.02822557
96	0x3e012e0a	0.12615219
97	0x3f9ab7a6	1.2087295
98	0x3f10e7fe	0.5660399
99	0x3fae586b	1.3620733
100	0xbf0f881f	-0.5606708
101	0xbd4d5261	-0.05012739
102	0x3feeede8	1.8666353
103	0x3d8182d7	0.06323784
104	0xbc07493a	-0.008257205
105	0x3f0f1f16	0.5590681
106	0xbd94f770	-0.072737575
107	0x3e3900b7	0.18066679
108	0x3d7a911f	0.061173555
109	0x3f5b193f	0.855854
110	0x3f7b95e2	0.9827558
111	0x3fca56a6	1.5807693
112	0x3dbb47ff	0.091445915
113	0x3dfe7570	0.12424743
114	0xc020c100	-2.5117798
115	0xbf0ff130	-0.562274
116	0x3d9971dc	0.0749242
117	0x3fe4ad81	1.7865449
118	0xbf7e9ed8	-0.99461126
119	0xbe6cbf65	-0.23119886
120	0x400b1721	2.1732867
121	0x3e801a5a	0.25020105
122	0xbf7dea92	-0.9918605
123	0xbf580132	-0.84376824
124	0x3ffb4bb6	1.963248
125	0x3f370808	0.7149663
126	0xbca25625	-0.019816468
127	0x3f3fa818	0.74865866

net.2.weight f4 [64, 128]
0	0x3d4c5a99	0.04989109
1	0x3d5bf9f2	0.053705163
2	0xbb70ec20	-0.0036761835
3	0x3d2404ec	0.040043756
4	0xbd8a4757	-0.06751888
5	0xbd423c0c	-0.047420546
6	0x3d4a7cce	0.04943543
7	0x3d9cc411	0.07654584
8	0xbbb59740	-0.005541712
9	0x3cc26ba2	0.023732964
10	0xbdb1a4ea	-0.08674033
11	0xbdb91a5b	-0.0903823
12	0x3d577a13	0.052606653
13	0xbd33c01c	-0.04388438
14	0x3d242652	0.040075608
15	0xbdae1035	-0.08499185
16	0x3d1991a2	0.037492402
17	0xbdbea262	-0.09308316
18	0x3b8e39ca	0.004340385
19	0x3d8dbe3d	0.06921051
20	0x3d091f6e	0.03347724
21	0x3ce56895	0.02800397
22	0x3c520e28	0.012820758
23	0xbd2faed4	-0.04289134
24	0x3d939949	0.07206971
25	0xbd302fdf	-0.043014403
26	0x3d874001	0.06604005
27	0x3d384f62	0.04499758
28	0xbdb50a02	-0.088397995
29	0xbc9af2b5	-0.01891456
30	0xbd8784fb	-0.06617161
31	0xbd7097c6	-0.058738492
32	0xbd737f0a	-0.059447326
33	0x3d97526b	0.07388767
34	0x3da7fb75	0.082022585
35	0x3b5797c0	0.0032896847
36	0x3d425506	0.047444366
37	0x3d91f872	0.07127465
38	0xbcb757a5	-0.02238066
39	0xbd71df97	-0.059051123
40	0x3c72e1f4	0.014824379
41	0x3d850d9b	0.06496736
42	0x3d1491ae	0.036271743
43	0x3d8afe87	0.067868285
44	0x3d1d855b	0.038457256
45	0x3d16363a	0.03667281
46	0xbd63a3af	-0.055576023
47	0xbc02350b	-0.007947217
48	0xbd7965ee	-0.060888223
49	0xbca98f55	-0.020698229
50	0x3d0e7a4a	0.034784593
51	0x3cd01b10	0.02540353
52	0xbd46064f	-0.04834586
53	0xbd4a21c1	-0.049348596
54	0x3d91b1b1	0.0711397
55	0xbb105880	-0.0022025406
56	0xbd10fe74	-0.035398915
57	0xbd36c6be	-0.04462313
58	0x3c2380b5	0.009979417
59	0x3d1b2441	0.03787637
60	0xbdc4c465	-0.09607772
61	0xbd160c60	-0.036632895
62	0x3cc40278	0.023926958
63	0x3d8ada07	0.06779867
64	0x3c586678	0.013208024
65	0x3b212537	0.0024588832
66	0xbdb90e9f	-0.09035992
67	0x3d8292d1	0.06375659
68	0x3db3c1c7	0.087771945
69	0xbcd3d9e0	-0.025860727
70	0xbc03bd3a	-0.008040721
71	0xbd39fc6c	-0.045406744
72	0xbd901829	-0.07035858
73	0xbc6ca670	-0.014443979
74	0x3d625614	0.05525787
75	0xbc63c983	-0.013903025
76	0x3d66ef2a	0.05638043
77	0x3d1846c6	0.03717687
78	0x3c966456	0.01835839
79	0xbd25a7d5	-0.04044326
80	0x3dab4f95	0.083647884
81	0xbcabde8c	-0.020980142
82	0xbd92409b	-0.07141229
83	0x3b4883bd	0.00305961
84	0x3d95a97a	0.07307716
85	0xbda97f1e	-0.08276199
86	0xbd4c66b2	-0.049902625
87	0xbdc29f9e	-0.09503101
88	0x3da21843	0.07914784
89	0x3b8afbb0	0.0042414293
90	0xbd122507	-0.035679843
91	0xbdca3d50	-0.09874976
92	0x3da8af73	0.08236589
93	0xbccbd3d0	-0.024881274
94	0xbd3076ee	-0.04308217
95	0x3db2af43	0.08724835
96	0xbd90e8f1	-0.0707568
97	0xbd4579c5	-0.04821183
98	0x3cd8b93f	0.02645552
99	0x3d264b01	0.040598873
100	0xbcb991d2	-0.02265254
101	0x3d29809e	0.041382425
102	0xbcbc36bc	-0.022975318
103	0x3d610242	0.054933794
104	0xbcf4e773	-0.02989552
105	0xbc8f6e97	-0.017508788
106	0xb95a0800	-0.0002079308
107	0x3d3684d6	0.044560276
108	0xbd8a3cbd	-0.06749866
109	0x3d240d0d	0.04005151
110	0xbdc5315f	-0.096285574
111	0x3c8875e5	0.016657779
112	0x3c9cd154	0.019142784
113	0x3d5f928e	0.054583125
114	0x3c6c2135	0.014412214
115	0x3cfa6f1f	0.030570565
116	0xbcf38016	-0.029724162
117	0xbd9be533	-0.07612076
118	0x3c96ed92	0.01842383
119	0x3d697b9e	0.057002656
120	0xbdac6606	-0.08417897
121	0x3cea32c5	0.028588662
122	0x3c48a9a8	0.01224748
123	0xbd7399a0	-0.05947268
124	0xbd7c6f10	-0.061629355
125	0x3d60c0ae	0.054871254
126	0xbd90432c	-0.07044062
127	0xbd908060	-0.070557356
128	0x398b32dc	0.0002655004
129	0xbd8d2c41	-0.068932064
130	0xbcd7761c	-0.026301436
131	0xbd8ae850	-0.06782591
132	0x3d908d16	0.0705816
133	0xbd0b60d5	-0.034027893
134	0xbcd92182	-0.026505236
135	0xbd9780dd	-0.073976256
136	0x3d0cfc72	0.034420438
137	0xbd05c5a7	-0.0326592
138	0xbda9865e	-0.08277582
139	0x3c51f181	0.012813927
140	0x3b533520	0.003222771
141	0x3d64ac7e	0.055828564
142	0xbd538cb0	-0.051647842
143	0xbcff9951	-0.031201037
144	0x3d56a1ad	0.05240028
145	0x3c96aa57	0.018391771
146	0xb9a901ce	-0.00032235536
147	0xbc87d8ee	-0.016582932
148	0xbdc5c4dc	-0.096566886
149	0xbdb2aa65	-0.087239064
150	0x3d927b85	0.07152466
151	0x3d57440a	0.05255512
152	0xbd94302f	-0.07235753
153	0x3ca036a7	0.01955731
154	0x3c054268	0.008133508
155	0x3d1ed8be	0.03878092
156	0x3d807805	0.06272892
157	0xbd98f1a7	-0.074679665
158	0xbc9ccbf2	-0.019140217
159	0xbd7ce41f	-0.06174099
160	0x3da35ec3	0.07977059
161	0xbc82fe08	-0.015990272
162	0x3d0cec88	0.03440526
163	0x3be8cad0	0.0071042553
164	0xbc246713	-0.01003434
165	0xbc74d68f	-0.014943733
166	0x3d50ef6a	0.051009573
167	0xbd8b63ac	-0.0680612
168	0xbd81bf7e	-0.06335352
169	0xbcc37f30	-0.023864359
170	0xbd9e28f8	-0.07722658
171	0xbd7058d0	-0.05867845
172	0x3ccddb47	0.025128974
173	0x3cfe2538	0.031023607
174	0xbda7f824	-0.08201626
175	0x3cb083fe	0.021547314
176	0xbd539859	-0.051658962
177	0xbceb9faa	-0.028762657
178	0xbd848c6c	-0.06472096
179	0xbdb36ca4	-0.08760956
180	0x3d8d91a3	0.069125436
181	0xbc8d8fa8	-0.017280415
182	0xbd67fe52	-0.056639023
183	0xbd670250	-0.05639869
184	0xbc193190	-0.0093501955
185	0x3cf448a6	0.029819798
186	0x3d322cf2	0.043499894
187	0xbb893e38	-0.0041883253
188	0x3d95dd01	0.07317544
189	0xbd970504	-0.073740035
190	0x3d975aeb	0.07390388
191	0x3b7fb380	0.0039016902
192	0x3d55d742	0.05220724
193	0x3d2cbddd	0.042173255
194	0xbd7d3ac9	-0.06182364
195	0xbd98b2bc	-0.07455966
196	0xbdaa7029	-0.08322174
197	0xbc0c3dc3	-0.008559647
198	0x3ca06cd1	0.019583138
199	0xbcc042a2	-0.023469273
200	0xbd4e944d	-0.0504344
201	0xbcbff88c	-0.023433946
202	0x3d357504	0.044301048
203	0xbce4a443	-0.027910357
204	0xbc08fe08	-0.008361347
205	0xbd862556	-0.0655009
206	0x3d4dcff6	0.050247155
207	0x3d5be0ee	0.053681307
208	0xbd622516	-0.05521115
209	0xbb8dad40	-0.0043236315
210	0x3d860c6f	0.0654534
211	0xbd2a1289	-0.041521583
212	0x3d7f0cce	0.06226807
213	0xbde72c10	-0.11287701
214	0x3d66903a	0.05628989
215	0xbc8bca14	-0.017064132
216	0x3d8085e9	0.06275541
217	0xbc2aa313	-0.0104148565
218	0x3cd4b6f4	0.025966145
219	0xbdb1e6a6	-0.08686571
220	0x3d16f33d	0.036853064
221	0xbc6377b0	-0.013883516
222	0x3c126598	0.008935355
223	0x3d8c356f	0.06846129
224	0xbd74a16e	-0.059724264
225	0x3ce0958c	0.02741506
226	0x3c803677	0.01565097
227	0xbbe94f0e	-0.0071200198
228	0xbd6f0e47	-0.058363225
229	0xba8e5e80	-0.0010861903
230	0xbd5cb150	-0.053880036
231	0xbca57e78	-0.020201907
232	0xbc824295	-0.01590089
233	0xbddb8d5e	-0.10720323
234	0xbc530860	-0.012880415
235	0xbda938fe	-0.082628235
236	0x3d9ebbc7	0.077506594
237	0xbdd79811	-0.10527051
238	0x3d605281	0.05476618
239	0xbcda5dfd	-0.026656145
240	0xbcf9af40	-0.030479074
241	0x3da9dfbd	0.08294628
242	0xbcaa6f87	-0.020805134
243	0xbc30e7a3	-0.010797414
244	0xbd41824c	-0.0472434
245	0xbde2d4d2	-0.110757485
246	0x3cbf1f13	0.023330247
247	0x3cd6e750	0.026233345
248	0xbd8db473	-0.069191836
249	0xbd23c298	-0.0399805
250	0xbcf316ca	-0.029673953
251	0x3d0458da	0.032311298
252	0xbd40638a	-0.046969928
253	0xbd98e596	-0.07465665
254	0xbdc85c55	-0.09783236
255	0x3c8d36fb	0.01723813

net.2.bias f4 [64]
0	0xbda66e1d	-0.08126471
1	0x3d091738	0.03346941
2	0x3e03e0b3	0.12878685
3	0x3eaa70d6	0.33289212
4	0xb9642726	-0.00021758358
5	0x3d60634b	0.054782193
6	0xbba70840	-0.005097419
7	0x3e8bd141	0.27308086
8	0x3bfcb5eb	0.007712116
9	0x4011f809	2.2807639
10	0x3e650b3c	0.22367567
11	0xbef1cf1c	-0.47228324
12	0x3cf91ca4	0.030409165
13	0x3e78d109	0.2429849
14	0x3f05081e	0.5196551
15	0xbeb57eee	-0.35448402
16	0x3cefebea	0.029287297
17	0x3cca1324	0.02466733
18	0x3d6fd950	0.058556855
19	0x3d2629f9	0.040567372
20	0x3f00ebc4	0.5035975
21	0xbe2d2409	-0.16908278
22	0xbb747c7b	-0.0037305641
23	0x3ca68c65	0.020330617
24	0x3cff155e	0.031138118
25	0x3cbac9e0	0.02280134
26	0x3f070692	0.527444
27	0xbca7e130	-0.02049312
28	0xbb69218a	-0.003557297
29	0xbd185230	-0.037187755
30	0x3facffd7	1.3515576
31	0x3b919828	0.0044431873
32	0xbd508b04	-0.050913826
33	0xbf9608e0	-1.1721458
34	0x3d00e9ed	0.03147309
35	0x3d2a017d	0.041505326
36	0x3c6d9686	0.01450122
37	0xbf1a8599	-0.60360104
38	0x3e71a64b	0.23598592
39	0x3e8c2684	0.27373135
40	0x3edb93be	0.42886156
41	0xbdac010f	-0.083986394
42	0xbd19b558	-0.03752646
43	0x3f0af8ef	0.5428609
44	0xbc0fb090	-0.008770123
45	0xbdd8d485	-0.1058741
46	0x3ee103ed	0.43948308
47	0xbd6b9a7a	-0.057520367
48	0xbcef4492	-0.029207502
49	0x3f81d3a6	1.0142715
50	0xbea7f006	-0.3280031
51	0xbc7d0f8a	-0.015445599
52	0x3e1a891c	0.15091366
53	0x3d3a26de	0.045447223
54	0x3ecfd3b1	0.40591195
55	0x3f03cce0	0.5148449
56	0x3ce2b1a1	0.02767259
57	0x3cb9ed84	0.022696264
58	0x3d0a3133	0.033738326
59	0xbd13babe	-0.036066763
60	0xbda8db87	-0.082449965
61	0x3cf822df	0.030290065
62	0x3c9669df	0.01836103
63	0x3fe690b7	1.8012913

net.4.weight f4 [4, 64]
0	0xbdccc2aa	-0.09998067
1	0xbbb867b5	-0.005627597
2	0xbfdc2553	-1.719889
3	0xc0a8f3f1	-5.279778
4	0x3d69e2f9	0.057101224
5	0x3d032794	0.032020167
6	0xbdb00492	-0.08594622
7	0xc0db17d5	-6.846659
8	0xbd3377bb	-0.043815356
9	0xc0829099	-4.080151
10	0x40b72a23	5.7238936
11	0x408bba44	4.3664875
12	0x3c95b205	0.018273363
13	0xc097c67b	-4.7429786
14	0xc18b828d	-17.438745
15	0x4188c0c4	17.094124
16	0x3cbae233	0.022812938
17	0xbd45e0b0	-0.04830998
18	0x3d267220	0.04063618
19	0xbf55b465	-0.83478385
20	0xc14f3086	-12.949347
21	0xc0bc5eae	-5.8865576
22	0x3c94e566	0.018175792
23	0x3cbbeb7d	0.022939438
24	0x3ca12468	0.01967068
25	0x3d2f34fa	0.04277513
26	0xc1403cb8	-12.014824
27	0xbdff9bc7	-0.12480884
28	0xbdb8c185	-0.09021286
29	0x3d074156	0.033021294
30	0x411f211b	9.945582
31	0xbd84b49f	-0.06479763
32	0x3ccc3600	0.024928093
33	0x410a1e06	8.63233
34	0x3de1da3e	0.110279545
35	0xc1b69034	-22.820412
36	0xbc1053d8	-0.008809052
37	0xc0ec4a86	-7.384097
38	0xc0afa3a2	-5.4887247
39	0x40c007f0	6.000969
40	0xc12e7f44	-10.906071
41	0x3dc2ff19	0.09521312
42	0xbd6500c5	-0.055908937
43	0x41154570	9.3294525
44	0xbd5ae600	-0.053442
45	0x3cc65e4e	0.02421489
46	0xc158948e	-13.536268
47	0x3c786900	0.015161753
48	0xbbd960c8	-0.0066338517
49	0xbfacdddb	-1.3505205
50	0xc0de5161	-6.947434
51	0x3d9feb6f	0.07808577
52	0xc15649d4	-13.393024
53	0xc0cdfddd	-6.437239
54	0x40bd30f6	5.9122267
55	0xc11eb909	-9.920175
56	0x3c83ec2d	0.016103828
57	0x3d7ec8cf	0.062203225
58	0x3d4a1d39	0.049344275
59	0x410f989b	8.974757
60	0x3b353b2e	0.0027653682
61	0xc0b4a59c	-5.645216
62	0xc0b9c107	-5.804813
63	0x4116d66b	9.427348
64	0xbc791915	-0.015203734
65	0xbdb352ae	-0.08756004
66	0xc0f5d2ef	-7.6819987
67	0xc08f0adf	-4.470077
68	0xbd990208	-0.074710906
69	0x3c093dc8	0.008376546
70	0x3c7eb62c	0.015546363
71	0xc102768b	-8.153941
72	0x3df1919e	0.117953524
73	0xc0197b38	-2.3981457
74	0x40a5cab8	5.180996
75	0x408e48bf	4.44638
76	0xbc802728	-0.015643671
77	0xc0d7c0b1	-6.742272
78	0xc14d2759	-12.822106
79	0x417c3bf1	15.764634
80	0x3d7347f5	0.059394795
81	0x3d80197e	0.06254862
82	0x3d82e67e	0.06391619
83	0xc0c93427	-6.2876163
84	0xc135f408	-11.372078
85	0x3f5cc2b4	0.86234593
86	0xbc6444e7	-0.013932443
87	0x3dab9ddf	0.08379721
88	0xbdaca974	-0.08430758
89	0x3c987438	0.018610105
90	0xc15d92cb	-13.848338
91	0x3d7de9e8	0.06199065
92	0xbc93e160	-0.018051803
93	0x3deede1b	0.11663457
94	0x40ec7ef4	7.390497
95	0x3d97a8c4	0.07405236
96	0xbd42eb12	-0.04758746
97	0x40f66dfc	7.700926
98	0x3dc82b6c	0.09773907
99	0xc1baaf8c	-23.335716
100	0x3d8dbb6c	0.069205135
101	0xc0ccfc8e	-6.4058294
102	0xc0a6b432	-5.2094965
103	0x40c8f0d6	6.279399
104	0xc0ebb574	-7.3659
105	0x3d40df0d	0.047087718
106	0xbc842322	-0.016130034
107	0x4115b0e9	9.355691
108	0xbc2b3d10	-0.01045157
109	0x3d07f5db	0.03319345
110	0xc1517b0c	-13.092541
111	0x3cee3a48	0.029080525
112	0xbdc97804	-0.09837344
113	0xc06e6032	-3.7246213
114	0xc1017381	-8.090699
115	0x3ddce822	0.10786463
116	0xc1882c0d	-17.02151
117	0xc0d3cfeb	-6.6191306
118	0x40da789d	6.8272233
119	0xc15e9b5d	-13.9129305
120	0x3c3ec9bb	0.011644776
121	0x3c0b04a2	0.008484991
122	0x3e01b1b4	0.12665445
123	0x40ce0634	6.438257
124	0x3db1d6c0	0.086835384
125	0xc09c4df2	-4.884515
126	0xc0fcb2f6	-7.896846
127	0x41184a40	9.518127
128	0xbbe38060	-0.0069427937
129	0x3dd4a1ef	0.10382449
130	0xc0f99230	-7.799095
131	0xc0e46f94	-7.1386204
132	0x3ce99942	0.028515462
133	0x3d06f7e8	0.032951266
134	0x3de0b35c	0.1097171
135	0xc0f730cf	-7.724708
136	0x3d528eb8	0.05140564
137	0xc0460526	-3.0940642
138	0x409ddc75	4.9331613
139	0x408df69a	4.4363527
140	0x3c33ab05	0.010966067
141	0xc10b6722	-8.712679
142	0xc184a588	-16.580826
143	0x418ac9bd	17.348505
144	0x3ce2b91b	0.027676156
145	0xb9d3f200	-0.0004042536
146	0xbd026e2c	-0.03184335
147	0xc062d8be	-3.544479
148	0xc147eba9	-12.495034
149	0xc08b828c	-4.359686
150	0xbc38ea39	-0.011286312
151	0x3de48a6a	0.11159213
152	0x3dbabfbe	0.09118603
153	0x3c5cc49a	0.013474608
154	0xc164a6cb	-14.290721
155	0x3c7384a0	0.014863163
156	0xbc954560	-0.018221557
157	0x3d0dcd86	0.03461983
158	0x4125633b	10.336726
159	0x3d9c88a6	0.07643251
160	0x3daaf95e	0.08348344
161	0x40ff36d2	7.975442
162	0x3cf41285	0.029793987
163	0xc1b9ca77	-23.22386
164	0x3d38849f	0.045048352
165	0xc0cb464e	-6.352332
166	0xc0a4ec42	-5.15384
167	0x40e1f003	7.0605483
168	0xc10ee2c9	-8.930367
169	0xbca35feb	-0.019943198
170	0x3dcb685e	0.09932016
171	0x41179a1f	9.475127
172	0x3b7c2980	0.0038476884
173	0xbd80f063	-0.0629585
174	0xc14ec7e9	-12.923806
175	0xbd92cb78	-0.07167715
176	0xbde319e6	-0.11088924
177	0xc02cd9c2	-2.700791
178	0xc1005763	-8.021335
179	0x3ddd0f77	0.10793965
180	0xc192d3a7	-18.353346
181	0xc0a4cb3a	-5.149808
182	0x40c64f3f	6.1971736
183	0xc12026f1	-10.009507
184	0xbdb4991a	-0.08818264
185	0xbc9299fa	-0.017895687
186	0xbdef8c1a	-0.11696644
187	0x4104e636	8.306204
188	0xbdf83166	-0.12118797
189	0xc0a233b2	-5.0688105
190	0xc0c39e01	-6.1130376
191	0x4120f0fb	10.058833
192	0xbd41dfa4	-0.04733242
193	0x3d923fcb	0.07141074
194	0xc00c817c	-2.195403
195	0xc116d6ca	-9.427439
196	0x3dc0dd61	0.09417225
197	0xbca5cd3b	-0.020239463
198	0x3d803e8b	0.06261929
199	0xc065c461	-3.590111
200	0xbd4c3ef3	-0.04986472
201	0xc0949501	-4.643189
202	0x40b53aa7	5.6634097
203	0x4095a8c7	4.6768527
204	0x3dc6bc10	0.09703839
205	0xc13d5512	-11.833269
206	0xc1886251	-17.048006
207	0x4180c414	16.095741
208	0x3d85b7c3	0.065291904
209	0xbdf80afa	-0.121114686
210	0x3c7540eb	0.014969091
211	0xc0219226	-2.5245452
212	0xc1449603	-12.286624
213	0xc0862ff4	-4.1933537
214	0x3b432025	0.0029773798
215	0xbd62ae9e	-0.05534231
216	0xbd04d7f8	-0.032432526
217	0xbe13bb0d	-0.14426823
218	0xc127c05b	-10.484462
219	0x3dc2a976	0.09504978
220	0xbc1d583b	-0.009603555
221	0x3d9f3973	0.077746294
222	0x40e2bc67	7.0854983
223	0xbdcb4318	-0.099249065
224	0x3df1c26a	0.1180466
225	0x410be415	8.743184
226	0xbdd17298	-0.10226935
227	0xc1add9c6	-21.731335
228	0x3dc07c07	0.09398656
229	0xc106c185	-8.422246
230	0xc1089608	-8.536629
231	0x40b2b31d	5.5843644
232	0xc11c0add	-9.752652
233	0x3c9425a5	0.018084357
234	0x3dec88cd	0.1154953
235	0x4111baf2	9.108141
236	0xbdfe21d2	-0.124087945
237	0xbbdde70b	-0.0067719272
238	0xc136518a	-11.394907
239	0xbcc8fd68	-0.024534896
240	0xbd9edfa8	-0.07757503
241	0xbf056c97	-0.5211882
242	0xc0efa0e1	-7.4883885
243	0x3d77dd7b	0.060513955
244	0xc17afe61	-15.687104
245	0xc0a13878	-5.038143
246	0x40d22acd	6.5677247
247	0xc11b0ecd	-9.691113
248	0xbc1231ba	-0.008922989
249	0x3d5da774	0.054114774
250	0xbd63be6f	-0.055601534
251	0x41126b7b	9.15124
252	0xbd9c2a18	-0.07625216
253	0xc09cc765	-4.89934
254	0xc0d126f8	-6.536007
255	0x4131572c	11.083782

net.4.bias f4 [4]
0	0x406ab6e2	3.6674123
1	0xc0087fbf	-2.132797
2	0x3fa4b964	1.2869077
3	0xc0dcf89a	-6.905347
