modelo_final_finetune.pth (torch, 42941 bytes, 6 tensors)

net.0.weight f4 [128, 10]
000000 59 e8 2a 40 df 4a e1 3f 1c f3 11 3f 62 6b 4e be
       2.6704314 1.7600974 0.5701158 -0.20158151
000010 c7 0e 5e be 09 d1 a4 3e f0 2d 23 3f 02 c0 2b 40
       -0.21685325 0.3219073 0.6374197 2.6835942
000020 6c bf 34 be 94 8d ee be 8a 31 27 3e 70 22 c7 3c
       -0.17651147 -0.4659239 0.16327491 0.024308413
000030 82 8e 0d 3e 9a 18 89 be 00 91 70 bd 80 d8 bb 3c
       0.13823894 -0.26776582 -0.058732033 0.022930384
000040 36 20 13 be 92 c7 70 be 80 bd 97 3c 06 4a 42 be
       -0.14367756 -0.2351363 0.018522978 -0.1897355
000050 28 e1 bb bd 8f 41 82 3e 8c 1b 10 3e 73 a9 88 be
       -0.091738045 0.25440642 0.14073008 -0.2669178
000060 8c ad cd bd 26 88 14 3e 96 9c 20 3e 20 df 38 bd
       -0.10042867 0.14505062 0.15684733 -0.045134664
000070 40 e8 3e 3c 6d 10 9a be 73 b6 f9 bd c7 1a a4 be
       0.011652052 -0.30090657 -0.121930026 -0.3205168
000080 11 1a e1 be d4 49 be 3e af 40 dd 3d 25 ce 76 be
       -0.439652 0.371657 0.10803353 -0.24102075
000090 73 ea 6e 3e 64 dd f7 3c 5a 3b 65 3f ba 26 67 3f
       0.23331623 0.030256934 0.8954369 0.9029347
0000a0 ff e0 34 3d 26 39 d2 bd e6 c2 1e bf a6 eb b6 3e
       0.044159885 -0.102648064 -0.6201614 0.3572666
0000b0 f6 e3 bc bb a6 d9 57 3c 82 63 2b 3e 4e 44 a6 3d
       -0.0057644797 0.01317445 0.16737178 0.08118497
0000c0 3a db c4 3e 94 ff 43 3f bc c7 a0 3d 72 29 d8 bd
       0.38448507 0.76561856 0.07850596 -0.1055478
0000d0 38 a4 e1 bd 48 d5 4f bd bd 07 43 be 60 77 6b bc
       -0.1101765 -0.05074051 -0.1904592 -0.014371723
0000e0 06 5f 94 bd d8 d3 0e bd b6 69 3e be b5 10 22 be
       -0.07244687 -0.03487 -0.18595013 -0.15826686
0000f0 be 14 30 3e 90 1e 98 3c a4 c6 ac bd 60 60 90 bc
       0.17195413 0.01856926 -0.08436325 -0.01762408
000100 2a 07 57 3e 00 3f b9 3b a8 f5 4c 3d 2c 9f 4e be
       0.20998827 0.005653262 0.050038964 -0.20177907
000110 eb 2f 88 be 05 11 33 be 51 d0 56 be 6a 95 75 be
       -0.26599059 -0.17486961 -0.20977904 -0.23982778
000120 4a cf 3d 3f 0b ef e3 3f e6 f1 11 3d 73 7f 1b 3f
       0.74144423 1.7807325 0.035631083 0.6074135
000130 32 76 bc bd 36 59 e6 bd 67 12 4a 3f 27 61 0e 3f
       -0.092022315 -0.112474844 0.7893433 0.5561699
000140 51 cd 0f c0 2c 15 68 bf 84 f2 34 bf 8c da 15 c0
       -2.2469065 -0.90657306 -0.7068255 -2.341464
000150 37 33 b1 bf d8 b0 38 3f d6 45 87 c0 1b fc 2b bf
       -1.3843755 0.7214484 -4.227275 -0.6718156
000160 b5 6e 18 3f e3 c6 40 3f 75 f5 93 bf fb c0 04 bf
       0.59543926 0.7530348 -1.1559283 -0.51856965
000170 0f 47 5b 3e 95 8c d5 bf fd 6f da 3d 44 b3 0f 3d
       0.21413825 -1.6683527 0.10665891 0.03508307
000180 71 e2 84 bd 9f 1e 39 3e a3 f6 eb 3e 79 a8 92 3e
       -0.06488503 0.18078087 0.46086606 0.2864416
000190 42 53 5b be 75 90 8c be 26 ab 95 be 6f 8f e8 3e
       -0.21418479 -0.27453962 -0.29232138 0.4542193
0001a0 b1 1f ef 3e f8 d4 86 be db 23 b8 bb 37 82 80 3e
       0.46703866 -0.26334357 -0.0056195087 0.25099346
0001b0 9f 2f 34 3f 75 0c 5b 3f b1 e5 07 bf 30 95 8e bf
       0.70385164 0.8556588 -0.53084856 -1.1139278
0001c0 4f c9 a4 be 0d 66 76 c0 45 5f 21 bf d0 47 ae 3f
       -0.32184836 -3.8499787 -0.63035995 1.3615665
0001d0 ea 6e e5 3f f2 e3 9b bf 23 a6 9c be fd 90 de be
       1.7924473 -1.2178938 -0.30595502 -0.43469992
0001e0 fe fb eb 3e 76 f6 f7 bf 9f 61 8b c0 29 dc 68 bf
       0.46090692 -1.9372089 -4.3556666 -0.9096094
0001f0 5a 2a ad be 9e 9f be 3e df e4 8a 3f ae e8 36 3f
       -0.33821374 0.37231153 1.0851096 0.7144879
000200 17 3d 1d 3f d4 ba 87 3e 7c 53 fc 3d 61 e5 93 3e
       0.6142134 0.26509726 0.12320611 0.2888594
000210 35 f1 8b 3e 0c d5 53 be e0 92 b3 bc be bd d9 bd
       0.27332464 -0.2068674 -0.021920621 -0.106318936
000220 f8 03 58 bd c8 31 cd 3d 0c 5d 77 be 8a 13 53 be
       -0.05273816 0.10019261 -0.24156588 -0.20612922
000230 a4 55 8a bf a3 b4 a7 bf 20 43 88 3f 78 43 58 3f
       -1.0807385 -1.3102001 1.0645485 0.8447795
000240 a7 ad 13 bf 8a 19 36 bf 51 8d 72 3f a9 52 23 3f
       -0.5768685 -0.7113272 0.9474688 0.63798004
000250 07 cb 1f 3f f7 1c 1c 3f cd 56 0e 3f d5 b2 15 3f
       0.6241917 0.60981697 0.556012 0.58476
000260 d2 5e 87 bf 61 1c 18 3e e5 89 63 be c1 6f 99 bc
       -1.0575812 0.14854576 -0.22220571 -0.018730046
000270 72 07 42 3e 11 c4 e7 3e be aa 23 3e 87 a1 11 3f
       0.18948153 0.45266774 0.15983102 0.56887096
000280 14 fb 69 bf cd 96 0b c0 28 81 23 be 76 29 25 bf
       -0.9139874 -2.1810791 -0.15967238 -0.6451639
000290 f9 5b 09 3e da b0 1e 3e 2c 00 c7 3e e4 1f 31 be
       0.13413991 0.15497151 0.3886732 -0.17297322
0002a0 04 53 09 3f b2 26 c1 3e 40 4d cd 3e 15 4e 77 be
       0.53642297 0.37724835 0.40098 -0.2415088
0002b0 ec 9e c1 3e 6f 70 07 3e bd 46 b8 3e 77 03 ae 3e
       0.3781656 0.13226484 0.3599147 0.33987018
0002c0 e0 f7 0d 3f 25 b2 4b be 0b a7 4e 3f d3 66 4d 3f
       0.5545635 -0.19892175 0.8072364 0.8023502
0002d0 03 0f 29 be ca ff 8d be 66 7f 9a bd 26 c6 99 be
       -0.16509633 -0.27734214 -0.075438306 -0.30033988
0002e0 8d b9 5a be 88 8e 51 bd 0a 12 78 3e 46 da 53 3e
       -0.21359845 -0.05116132 0.24225631 0.20688733
0002f0 85 44 54 be a4 ae 58 be 06 22 39 be ab 6b 96 3e
       -0.20729263 -0.2116037 -0.18079385 0.2937902
000300 90 3e e6 bd 37 08 85 be 38 b1 1c 3d 92 e5 99 be
       -0.112424016 -0.2598283 0.038254946 -0.3005796
000310 0d 2a 82 be 1c 1a 93 3d 77 28 5c be 9f a0 92 be
       -0.25422707 0.07182714 -0.21499811 -0.2863817
000320 ea dc 7e bd c9 2c 88 c0 19 6a 2f 40 50 11 96 3f
       -0.0622224 -4.255467 2.7408507 1.1724033
000330 c2 04 f9 bb 4f ad 9c be d0 51 c8 bd e6 e4 cd bf
       -0.007599444 -0.30600974 -0.097812295 -1.6085479
000340 65 8d 20 3f 49 8b 31 3f 52 71 e4 bf 55 f5 e2 be
       0.6271575 0.6935316 -1.7847083 -0.44327798
000350 1c 86 b9 c0 86 96 ce 3e 18 74 ae be 64 13 dc 3e
       -5.797621 0.40349215 -0.34072948 0.42983544
000360 22 6f 1b c0 a6 1d 97 3d b2 4c 59 3e d0 dd b6 be
       -2.428658 0.07378702 0.21220663 -0.35716105
000370 5b dd a5 bf 02 1e f8 bf 6a 7b 63 be c5 28 80 bf
       -1.2958177 -1.9384158 -0.22215047 -1.0012442
000380 9e c2 86 3e a4 66 8b be 97 9b 13 bd 6b 54 6c be
       0.26320356 -0.27226746 -0.036037054 -0.23079078
000390 1b 18 1a 3f 73 1d 1c 3f c5 fc 6d 3f 17 6e 8b 3f
       0.6019303 0.60982436 0.9296382 1.0892972
0003a0 dd ad 59 c0 50 a6 1f c0 39 c1 81 3e a6 ab ce be
       -3.4012368 -2.494526 0.2534273 -0.40365332
0003b0 fc 66 e6 bc 3d 64 fa 3d 7c 94 1d bf 7f b0 98 be
       -0.028125279 0.1222615 -0.61554694 -0.29822156
0003c0 f9 bb e0 3d 96 2d 27 bd a6 ea 31 3e 3e aa 81 3e
       0.10973353 -0.04081496 0.17374668 0.25325197
0003d0 88 ff c8 3d ac 10 d3 bd 04 d4 6c be 88 0d f0 3d
       0.09814364 -0.10305914 -0.23127753 0.11721331
0003e0 68 79 64 be dd 5a 63 be 49 79 01 bb 70 b5 07 bf
       -0.22311938 -0.2220263 -0.001975613 -0.53011227
0003f0 63 c6 9f be ff d6 fe be 75 3e e3 3e ef be 0b bf
       -0.31206045 -0.49773404 0.44383588 -0.54588217

net.0.bias f4 [128]
000000 1f 56 8f be 20 e7 c1 3c 56 a2 78 be 37 da b3 3e
       -0.27995393 0.02366978 -0.24280676 0.35127422
000010 79 12 13 3f be 88 23 be 7e 5a 5f 3e cb 79 60 3f
       0.5745006 -0.15970132 0.21811864 0.8768584
000020 aa 69 9e 3e 80 19 c1 3e 15 f7 4b 3f 72 52 29 be
       0.3093999 0.37714767 0.7967389 -0.16535357
000030 8d b5 c1 3e 0c 36 06 3e ae 17 4b 3e f2 8f 51 3e
       0.37833825 0.13106555 0.19833252 0.20465067
000040 ef 8e eb 3e e3 93 18 3f b3 2f 5e be 96 a6 6c 3e
       0.46007487 0.5960066 -0.21697883 0.23110422
000050 2e ab 0c 3f f9 5b cc be 72 b6 98 3e a3 5f bb be
       0.549487 -0.3991392 0.29826695 -0.36596403
000060 84 9b 3b 3e 9d 64 50 3f f4 75 92 3d 83 46 72 be
       0.18321043 0.81403524 0.07151404 -0.2365971
000070 3b 6f 71 bd dd 1a 3f 3f d2 24 c9 3e 26 4d 00 3f
       -0.05894397 0.74650365 0.39285904 0.5011772
000080 c1 46 5a 3e dd 5b 92 be a0 0e 93 bc d5 7c 38 3f
       0.21316053 -0.2858571 -0.01795131 0.7206548
000090 01 b3 91 be 26 91 0f 3f be b6 f3 3e ca 91 a2 3e
       -0.28456882 0.56080854 0.4760036 0.31751853
0000a0 ff ac 93 be a9 b5 65 3e 00 a9 d7 3d a1 93 f3 3e
       -0.28842923 0.22432579 0.10530281 0.4757357
0000b0 ec bd 0a 3f 89 b8 11 3e 65 83 b4 3d eb 86 a7 be
       0.5419605 0.14230551 0.08814124 -0.32720122
0000c0 d5 d1 31 3e f4 8d de 3e 32 e5 c8 be 9a d9 7c be
       0.17365201 0.43467677 -0.39237362 -0.24692383
0000d0 39 f9 0c bf 70 36 98 3d a7 d5 1c 3f 30 15 08 3e
       -0.55067784 0.07432258 0.6126351 0.13289332
0000e0 a1 63 1b 3f e3 4c 26 3f 26 ce 9e 3e 6c 20 d5 bb
       0.60698897 0.6496107 0.31016654 -0.006504109
0000f0 a1 6c 8d 3e 7e c6 bb bd 00 72 84 be b1 75 d2 3e
       0.2762194 -0.09168719 -0.25868225 0.41105416
000100 1b da 0c 3f b7 d8 ac 3e e4 a5 22 3e a0 17 d6 bc
       0.550203 0.3375909 0.15883595 -0.026134312
000110 56 5b 17 be ac 8e 22 3f 1f 13 38 bc 2d d7 37 3f
       -0.14780936 0.6349895 -0.011235028 0.7181271
000120 62 21 ce 3e 45 ce cb 3d a9 2a 06 3f ae f6 4f 3e
       0.40259844 0.09951452 0.52408844 0.20308945
000130 bf 40 1f be b6 2e 22 3f 9e 04 a8 bd d7 e6 40 3f
       -0.15552042 0.63352525 -0.08204006 0.75352234
000140 f5 05 39 3f ef 86 de 3e f6 e0 d6 be cd bc 52 3f
       0.72274715 0.4346232 -0.41968507 0.8231934
000150 df 84 f0 3e bc 2d 4a 3f cf d0 25 3f 55 94 7c be
       0.46976373 0.78976035 0.6477174 -0.24665959
000160 93 ee 5a 3f 3a 66 9a be e0 e9 91 be eb f9 24 3f
       0.85520285 -0.30156118 -0.28498745 0.64443845
000170 da 83 ca be bd c5 44 3e 21 8b 81 3f d6 e0 56 3f
       -0.3955372 0.19216056 1.0120584 0.8393682
000180 21 72 91 3e 26 b2 60 3f fc aa 9c be 92 76 3e bc
       0.28407386 0.8777183 -0.305992 -0.011624949
000190 d9 d6 53 3f d5 d1 96 be b4 88 1c 3f 8a 47 5c 3f
       0.82749707 -0.29456964 0.6114609 0.8604666
0001a0 b0 6d 3a be 4f 6f 1b 3e be 97 82 3e 41 0b 71 3e
       -0.18205905 0.1517918 0.25506395 0.2353945
0001b0 f1 cc 44 be 4f 93 16 3f f7 9e 1e be b6 32 56 3f
       -0.19218804 0.58818525 -0.15490328 0.8367113
0001c0 64 16 8c be e8 c1 5a 3f 44 43 e1 3e 26 5e d4 3e
       -0.27360833 0.8545213 0.43996632 0.4147808
0001d0 7b e2 91 3e d8 fe 95 be 63 60 2c 3f 53 89 88 be
       0.28493103 -0.29295993 0.67334574 -0.2666727
0001e0 e8 f9 46 3f 1e 1c db 3e 07 eb ee be 47 8d 94 3e
       0.77725077 0.4279489 -0.46663687 0.29014036
0001f0 be 54 0c 3e 12 dd 01 3f 40 b1 49 bd 0a 6d f7 3e
       0.13704202 0.5072795 -0.049241304 0.48325378

net.2.weight f4 [64, 128]
000000 55 4d b9 be 00 fb 35 bb 73 c5 89 3d 42 dc 8f 3e
       -0.36191812 -0.0027768016 0.067271136 0.2809773
000010 43 6b 0c 3e f4 33 95 bd ed c8 ad 3d ad 3f 20 bf
       0.13712792 -0.072853 0.08485589 -0.6259716
000020 47 af 46 3d 3c 20 84 c0 96 92 72 3e 5d c9 c0 3f
       0.048507 -4.128935 0.2368873 1.5061451
000030 57 42 5b 40 dd d1 94 3d 2c ce 6d 3f 56 e5 9e c0
       3.425924 0.07266591 0.9289272 -4.965495
000040 c4 83 b6 bf 0e 89 c0 3d 2e f3 39 bd 10 8c 9d bc
       -1.4258962 0.09401141 -0.04539793 -0.019231826
000050 41 d5 09 3f 4a 90 05 3f b2 65 80 bf 8d 74 21 3f
       0.53841025 0.5217329 -1.0031035 0.6306847
000060 cd 6d 55 3d c8 22 b2 3e 35 4f 85 3e ca 4d 4e bf
       0.052106667 0.3479216 0.26036993 -0.80587447
000070 34 02 7d bd 0e b2 8e be 68 4e ac 3e 37 8d 30 c0
       -0.06176968 -0.2787022 0.3365357 -2.758619
000080 5d 5f 80 3d cf 49 23 c0 7e e5 83 bd 5a 38 b0 3e
       0.06268189 -2.55138 -0.064402565 0.34417993
000090 50 d4 c5 bb 2d 99 fc bf 67 8d 3a c0 6e 5a 9a 3e
       -0.0060372725 -1.9734246 -2.9148805 0.30147117
0000a0 4f 8e a1 3d 08 91 fb 3f 9a 2f 92 bd b8 35 00 3f
       0.07888471 1.9653635 -0.071379855 0.5008197
0000b0 6b 82 c3 3e 9b 86 ae bf 25 c0 2b 3e 6f 1d a5 ba
       0.3818544 -1.3634828 0.16772516 -0.0012597273
0000c0 4b 13 2a bd ed 9a 66 be be 1c 6a 40 6a ad 65 3d
       -0.041522305 -0.22520037 3.6580043 0.056073584
0000d0 c5 d4 55 40 d1 94 af be 10 7a 8f bf d1 35 cc 3f
       3.3411114 -0.34293225 -1.1209126 1.5953923
0000e0 40 f0 3f bf cd e3 52 3e 61 b7 e5 3e 69 62 8c 3e
       -0.7497597 0.20594712 0.4486647 0.2741883
0000f0 04 6e 8c bd de 12 87 bd 0b 1a b2 3d b8 07 8d 3f
       -0.06856921 -0.065953955 0.086963736 1.101798
000100 15 0f e5 3f 54 92 17 bf 07 01 a8 3d ff 00 06 bd
       1.7895228 -0.59207654 0.08203321 -0.032715794
000110 1b 66 4e bc 54 72 c0 3d 31 be 2a 3f 35 c7 c8 3d
       -0.012597586 0.09396806 0.6669646 0.09803621
000120 ab 74 1c bf de b5 cd bf ef 78 ae 3e 16 e7 59 3d
       -0.6111552 -1.6071126 0.3407664 0.053198896
000130 d1 b2 b4 c0 2c c4 11 3e 45 24 4e 3f e9 6a 09 3f
       -5.646828 0.1423499 0.8052409 0.53678757
000140 51 da 70 3d 15 14 02 3e 8d 75 e0 bf cd 90 16 3f
       0.058801953 0.12702973 -1.7535874 0.588147
000150 6b 62 85 3e ff 7a cd 3e 71 c6 09 3e 42 10 97 3d
       0.2605165 0.401329 0.13454606 0.07376148
000160 3a d4 fc 3d f7 8c 71 bf 85 fe 03 bd d7 f3 a1 3d
       0.123451665 -0.9435572 -0.03222515 0.07907837
000170 d9 4f 6d bf c2 af bc 3f 81 35 25 be ba f8 b1 3e
       -0.9269996 1.4741137 -0.16133691 0.34760076
000180 b0 f8 bb 3e 8d 96 91 3d 8c 4c a4 3c b0 3d 99 bf
       0.3671317 0.071087934 0.020056032 -1.197195
000190 16 0c 72 3e e0 42 82 bb e2 85 b8 3e 95 bd 08 3f
       0.23637423 -0.0039752573 0.36039644 0.5341428
0001a0 6f 1f 02 bd 73 09 81 c0 06 e3 f3 bf 4f 13 8e c0
       -0.03176826 -4.0324035 -1.9053657 -4.439857
0001b0 fe 25 03 3f 92 35 87 bc d3 46 64 3d 01 a5 fb 3e
       0.51229846 -0.016505037 0.055731606 0.49149325
0001c0 81 da c0 3f f0 72 7e 3e 56 5b 03 3f b1 c2 41 3d
       1.5066682 0.24848533 0.5131124 0.047304813
0001d0 c1 77 98 bd f7 d8 08 bd fd ef 87 3e d4 0a b2 3f
       -0.07444716 -0.03341004 0.26550284 1.3909554
0001e0 09 78 c2 3e fd e5 74 40 51 36 19 bf 80 58 47 c0
       0.37982205 3.8265374 -0.59848505 -3.1147766
0001f0 9e fe a9 bd bf ca 65 40 e0 4a 30 bc 70 04 4a 3e
       -0.083005175 3.5904996 -0.010760039 0.19728255
000200 dc 38 be bc b4 7d 9e bd dc 2a 26 bd 1d e8 85 be
       -0.023220472 -0.0773882 -0.040568218 -0.2615365
000210 f9 9a 16 be 1d 5f 59 bd 2e 00 45 3d fd c2 1a bf
       -0.14707555 -0.053069223 0.048095874 -0.6045378
000220 22 70 fc be 58 0c 35 40 08 5d 94 be 64 2a 2c 3d
       -0.493043 2.8288784 -0.28977227 0.042032614
000230 63 e3 14 3e af b9 2a bd a3 d3 d7 be b9 0f cb 3f
       0.14539866 -0.041680988 -0.42153654 1.5864173
000240 ab 40 4e bd e1 08 92 be 19 29 82 bd d5 96 aa 3d
       -0.05035464 -0.285224 -0.06355495 0.0832955
000250 f8 4a 53 3d 9f 2c be 3f de c4 96 3f 73 ae 12 3f
       0.051585168 1.4857367 1.1778829 0.5729744
000260 14 3c 95 bc f0 b1 2b be 4f 3d 7c bc 59 16 b4 bd
       -0.018217124 -0.16767097 -0.0153954765 -0.08793325
000270 1a 07 3d 3d 7b 4e ee be 6d 0b df bc 74 69 0e c0
       0.04614935 -0.4654425 -0.027227128 -2.2251863
000280 6c 40 89 be 6d 04 f3 3e e8 55 f5 3c 48 91 96 bd
       -0.26806962 0.47464314 0.02994819 -0.07351929
000290 cd a9 1a bd 80 12 80 3c f2 3b 17 40 bc 92 ee 3c
       -0.03775959 0.015633821 2.3630338 0.029122703
0002a0 f0 2a 5c bd cb 7b 1e bd aa 60 0d bd 2d 33 0e 3e
       -0.053751886 -0.038692277 -0.034516014 0.1388671
0002b0 8e ee 67 3c fc 2c ac be bc 91 a8 3e e0 87 90 bd
       0.014155997 -0.3362807 0.32923687 -0.07057166
0002c0 fc 31 2a 3e 50 c6 09 c0 11 46 17 3f d0 ea 14 bd
       0.1662063 -2.152729 0.5909129 -0.036356747
0002d0 f5 09 db 3d fb fc 14 c0 23 b3 e0 3d 28 a6 9d 3d
       0.106952585 -2.3279407 0.109716676 0.076977074
0002e0 42 c1 5c be 3c e5 11 be 30 9d 87 bc f5 cf b3 bd
       -0.21558097 -0.14247602 -0.016554445 -0.08779899
0002f0 12 09 16 3d d6 13 19 bd 38 d8 65 bc 77 5b b7 bd
       0.036629744 -0.037372433 -0.014028601 -0.089529924
000300 ad 96 84 3e 80 5c 52 3f 99 a0 27 bd ad 6e b3 bd
       0.25896206 0.82172394 -0.040924642 -0.08761344
000310 5a 33 44 3d 58 bb 9a be 41 70 80 be 84 a1 75 be
       0.047900535 -0.30221057 -0.25085643 -0.23987395
000320 4c c9 c6 bf a9 87 22 bf ff a7 3d 3c 58 3d f3 bc
       -1.5530181 -0.6348825 0.011575698 -0.029692337
000330 50 a4 04 be 24 b8 19 be 76 8b 3a 3e f0 f2 0c 3e
       -0.12953305 -0.1501165 0.18217263 0.13764548
000340 e6 0f 8b be 59 74 25 3e 6f 43 bb 3d dc ae d1 be
       -0.27160567 0.16157664 0.09143721 -0.4095372
000350 5a c4 8c bd ce 96 e2 bd 05 2d 87 bd c0 84 aa 3c
       -0.068733886 -0.1106392 -0.06600384 0.020815253
000360 4b 6a 96 bd 8b 41 6b 3e b8 6a 1a bc b5 24 02 be
       -0.073444925 0.22974221 -0.009424858 -0.12709315
000370 f8 5c 0a bd 58 0d de 3d 3e 2c 25 c0 8a 54 ec bb
       -0.03378007 0.10842389 -2.5808253 -0.0072122263
000380 cb 12 69 be 7c f8 28 bf f7 95 8b 3d fa 0c 8b 3f
       -0.22761075 -0.6600416 0.06815713 1.0863335
000390 5a 56 ba be 51 99 8b 3d bf 65 ea 3d c9 cb 2e bf
       -0.36394006 0.06816352 0.11445188 -0.682797
0003a0 40 5e 4f 3c 3c 91 5a 3c c3 53 f8 be 5e f0 c7 3e
       0.012656748 0.013340291 -0.48501405 0.39050573
0003b0 56 b0 7d 3f ac c3 b1 be a1 48 91 bd dc 00 4e bd
       0.9909719 -0.34719598 -0.07093931 -0.05029379
0003c0 e5 48 6c be 9b 1e a5 be de b8 dc 3d 59 54 5f be
       -0.23074682 -0.32249913 0.10777448 -0.2180952
0003d0 4b d6 b0 3d a0 27 39 3b f8 94 0d be 46 31 43 3e
       0.08634623 0.0028252378 -0.13826358 0.19061765
0003e0 84 58 12 3e b6 32 ac 3e 93 8a 99 3e ee 80 b6 3f
       0.14291579 0.3363244 0.29988536 1.4258096
0003f0 82 5a 93 bd 6c 8a b8 3d 9c cf 8f bd b3 75 81 be
       -0.07194997 0.09010777 -0.0702202 -0.2528511

net.2.bias f4 [64]
000000 4d b7 c1 3e dd 95 68 be 42 ae 57 be 3c 7e 41 3f
       0.3783516 -0.22713418 -0.21062568 0.75583243
000010 bd e8 62 3f d0 72 87 bc e2 c4 ce 3e 72 a4 59 3b
       0.8863638 -0.016534239 0.40384585 0.003320959
000020 59 ca 15 3d 10 ec b6 bc 2b e0 5f 3f 6c 6e 10 3d
       0.036569927 -0.02232936 0.8745143 0.035261557
000030 c4 1a 3e 3f 2f 19 e0 bc 50 a2 7d bc ff 97 38 3f
       0.7425959 -0.027355758 -0.015480593 0.7210693
000040 39 87 6a bb d1 c3 df 3c bf 2a 5f 3f dd fd 5a 3f
       -0.0035786165 0.027315052 0.871746 0.85543615
000050 cc 85 97 3d 9c c9 2d 3d d8 75 85 3d 9b 4d 2d 3f
       0.073985666 0.042428598 0.065166175 0.6769654
000060 fb 8e c4 3b 76 9c 70 3d d5 7d 64 3f 47 a1 e3 3d
       0.00599849 0.058742963 0.89254504 0.111147456
000070 c5 9a 58 bd cb db 45 3d 8b 48 60 3f f6 ff bd bd
       -0.052881975 0.048305314 0.8761069 -0.09277336
000080 aa 5d 59 3f 12 b2 37 bd bd 61 42 3d e9 16 3d bd
       0.84908545 -0.044847555 0.04745649 -0.046164427
000090 56 73 80 bd ba 95 52 3f e8 d6 2e 3d 85 3c 9c 3e
       -0.062719986 0.82259715 0.04268542 0.30514923
0000a0 77 59 47 3f 03 31 b6 bd 14 f3 37 3f f0 77 63 3f
       0.7787089 -0.08896067 0.7185528 0.88854885
0000b0 a3 19 3b 3e 82 80 ea 3c a8 61 86 bd a4 6a 19 3f
       0.18271498 0.02862573 -0.06561595 0.59928346
0000c0 07 b3 1f 3f e9 3f 8c 3d 6f c0 b0 3c 05 bd 5c 3f
       0.6238255 0.068481274 0.021576134 0.8622592
0000d0 c6 b2 65 bc 29 fb 70 3f 48 3a 1e 3f 1e d5 60 3f
       -0.014019674 0.9413324 0.6180768 0.8782519
0000e0 91 bc 37 3f 0a 4e 17 3e 7e 48 96 3f 24 d6 83 bd
       0.71772105 0.14775863 1.1740873 -0.064373285
0000f0 8f 94 0d 3d 42 54 62 3d 1d a8 86 3f c0 14 21 bd
       0.034565505 0.055256136 1.0520054 -0.03932643

net.4.weight f4 [4, 64]
000000 c6 6a a1 be 4d 8e 81 40 a7 3c 52 40 89 b2 18 bf
       -0.31526774 4.0486207 3.284952 -0.59647423
000010 6f da 0d bf 0c cf 15 bd 8a 36 97 bf 18 9e c6 bd
       -0.5541143 -0.03657441 -1.1813519 -0.09698123
000020 c0 08 a5 3d 94 61 c3 bc 55 6a 45 bf 0f 9f 77 bd
       0.080583096 -0.02385024 -0.77115375 -0.060454424
000030 e5 1b 1c bf 93 e8 c9 bd c8 18 fc 3c d9 94 1c bf
       -0.60980064 -0.09858813 0.030773535 -0.61164623
000040 fb e3 a2 bc 19 94 d6 bb 86 dc 1f bf c3 e6 2e bf
       -0.0198841 -0.0065484163 -0.6244587 -0.68320864
000050 0c 69 be 3d a0 49 9b bb 05 9a c9 3d 53 eb 15 bf
       0.0929738 -0.0047390014 0.0984383 -0.585622
000060 0e 52 40 bc fa f6 42 3c 3f 02 22 bf 1a 7c e7 bf
       -0.011738313 0.011899704 -0.6328468 -1.8084748
000070 b8 7b 96 3d 61 ba 0c be 11 46 ff be 39 d8 40 bf
       0.07347816 -0.13742973 -0.49858144 -0.7532993
000080 2d ae 06 bf 7c 4a 05 bd b6 7b a6 3d b2 ba 2d bd
       -0.5260952 -0.032541737 0.08129065 -0.042414375
000090 89 70 ab 3c d4 22 fc be ca 84 97 bd c0 90 13 bf
       0.020927684 -0.49245322 -0.073983744 -0.57642746
0000a0 17 2d 16 bf 73 ae ce 3d 17 70 22 bf 28 e0 2a bf
       -0.5866255 0.10091867 -0.63452286 -0.66748285
0000b0 1e ba ad 3e 7e d8 85 3d f9 fe fb bc 4f df 22 bf
       0.3393106 0.06535433 -0.030761229 -0.6362199
0000c0 34 30 2b bf 83 49 dd 3d f2 de b8 3c 8e 99 0f bf
       -0.6687043 0.10805037 0.022567246 -0.5609368
0000d0 fa 73 04 bd c7 7a 2e bf 64 77 ea be e5 2f 2a bf
       -0.032337166 -0.68156093 -0.45794213 -0.6647933
0000e0 5a da 21 bf cc 35 ab bf e9 2a e0 be 06 4b ba bd
       -0.63223803 -1.3375793 -0.43782738 -0.09096341
0000f0 7d 27 07 3e 4c 63 95 3d 08 df 0a bf fb 3d 13 40
       0.13198657 0.0729433 -0.5424657 2.300658
000100 dc 2c b1 be 62 d2 3f 40 e5 ef 49 40 ca 67 1f bf
       -0.34604537 2.9972157 3.155267 -0.62267745
000110 1c 12 1e bf 84 94 9f bd ad 48 24 bf 06 00 d7 3d
       -0.6174638 -0.07791999 -0.64173394 0.10498051
000120 5e e2 b4 bd 80 08 29 3b b3 df bd be a4 8a 7c 3c
       -0.088322386 0.002579242 -0.3708473 0.015413914
000130 47 22 22 bf c9 7a 19 bd 15 9b 36 bd 67 3d ac be
       -0.63333553 -0.037470613 -0.04458149 -0.33640596
000140 dd 84 34 3d e7 c6 d5 3d ab 9f 40 bf 8a bc fb be
       0.04407202 0.10438328 -0.75243634 -0.4916728
000150 bb 75 c2 bd 88 ea aa bc 15 43 80 3c 74 11 08 bf
       -0.094951116 -0.020863786 0.015656987 -0.5315163
000160 a0 94 16 bd c9 0b 82 bd 60 49 3c bf cf e5 98 bf
       -0.036762834 -0.06349904 -0.7354946 -1.1945132
000170 47 f1 b2 bd f3 49 9e 3d da ee 49 bf 56 b2 af be
       -0.08737426 0.077289484 -0.78880084 -0.34315747
000180 28 9c 06 bf 34 78 c8 3d 62 16 92 3c f1 d0 0f bd
       -0.52582026 0.09788552 0.017832939 -0.03511137
000190 30 ed 7c 3d 32 a8 f9 be 72 1e 5b 3b 3b f8 2e 3f
       0.061749637 -0.48761135 0.0033434895 0.6834752
0001a0 df d7 02 bf ae 3d cc 3d 3b f0 0c bf 62 a0 44 bf
       -0.51110643 0.09972702 -0.5505406 -0.76807225
0001b0 4b a6 17 c0 5f 20 b3 3d f3 6c 7b bd 79 d7 fd be
       -2.3695247 0.08746409 -0.0613832 -0.49578455
0001c0 b4 8b bf be 57 02 cf 3d d3 f3 18 3d e0 a7 4e bf
       -0.37411273 0.10107868 0.037341904 -0.80724907
0001d0 4a 60 a2 bd c6 2c 27 bf 20 80 03 bf 4e ce f0 be
       -0.07928522 -0.65302694 -0.5136738 -0.47032398
0001e0 d1 02 42 bf 0b cf a2 be 09 14 c3 be d8 a8 e5 3d
       -0.7578555 -0.31798586 -0.38101223 0.11213845
0001f0 7d 15 e1 bd 08 a7 51 bd 15 b4 5a bf 64 4e db 3f
       -0.10990427 -0.051184684 -0.85431033 1.7133298
000200 e9 10 d8 3e 52 0f 02 40 24 ef 2b 40 78 1c 01 bf
       0.422004 2.032185 2.686471 -0.50434065
000210 47 e9 3c bf 64 9f c6 bd 9c a4 b1 bf 17 af 95 3d
       -0.7379345 -0.0969837 -1.387836 0.07308786
000220 70 7c 46 bc f4 06 47 3d 7f e3 df be a9 7f 0a 3c
       -0.012114629 0.048590615 -0.43728253 0.008453288
000230 8b 66 e5 be 6e 35 ce bd af 51 3e 3d 07 cd 35 bf
       -0.44804797 -0.10068785 0.04646462 -0.7101597
000240 58 15 8f bd 08 28 8a 3d 61 f1 05 bf 5d d1 33 bf
       -0.06986493 0.067459166 -0.5232144 -0.7024134
000250 19 e1 b7 3d e0 c0 25 3d 90 6f 95 3d a4 0b e1 be
       0.08978481 0.040467143 0.072966695 -0.43954194
000260 b9 ed 20 39 0b 6c 9d 3d 57 cf d5 be 56 b9 7d bf
       0.00015347348 0.07686623 -0.4175975 -0.99110925
000270 b9 c9 b2 bb e9 2c c6 3d d6 bb 16 bf 40 bf 8c 3f
       -0.005456176 0.09676535 -0.58880365 1.0995865
000280 14 b4 57 bf 24 a9 62 3d 0f 68 b2 3c 5b f3 cb 3d
       -0.8425915 0.055337086 0.021778135 0.09958526
000290 ea c5 ba bd ac a6 66 bf 20 4a 70 bc fb d1 4f bf
       -0.0911978 -0.9009807 -0.01466611 -0.8117978
0002a0 79 5d ed be cb 3a ff bd c1 3e 3a bf 83 35 b1 be
       -0.46360376 -0.12462386 -0.72752005 -0.3461114
0002b0 e8 0c 1e bf 9e 6b 3f bc d5 64 96 3d 73 ab d3 be
       -0.61738443 -0.011683373 0.07343451 -0.41341743
0002c0 81 ee b8 be 69 d5 55 bd cf cd 9f bc e0 6b 0c bf
       -0.36119464 -0.052205477 -0.019507317 -0.54852104
0002d0 a8 a3 72 bd 9c d9 f3 be ca 28 40 bf 23 cf fe be
       -0.059238106 -0.4762696 -0.7506224 -0.49767408
0002e0 91 40 0e bf a8 af f5 bf c4 3a 6e bf de c6 24 bd
       -0.5556727 -1.9194231 -0.9305842 -0.040228717
0002f0 e6 28 b4 3d e6 d6 ee bd 8c 11 19 bf ed d3 44 40
       0.08796863 -0.116620824 -0.597924 3.075435
000300 00 01 19 bf 02 39 8a 40 32 5b 64 40 0b 9f 36 bf
       -0.5976715 4.319459 3.5680661 -0.7133643
000310 34 66 bf be 10 12 fc bc a9 e6 18 bf 12 ee ac bd
       -0.37382662 -0.030770332 -0.5972696 -0.08443846
000320 80 7b 36 bd a0 00 e2 3d ba ba 48 bf 63 e7 b3 3c
       -0.044551373 0.110352755 -0.7840992 0.02196092
000330 3a 9b 36 bf 5c 35 27 bd 2c 60 6b bd ce 86 99 be
       -0.71330607 -0.04082237 -0.057464764 -0.2998566
000340 82 58 bd 3d 6e e8 d3 bd 7f 4c 11 bf 9a 50 2f bf
       0.09245397 -0.10347067 -0.5675735 -0.68482363
000350 89 85 a4 bb 6a 7c f8 3d 44 df 8f bd 9e 42 33 bf
       -0.0050208014 0.12133105 -0.070250064 -0.70023525
000360 75 35 a5 3d 81 11 68 bd da 1d 08 bf e3 08 af bf
       0.08066837 -0.056657318 -0.5317055 -1.3674587
000370 31 8c 86 bc cd 4d c0 bd 7b 2e 2b bf b4 b3 d9 3f
       -0.01642427 -0.09389839 -0.668678 1.7007966
000380 6f 75 a7 be ac ed ef bd c9 8b d0 3d 78 fe ba 3d
       -0.32706782 -0.11715254 0.10182912 0.09130567
000390 94 3d c0 bd 17 a4 4f bd 72 49 f3 bd 5a 9f 42 bf
       -0.09386745 -0.050693598 -0.11879243 -0.760244
0003a0 93 86 43 bf e7 9a 8e 3d 63 1b 23 bf fe 7f 58 bf
       -0.7637722 0.06963139 -0.63713664 -0.845703
0003b0 20 8c 95 bf 73 8f cb bd 7c 96 bd 3d ab 53 52 bf
       -1.1683388 -0.0993947 0.09257218 -0.8215892
0003c0 26 1c ea be e8 ca 09 bb 3c c8 89 3d 35 2d 21 bf
       -0.457246 -0.0021025483 0.06727645 -0.62959605
0003d0 80 f5 af bc b1 15 53 bf c7 0c f1 be 2f 4e 33 bf
       -0.021479368 -0.82454973 -0.4708006 -0.70041174
0003e0 07 51 24 bf 05 a2 00 c0 b6 3a e8 be c0 93 0c bd
       -0.6418614 -2.009889 -0.45357293 -0.034320593
0003f0 9f f2 e2 3c f0 1f 16 3c f7 c1 4b bf 79 31 44 40
       0.027703581 0.009162888 -0.7959284 3.0655196

net.4.bias f4 [4]
000000 b5 1c 04 bf 6a 93 84 bf 1b 44 98 be 73 26 41 bf
       -0.51606303 -1.0357487 -0.2973946 -0.75449294
