modelo_final.pth (torch, 44881 bytes, 6 tensors)

net.0.weight f4 [128, 14]
00000000: c9ad 483e b0fc c53d db51 3ec0 499f cd3f
00000010: 43d0 473e 3b8e 8ebf 9046 903e af18 4abf
00000020: 02ac df3d 44ae 8f3c 415a 7ebe ca86 b93e
00000030: 2ed8 7e3e 94ac 693f 1acf bdbd be8b 4ebe
00000040: f1b6 01be 6818 5ebe ce0b edbd 16fd 073e
00000050: f061 a53d b825 3fbe b781 67be a005 c13d
00000060: cb93 75be a062 06bc 3c49 f83d f240 fbbd
00000070: e8c7 cfbf f11d 733e 5e2e 04bf bb3a 2b40
00000080: 900b e13e bd15 ddbf bb0d 883f 2414 2f3f
00000090: a94a 083f 9a1e 993e a036 dfbe 7e9a a3bf
000000a0: 2caf 843d 48f0 f5be 5579 d5bf 99ea 13c0
000000b0: 773c f4bf 2a26 08c0 770a c3bd 39c9 a33e
000000c0: 451b dc3e 4fd4 01bf d437 db3e 18e2 e23e
000000d0: b142 78bf 13a2 c1bf 69d8 a73e 9823 fbbf
000000e0: 7d5e 01c0 7088 033f cba9 6ebf c66c 50bf
000000f0: 3121 21c0 394c febf 32bc abbf 0338 fb3f
00000100: 36bf 953e 96e7 e63e aae8 76bf 40ba 4ebf
00000110: bb01 773f d7f0 fb3f d6b0 f1bf 13e6 943e
00000120: e705 d23f 5756 923f bdd5 e23f a42c 303d
00000130: 74ba 683f c844 8fbe 0692 063f 9c82 b83d
00000140: 61f2 65bf be3c b2be c957 b1be 1dae 9c3f
00000150: 13c3 c23f 8987 f03f 5047 1bc0 7b07 27bf
00000160: 3a3e cfbe dae4 cb3f b08c 03bf 3a51 183f
00000170: b1b8 393e e863 96be 8324 cc3f e19f 9d3f
00000180: 2cf7 693f 9de7 57bf c4c9 8ebf 2940 d53f
00000190: b9f2 23c0 37ea b7be af0f f33f 28f5 0fc0
000001a0: a50f 5dbb ec37 b3bc eece c03d 5558 313e
000001b0: 2e5c 21bf 7af5 37bf 6109 753f 44c6 67c0
000001c0: 02eb 8abe b327 233f 8d8f 2c3f 1946 a4be
000001d0: 764d 393c 673e 0abf e9af 523e 9404 583f
000001e0: 5399 d63e ad0a d63e 3ef6 b33e ad97 4cbf
000001f0: 0041 333f 7c51 2a3e d6f6 6bc0 edaa 953e
00000200: 9bed c5bf 4276 1b40 f077 19be b80e bf3f
00000210: 4355 b5bf f40f 543f c172 7d3e a5c7 083f
00000220: c381 bdbf ccaa 9ebf 1a6f 06c0 114a a23f
00000230: b63b c6c0 0fd8 853f 9440 793f fc85 ba3e
00000240: e964 2d3d 56ed febf 7e0c 02c0 7ce2 8ebf
00000250: c034 39bf f54a 05bf 9b7b 973e cd9d a63f
00000260: 9f16 09c0 9806 4e3f 8944 353f 3962 30be
00000270: 996c 00bf 7c7f 67c0 3529 763f 3dc1 2cc0
00000280: f1d1 0fbe 4eef 113e eb21 923e 5b46 a33e
00000290: 25d4 a53b 1fb3 ddbe d6c1 a9bf 23b3 dcbf
000002a0: 8a1e 24bf b688 b4bf 1abd 7ebe ce3c 72bf
000002b0: 409c 833d 6ba3 1bbd 90b4 8d3e 854d ffbe
000002c0: 81ab 873f a72c 9d3f e809 21c0 c6e6 3dc0
000002d0: a419 3e3f d812 65bf 48bf 0ac0 68a6 063f
000002e0: ac06 173f 2072 c13e 31a1 6ebf 2cd3 bbbe
000002f0: f389 833f 222e 84bf 432c 233f bdce 3a3f
00000300: 4ef2 67be 77c7 80bf 0a76 cbbe 8ec8 24bf
00000310: 80fd eebf 858d d53e 6dce 87c0 4658 a83e
00000320: eec1 033f 1caf 45be fa14 8e3e 00b7 2c3d
00000330: b86a 0b3f dab2 c23e b025 a43b c290 b2bf
00000340: dfe2 a2bf c4b5 64bf 3707 1ac0 fede 1140
00000350: 8868 943f 77f9 24be efb5 4bbf 2473 cebe
00000360: 557e 3dbe e62c 8bbe dd25 41be a1a4 23be
00000370: fa07 8dbe 5aab a5bf 3bbc 4cc0 54bc 80be
00000380: 68ec a7bf 8a7e 2d3d 8667 aabd 5e05 c7bf
00000390: 82d2 913d bd9c e4bd 9fcf cdbf 74c8 fcbd
000003a0: ad91 833f 5445 573f d9f2 16c0 cf4b 59bf
000003b0: e2d4 723f c86d b2be 84ce d4c0 9502 55bf
000003c0: 4368 0abf 387f 95bf 4f71 be3e 0f15 75bf
000003d0: 8eeb e83c 24cf 6c3f 98b7 d33e 667b 813e
000003e0: 9c61 7cbf 262b 5a3f f95d 65c0 2ae5 27be
000003f0: 6c52 94bf 159b 693f c122 2abf bf2d 03c0
0.19597544 0.09667337 -2.973746 1.6064235 0.1951304 -1.1137155 0.28178835 -0.78943914
0.1092148 0.017539151 -0.24839117 0.36235648 0.24887154 0.9127896 -0.09268017 -0.20170495
-0.12667443 -0.21688998 -0.11574517 0.13280138 0.08075321 -0.18666732 -0.22608076 0.09424901
-0.2398216 -0.008202225 0.12123343 -0.12268247 -1.6232882 0.2374189 -0.5163325 2.6754596
0.43954134 -1.7272259 1.062919 0.6839011 0.5323892 0.2990616 -0.43596363 -1.2781522
0.06478724 -0.48034883 -1.6677653 -2.3111937 -1.9080952 -2.1273293 -0.095234804 0.31989458
0.42989555 -0.5071458 0.4281603 0.4431312 -0.96976763 -1.5127586 0.32782295 -1.9620237
-2.021392 0.5138006 -0.93227834 -0.81415975 -2.5176508 -1.9867011 -1.3416808 1.9626468
0.29247445 0.4509856 -0.9644877 -0.80752945 0.96487015 1.9682873 -1.8882091 0.29081783
1.6408051 1.1432599 1.7721478 0.043011323 0.90909505 -0.27982163 0.52566564 0.09009287
-0.89822966 -0.34811968 -0.34637287 1.2240635 1.5215782 1.8791362 -2.4262276 -0.6524579
-0.40477163 1.5929215 -0.5138655 0.5949894 0.1813686 -0.29373097 1.5948642 1.2314416
0.9139278 -0.8433779 -1.1155324 1.6660205 -2.5616896 -0.3592088 1.8989161 -2.2493382
-0.0033731249 -0.021877252 0.09414469 0.17318852 -0.6303128 -0.7185894 0.95717436 -3.6214762
-0.27132422 0.6373245 0.6740654 -0.3208473 0.011309972 -0.5400147 0.20574917 0.84381986
0.41913852 0.4180502 0.35148805 -0.7991894 0.7002106 0.16632646 -3.6869407 0.2923197
-1.5463136 2.429093 -0.14987159 1.4926367 -1.4166645 0.8283684 0.24750806 0.53429633
-1.4805225 -1.2395873 -2.100531 1.2678853 -6.194789 1.0456561 0.97364163 0.36430347
0.042332564 -1.9916179 -2.0320125 -1.1162868 -0.72346115 -0.520675 0.2958649 1.3016907
-2.1420057 0.8047881 0.708077 -0.17224969 -0.50165707 -3.617156 0.96156627 -2.6992943
-0.1404493 0.14251444 0.28541502 0.31889614 0.00506069 -0.4330072 -1.3262279 -1.7242168
-0.641091 -1.4104221 -0.24876824 -0.9462403 0.06426287 -0.037997644 0.2767682 -0.4986383
1.0599214 1.2279252 -2.5162296 -2.9672103 0.74257874 -0.8948188 -2.167925 0.52597666
0.58994555 0.37782383 -0.9321471 -0.3668455 1.0276474 -1.0326579 0.63739413 0.7297171
-0.22651026 -1.0060872 -0.39738494 -0.6436852 -1.8671112 0.41709533 -4.2439485 0.32879847
0.5146779 -0.1930508 0.2775038 0.04216671 0.54459715 0.38027078 0.0050093755 -1.3950427
-1.2725486 -0.8933985 -2.4066904 2.2792354 1.15944 -0.16110788 -0.79574484 -0.4032222
-0.18505223 -0.27182692 -0.188621 -0.1598077 -0.27545148 -1.2942917 -3.1989887 -0.25143683
-1.311902 0.042357005 -0.08320527 -1.5548513 0.07120229 -0.11162708 -1.6078986 -0.12342921
1.0278832 0.8409016 -2.3585722 -0.848813 0.94856083 -0.3484938 -6.6502094 -0.83207065
-0.5406534 -1.1679449 0.37195823 -0.9573526 0.028432634 0.9250357 0.41351008 0.25289458
-0.9858644 0.8522209 -3.5838606 -0.16396013 -1.1587653 0.9125226 -0.6645928 -2.0496671

net.0.bias f4 [128]
00000000: ccca b73e fd0b 0bbe 2a77 073f a3b8 0c3f
00000010: 1d9b 8d3e 3fa2 da3e fb7e 193d f62f ebbd
00000020: bb0e 193e e691 343e d23b 82be a8d2 aa3e
00000030: ad1f 923f 9bb9 233f d0a3 1e3f 16ed 40bd
00000040: 7ec5 3c3f 4b1a db3e 50f4 033f f073 3d3d
00000050: f4f9 0b3e 3062 3e3e 2a66 c33e 954a f4be
00000060: 8e20 84be a837 44bd 603d 263f 574a 7d3f
00000070: 5926 a2be 6d19 343f cbd5 02bf 600c 003c
00000080: 2beb 3bbf bf09 013d c02a 1b3f 9594 7cbe
00000090: cf40 01bf d4a5 233f 107e 513f dd94 3b3f
000000a0: 19c0 0e3f a765 a93d 4438 503f 8e5b 81bd
000000b0: 1e0e 083f 4814 023f b465 ad3e c96a 8e3d
000000c0: 0654 8dbe 8ab5 38be 92c5 0abe 9a74 0c3e
000000d0: b56d 66be 0f09 cf3e 3aa7 df3e 0040 4b3b
000000e0: b1fd 40be d3d1 0c3f eb82 c7be 2a22 163e
000000f0: 9e23 6e3e f502 1a3f 78cd a73e 4b38 063e
00000100: 003e 633d d95a c83d 753c c03e 09cf 5c3e
00000110: d0d1 eb3e ba1e 2d3f dd2a 713f 9a6a 4cbd
00000120: 6c96 113f 39bf cb3e 2e53 e93e ba63 673f
00000130: fba5 063f ae03 5e3e cea0 233e 4ac2 603e
00000140: 3480 213f 7140 05be af94 2d3f ef16 a1bd
00000150: e594 fa3c df20 ad3c 3550 0abf cfee 83be
00000160: dda9 923e 6121 77be a1c0 94be 080d 0a3f
00000170: 8c08 c53e c8c3 293d 56a8 f43e ee67 1c3f
00000180: a89a 233f f0ce 033f 8eb1 3fbe 24dd 653e
00000190: 1ce5 1f3e 998f 023f c048 b4bc ce3c 7dbe
000001a0: 40eb b0be 02c7 923e e32e 043f 557b 703e
000001b0: 489f c73c 724f 98be 61df 373e 89e5 ce3e
000001c0: 39b8 dc3e cc71 9c3e 1a5d 553f 8e17 7b3e
000001d0: 4f75 203f e66f 073f 9dec 04be d961 e53e
000001e0: d83b 2abd 587f d23e 568c ef3e 01f2 49bf
000001f0: 5c2e 113f 830f d33e e0aa 493e 3fdb 2d3f
0.3589691 -0.13578792 0.52916205 0.54969233 0.27657405 0.4270191 0.037474614 -0.11483757
0.14947025 0.17633781 -0.25436264 0.33363843 1.1415917 0.63955086 0.6196871 -0.047101103
0.7373885 0.42793497 0.51544666 0.046253145 0.13669568 0.18592143 0.38163882 -0.47713152
-0.25806087 -0.04790464 0.649374 0.9894156 -0.31669882 0.70351297 -0.5110747 0.00781545
-0.7340571 0.031503435 0.60612106 -0.24666055 -0.50489515 0.6392491 0.8183298 0.7327402
0.5576187 0.08271342 0.81335855 -0.06316291 0.5314654 0.50812197 0.33866656 0.069539614
-0.27603167 -0.18038002 -0.1355193 0.13716355 -0.22502787 0.404366 0.4368227 0.0031013489
-0.18846776 0.55007666 -0.3896707 0.1466147 0.23255774 0.6016076 0.32773948 0.13107412
0.05547905 0.09782953 0.37546125 0.21563353 0.46058512 0.6762501 0.9420603 -0.04990635
0.5687015 0.3979433 0.45571274 0.90386546 0.52597016 0.21681091 0.15979311 0.21949115
0.6308625 -0.13012864 0.67805 -0.07865702 0.030588577 0.021133838 -0.54028636 -0.25768134
0.2864522 -0.24133827 -0.29053214 0.53926134 0.38483083 0.041446477 0.4778468 0.61096084
0.6390786 0.51487637 -0.18720075 0.2244764 0.15614742 0.5100036 -0.022007346 -0.24730226
-0.34554482 0.28667456 0.51634043 0.23484547 0.024367943 -0.29748112 0.17956306 0.40409496
0.431093 0.3055557 0.83345187 0.24520704 0.62679 0.5290512 -0.12980886 0.44801214
-0.041560978 0.4111278 0.46786755 -0.78884894 0.56711364 0.41222772 0.1969409 0.6791267

net.2.weight f4 [64, 128]
00000000: 89bd f33f c463 40bd acf3 303f 88e2 55bd
00000010: 0cd5 943f 8426 a43f 982b f3be 0d81 d23f
00000020: 7a72 313e 8cca 3f3f f1b3 9b3f d105 9b40
00000030: 7807 5fbf d0cc 433e 7d35 2940 eb71 29bf
00000040: a354 e7be b718 9840 9000 f8be 2001 09bd
00000050: b40f 4bc0 255e a0bf 92b8 c8c0 c831 b23d
00000060: 30af bebc f4e4 0a3d 3b3b 9ebf 3fb4 ca3f
00000070: dad6 1bbf f6e0 89be 799a 0640 7eb9 5c3d
00000080: 6ab5 83bf 86c9 16bf 637a 183e 1a33 fabc
00000090: d042 27bf 92a8 733e 923c 123e 49fb bebf
000000a0: e38b 143c 28be 67bd 40eb 55be d019 f5bb
000000b0: 6433 52bf 3670 adc0 8036 d83e d931 323f
000000c0: 1299 83c0 3859 623c cda7 463f deae 7abd
000000d0: e46a ff3c e308 913d 8df0 a33d b2f6 6a3d
000000e0: e6ee 13bc b6ef 25c0 1bad 3e3f acee 4e3c
000000f0: 3f9c a940 f359 bbbc aecf 413f e13c 2fc0
00000100: 780a ce3c a5c8 2dbf d61a a3c0 2bf2 083f
00000110: 6a84 92c0 ef9e 2d3f dd23 0f3f 59d9 a2bd
00000120: ec3c 60bf 1a97 a3bf 4bc6 1fc0 8ff4 9fbe
00000130: ab04 da3e 0960 8040 9637 e7bf 4e32 5ebd
00000140: 1abe 03c1 2703 55c0 738a a5be 455a a3bf
00000150: e2c1 193d 6623 c2c0 5544 82bf 8f24 30c0
00000160: 076d b13e 8012 84bb 8196 a83e 014b b9be
00000170: e16b d23f 8fcb a83d 768c 053d 2552 84be
00000180: 68ec 10bf 2080 ae3d a65a 53bf 2551 273e
00000190: 95c9 f5bf 7ab9 263d 3231 89bd bed2 593d
000001a0: e3cf 8fc0 110f 97c0 6a45 92bf 62da 5940
000001b0: 8721 ddc0 5ac2 c83b c576 863f 1f64 1e3f
000001c0: d960 e6bf a789 673d ec9c fcbf b9ae f2bf
000001d0: 2db2 493f 8983 7d3f aa35 50bf a5fe 1ac0
000001e0: 0234 6d3d ccd5 2abf 2ba2 0c3e b5e8 8abf
000001f0: 3e29 24be 31db 31c0 e6e9 52c0 c813 ec3f
00000200: b75f 993d 1c4b 063d 4c68 aebd 3ed7 8bbd
00000210: 6b91 973d 8cb9 02bd 8f72 96bd de51 443d
00000220: 9159 b3bd b86a 2fbc 7cf1 84bc e307 a63d
00000230: 70eb 553c 760d 79bd d20c acbc 844e b53c
00000240: 0a9e 353d 2d3a 943d 30cc bc3c e815 4fbc
00000250: 3e9e 3a3d c0c3 26bc 2006 a1bd 4cad 6e3d
00000260: a017 08bb e98d aabd 8052 9abd 2814 483c
00000270: 0b60 4c3d e0b4 adbb c087 a63c 9e82 773d
00000280: 9920 9a3d 5332 6abd ba03 54bd 3a8c 1b3d
00000290: c1a1 ea3c bdd1 58bd 9882 98bd 08e1 a03c
000002a0: ca73 bdbc 00e1 f43b 6f4a 84bc 9d99 ac3d
000002b0: 3cd6 813c b271 7e3d 0ab7 383d 3881 80bd
000002c0: 40b3 8e3a 9334 8abd d99d 8cbd 4ebc 613d
000002d0: be1a 56bd 62ba 86bd 9c85 dd3b 14b1 f9bc
000002e0: 6b15 b23d 1b10 973d 43c3 bdbc dd79 0bbd
000002f0: ec27 9e3c 0652 a23d a45a f63b f774 98bd
00000300: 7ca8 0c3d b033 7dbc 6052 69bb 902f 0dbd
00000310: b654 31bd 7ceb 12bd ee11 6ebd dad0 203d
00000320: c006 a33d fe1b f6bb 726d 01bc 04fa b23c
00000330: acc0 7bbd 5557 893d 2259 95bb 1c47 7cbd
00000340: 82b2 28bd ece9 4dbd 3c7c bb3c f3fc 45bd
00000350: d2b5 e6bc 1309 963d be02 853b 589e fa3b
00000360: 72ff 69bd 008a d13c f6e9 1abc 2684 55bd
00000370: 283c a3bd 62c7 8cbd db1b 74bc 95ac 343d
00000380: ea4b 9bbd 539b 89bd a36b 4b3d c37d 35bd
00000390: 3f80 a83d 1a1b 123d c00b ff3a a8b2 3b3c
000003a0: 9fc0 5b3c c32c 5cbd e60c d03c 3e68 4b3d
000003b0: 9fae 30bd 0c98 f53c 70b0 f1bc e157 74bd
000003c0: 9d7c 5c3d db63 933d 64b3 abbd c81c 17bc
000003d0: d8c0 83bc 2edd eebc 1b01 d4bc 3829 3abc
000003e0: 5e37 84bd 3f6d adbc 2393 65bd a56f 02bc
000003f0: 2dc5 b0bd 2e2d b1bd 15ea 843d 52db 7a3d
1.9042217 -0.046970144 0.69121814 -0.05221799 1.1627517 1.2824254 -0.47494197 1.6445633
0.17328826 0.74918437 1.2164289 4.84446 -0.8712077 0.19121099 2.6438897 -0.6618945
-0.4518176 4.753017 -0.4843793 -0.03344834 -3.1728334 -1.2528731 -6.2725306 0.08700901
-0.023276895 0.033909753 -1.2361826 1.5836257 -0.6087471 -0.26929444 2.1031783 0.053887837
-1.0289738 -0.5890125 0.14890437 -0.030541945 -0.6533632 0.23794773 0.14280918 -1.4920436
0.009066555 -0.05657783 -0.20890522 -0.0074798837 -0.82109666 -5.4199476 0.4222908 0.6960731
-4.1124353 0.013815217 0.77599794 -0.061201923 0.0311789 0.07081773 0.08004866 0.057364173
-0.009029126 -2.5927558 0.7448289 0.012630146 5.300323 -0.02287004 0.7570752 -2.7380908
0.025151476 -0.67884284 -5.097026 0.5349452 -4.578664 0.6782064 0.559141 -0.07951612
-0.8759296 -1.2780488 -2.4964778 -0.3124127 0.42581686 4.011723 -1.8063838 -0.054247193
-8.2339115 -3.3283174 -0.3233219 -1.2761923 0.037538417 -6.066821 -1.0177103 -2.7522314
0.34653494 -0.0040305257 0.32927325 -0.36190036 1.6439172 0.08241951 0.032604657 -0.2584392
-0.5661073 0.08520532 -0.82560194 0.16339548 -1.9202143 0.040704228 -0.066988364 0.053179495
-4.494127 -4.720589 -1.1427433 3.403954 -6.9103427 0.006126684 1.0504996 0.6187152
-1.7998306 0.05652776 -1.9735389 -1.8959571 0.787875 0.9902883 -0.81331885 -2.4217923
0.057910927 -0.6673248 0.13733737 -1.0852267 -0.16031358 -2.7790034 -3.295526 1.8443537
0.07488959 0.032786474 -0.08515987 -0.068281636 0.07400783 -0.031915233 -0.07346069 0.047929637
-0.08757318 -0.010706596 -0.01622843 0.08106973 0.013056621 -0.060803853 -0.021002207 0.022132166
0.04434017 0.07237659 0.023046583 -0.0126395 0.045561068 -0.010178506 -0.078624964 0.058270738
-0.0020766035 -0.083278485 -0.07535267 0.012211837 0.04989628 -0.005301103 0.020328403 0.0604273
0.07525749 -0.0571769 -0.051761366 0.037975527 0.028641583 -0.052934397 -0.07446784 0.019638553
-0.023126502 0.007473111 -0.016148774 0.08427737 0.015849225 0.062120147 0.045096435 -0.062746465
0.0010887161 -0.06748309 -0.068660446 0.055111222 -0.052271597 -0.065785185 0.0067603122 -0.030479945
0.086954914 0.07376119 -0.023164397 -0.034051765 0.019306146 0.07925801 0.0075181294 -0.07444184
0.034340367 -0.015454218 -0.0035602078 -0.034469187 -0.043293677 -0.035869107 -0.058122568 0.039261676
0.07960272 -0.007510661 -0.007899629 0.021847732 -0.061463043 0.067061104 -0.0045577446 -0.061591253
-0.041185863 -0.050271913 0.022886388 -0.048336934 -0.02816287 0.073259495 0.004059165 0.0076482706
-0.057128377 0.025578499 -0.009455195 -0.05212798 -0.07970458 -0.06873967 -0.014899219 0.0441099
-0.07582839 -0.06719079 0.049663197 -0.04430939 0.08227586 0.035670377 0.0019458458 0.011456169
0.013412624 -0.053753626 0.025396775 0.04965996 -0.04313528 0.029979728 -0.029503077 -0.05965412
0.053829778 0.0719678 -0.083838254 -0.009223171 -0.016083166 -0.029158201 -0.025879433 -0.011362366
-0.06455873 -0.021170257 -0.056048524 -0.007961188 -0.08631358 -0.086511955 0.0648996 0.061244316

net.2.bias f4 [64]
00000000: ecf4 a0bd ed1e b6bd 1328 823b 6635 4fbd
00000010: a394 2b3e c437 823d 39b7 a33d f176 103d
00000020: 9191 06bf 8486 0fbe c404 d5bb 4887 53be
00000030: 4cca debe caf6 33bd bcda 0a3d a83e 043e
00000040: 35b4 a8be 3276 babe 130b 29bd 1cb6 d5bd
00000050: 4f86 47bd cca8 debe 307d 633d 474e b23d
00000060: 8be5 863d 8657 413d 08f2 e0bd 86bb 90bb
00000070: 7e53 823b a250 78bd e4d9 9dbb d5c6 c2bd
00000080: ed68 913a 0185 e7be e574 03bf f584 4c3d
00000090: 75f6 dcbd fc02 903e 6526 f63c 999f 7fbd
000000a0: 2fb1 1fbe cafc 0e3f 542d 55be 6764 253f
000000b0: 0550 b7be d2f7 54bd dca0 83be 5535 06bf
000000c0: d0bd 86bd 125a 77be 3e91 ad3c 02ff 8b3f
000000d0: 1010 ffbe 326d 503e 1198 16be ffde e1bd
000000e0: 20d2 7fbe 2ab7 8ebc f131 683e 893f fa3d
000000f0: e4ca 86bc ab93 20b9 95c1 2b3f 6d20 1cbf
-0.07859215 -0.088926174 0.0039720624 -0.050588034 0.16755919 0.06358293 0.07993931 0.03526968
-0.52565867 -0.14016157 -0.0065008122 -0.20657074 -0.43513715 -0.04393653 0.033900008 0.12914526
-0.32949987 -0.364183 -0.041270327 -0.10435125 -0.04871207 -0.43488157 0.05553931 0.087063365
0.065867506 0.04720261 -0.10983664 -0.004416886 0.003977238 -0.060623772 -0.0048172344 -0.095105805
0.0011093892 -0.4521866 -0.5135024 0.049931485 -0.107891954 0.28127277 0.030047605 -0.062408064
-0.15594934 0.55854475 -0.20818073 0.64606327 -0.35803238 -0.051994152 -0.25708663 -0.5242513
-0.065791726 -0.24155453 0.021187421 1.0937197 -0.49816942 0.20354155 -0.14706446 -0.11028861
-0.249825 -0.017421324 0.22675301 0.122191496 -0.016454168 -0.000153138 0.6709226 -0.6098698

net.4.weight f4 [4, 64]
00000000: e433 c8c0 18b3 afbc 9b0a ffbc a48f 83bc
00000010: 56f6 25c1 5ffb b63d 8098 49c0 c733 273d
00000020: ab29 2cc0 54dd 26c1 6c1a b7bd 404c 1040
00000030: d587 14c1 a1d0 c03d 81b4 6f3b b786 5e40
00000040: 6ef2 19c1 a177 b040 137f aa3d a8b7 0ec1
00000050: aa9c 003d 7ceb dac0 06a1 d43d 56aa 39c1
00000060: 606b 56c0 f4ed a2bc 54f9 c73d cfed f33d
00000070: 1b6f 63bc d71d ab3d 64c5 9e40 0017 6f3b
00000080: 813a ad3d 084b 0fc1 d5f2 b5c0 3460 9f3c
00000090: 9aeb 813c 259f 48c0 5695 b33c 089d dbc0
000000a0: 2d91 41c1 7363 b6c0 03a7 17c1 317b de3f
000000b0: e62b edc0 b6dd 803d c15b fbc0 6d82 aac0
000000c0: 5b7f 8f3d f41a d1c0 8efc 133d b3ae 3240
000000d0: 628b 0ac1 d798 1f3e 45a7 d8c0 dc30 12c1
000000e0: e5a2 57c1 3224 92bc 665b 46c0 2d68 c7c0
000000f0: cf6c f93c efa9 033c a667 913f 6be6 77c0
00000100: 32c6 533e 5347 11bd cfaa 413d 1394 983d
00000110: bf99 18c1 3454 de3d f0f4 0cc0 5cbc 2abd
00000120: ccac a7c0 5c90 d7c0 9043 a33d 3c73 d240
00000130: f5d2 d9c0 70e6 27bd cbd7 a9bd a02c 3f40
00000140: 4ffe 1bc1 4c8c e240 641d 903d de7e 92c0
00000150: 908b 18bd 9596 cec0 e5ac ec3d 79ac 13c1
00000160: 2ebd 98c0 7440 c93d ed17 823d ab82 d3bd
00000170: 91b6 013d 7cdb d9bc 6ecd 2040 2a6f abbb
00000180: 6ea4 8c3d 395a 1bc1 c614 f1c0 e603 df3b
00000190: 146d 0dbe c061 77c0 7ecc 29bb b06c 0ec1
000001a0: 8dac 60c1 463e c5bf 74ea bdc0 35ba 0a40
000001b0: 1b90 15c1 c07e cebc 77f3 f4c0 a0a3 f6c0
000001c0: ed26 6cbc b2a1 dcc0 f4a3 dcbd 8e18 0b40
000001d0: 4183 0dc1 26ef 2fc0 a563 64c0 408c dec0
000001e0: 421a 43c1 22d7 b0bd fe73 bb3f 2f3b 0ac1
000001f0: a754 b13d 3f49 9abd 88a8 91c0 bf10 c5c0
00000200: 6277 6cc0 40ab 2e3b ea28 833d b38c 77bd
00000210: 955a 22c1 d19b 2c3d 9db9 44c0 eb41 d5bd
00000220: ef6d 303f a519 0ac1 443d de3d 8732 2c40
00000230: fa55 f8c0 3681 23bd f94e b63d 7faa 8840
00000240: 7253 38c1 98a9 bc40 71c2 733d eb67 17c1
00000250: 1938 773d 0329 eac0 4648 b5bd 178a 3dc1
00000260: ecdc 94c0 68fc f0bd 4ed2 1fbd 2dcd 8bbd
00000270: 20a1 ab3b ffe0 913d f018 a240 6cb5 d93d
00000280: 298e 24bd 56c9 0ec1 3433 76c0 0f0d ca3d
00000290: c857 08bc 9558 cac0 562d d53d f91c 04c1
000002a0: 7d78 07c1 d224 57bf ea6d 04c1 9384 0540
000002b0: 37f3 26c1 9ec6 21bc 97f7 bbc0 fb55 08c1
000002c0: d5cc 873d cf74 84c0 0163 ca3d f9df 1c40
000002d0: e4f9 09c1 c0c9 c6be db4e 01c1 6e7f fec0
000002e0: 73a9 88c1 7599 eebc 34a0 37c0 18cf 7ec0
000002f0: d185 693c ded4 ac3c 5ea9 7540 8063 a9c0
00000300: 4737 eac0 987b a13d 7a0e 86bd 043f 203d
00000310: 8113 78c1 0d47 b7bc 07be aabe fa55 d7bd
00000320: ee06 1fc0 efc0 05c1 d922 ee3c e323 ad40
00000330: ba0a bbbf 25ef 0a3d 8a61 c7ba 3c72 5a40
00000340: ebc3 28c1 a9cb 2940 0a59 83bd 73e2 28c1
00000350: 6adc a23d 0907 bdc0 a9d7 173d 5e54 82c1
00000360: 274b b4c0 51ae c03d 79fc 983d ced3 863d
00000370: be5a ae3d 1ee6 90bd a166 a140 8c51 e43d
00000380: a8b7 cc3d ef13 cfc0 cc81 cdc0 8044 a13d
00000390: 8656 313c fd1e 84bf 0035 72bd 80a2 b7c0
000003a0: d94c 26c1 81e9 1a40 9427 31c1 40af d53e
000003b0: b7fe 01c1 e0fa 7fbc 4e6c 97c0 9c84 b0c0
000003c0: 716e a8bc 8d4d 22c1 d851 a4bd ec11 4540
000003d0: cc8a f3c0 bf16 4040 7094 46c1 7f7e 31c1
000003e0: e078 31c1 2e21 e33d d2b6 9ec0 1c94 4bc1
000003f0: 9a2a b6bb 7c39 7c3d 09a7 b5c0 ddef 76c0
-6.2563343 -0.021447703 -0.031132987 -0.016059704 -10.372641 0.08934664 -3.1499329 0.040820863
-2.6900432 -10.429035 -0.089405864 2.254654 -9.283162 0.09414793 0.0036576095 3.4769723
-9.621687 5.514603 0.08325019 -8.919838 0.031399406 -6.8412457 0.10382275 -11.604086
-3.3503036 -0.019888856 0.097643524 0.11910593 -0.01388147 0.08355301 4.9615955 0.0036482215
0.08458424 -8.955818 -5.6858926 0.019455053 0.015859414 -3.1347134 0.021921795 -6.862919
-12.097943 -5.69964 -9.478274 1.7381345 -7.4116087 0.06292288 -7.8549504 -5.328421
0.07006713 -6.53454 0.036129527 2.7919128 -8.659029 0.15585648 -6.7704186 -9.136929
-13.477269 -0.017839525 -3.0993285 -6.231467 0.030447392 0.008036121 1.1359756 -3.8734386
0.20681074 -0.03546841 0.047282036 0.07450118 -9.537536 0.10855904 -2.2024498 -0.04168354
-5.2398434 -6.736372 0.07971871 6.5765667 -6.8070016 -0.040991247 -0.08293112 2.9870987
-9.749587 7.079626 0.07036856 -4.5779867 -0.037242472 -6.4558816 0.115564145 -9.229608
-4.773093 0.098267466 0.0635222 -0.10327657 0.03166825 -0.026593916 2.5125384 -0.0052317576
0.068673 -9.709527 -7.533786 0.0068058847 -0.13811141 -3.8653412 -0.002590924 -8.901535
-14.042127 -1.5409629 -5.93487 2.1676152 -9.347682 -0.025206923 -7.65472 -7.7074738
-0.0144135775 -6.894738 -0.10773459 2.1733737 -8.844544 -2.7489715 -3.5685818 -6.9546204
-12.193911 -0.08634783 1.4644773 -8.639449 0.08658724 -0.07533502 -4.5518227 -6.158294
-3.6947865 0.0026652366 0.06404288 -0.060436916 -10.147115 0.042140786 -3.073829 -0.104129635
0.68917745 -8.631261 0.10851529 2.690584 -7.760495 -0.039918147 0.089017816 4.2708125
-11.520372 5.8957024 0.059511606 -9.462871 0.060356233 -7.3175063 -0.08851676 -11.846213
-4.651968 -0.11766893 -0.03901892 -0.068262435 0.0052377135 0.07122993 5.065544 0.106303066
-0.040174637 -8.924154 -3.8468752 0.09865772 -0.00832171 -6.323313 0.10409038 -8.257073
-8.466916 -0.8404056 -8.2768345 2.0862167 -10.434379 -0.009874014 -5.8739734 -8.520991
0.066308655 -4.139259 0.09882165 2.4511702 -8.623508 -0.38825798 -8.081752 -7.9530554
-17.082739 -0.029125908 -2.869153 -3.98139 0.014253096 0.021097597 3.8384624 -5.293396
-7.3192477 0.07884902 -0.0654573 0.039122596 -15.504762 -0.022372747 -0.33348104 -0.105144456
-2.484798 -8.359603 0.029069351 5.4106307 -1.4612648 0.033919472 -0.0015211564 3.4132223
-10.547832 2.6530554 -0.06413467 -10.555285 0.07952197 -5.907109 0.037070904 -16.291195
-5.634174 0.09408248 0.0747003 0.06583367 0.085134014 -0.07075141 5.043778 0.11148366
0.09995967 -6.4711833 -6.4220943 0.078743935 0.010823851 -1.0321957 -0.059132576 -5.7385864
-10.393762 2.420502 -11.072163 0.41735268 -8.124686 -0.015623778 -4.731971 -5.5161877
-0.020560475 -10.143933 -0.08023423 3.0792189 -7.610693 3.0013883 -12.41124 -11.093383
-11.0920105 0.11090313 -4.959817 -12.7236595 -0.0055592777 0.06157826 -5.67664 -3.85839

net.4.bias f4 [4]
00000000: 2979 53bf 8cab e53e b051 583a e025 ca3f
-0.8260675 0.44857442 0.00082519185 1.5792809
