modelo_final_final.pth (torch, 44953 bytes, 6 tensors)

net.0.weight f4 [128, 14]
0	0xbd081903	-0.033226978
1	0xc11c095b	-9.752284
2	0xbf81f66c	-1.0153327
3	0xc144bbab	-12.295817
4	0x3d676a9f	0.056498166
5	0x3f1a09f7	0.60171455
6	0x3d70e1d6	0.058809124
7	0x3c709ddf	0.014686077
8	0x3e5f326c	0.21796578
9	0x3f170735	0.5899537
10	0x3f12e899	0.57386166
11	0xbedb0e09	-0.42784145
12	0xbec97b9f	-0.39352128
13	0xc09c07cd	-4.8759522
14	0xc11704ec	-9.438702
15	0x3fbbfcea	1.4686558
16	0xbe98ebe3	-0.29867467
17	0x3f98863f	1.1915969
18	0xbe0340b5	-0.12817653
19	0xbde4dde0	-0.11175132
20	0x3eca5941	0.3952122
21	0x3f25d5aa	0.6477915
22	0x3d8b8ba8	0.06813747
23	0x3ea4e02c	0.3220228
24	0x3fd64305	1.6739203
25	0x3f40884e	0.75207984
26	0xc104f56d	-8.309918
27	0xbec7e538	-0.39042068
28	0x3d67abe0	0.056560397
29	0x3e2d0b32	0.16898802
30	0xbda726aa	-0.081616715
31	0x3d2fc2d0	0.042910397
32	0xbdb60f6c	-0.0888966
33	0xbb64c000	-0.003490448
34	0xbdd00ae6	-0.10158329
35	0x3e0e854e	0.13918039
36	0xbd8f19c8	-0.06987339
37	0xbd4e62b4	-0.0503871
38	0x3d233268	0.039842993
39	0xbe54f7e8	-0.20797694
40	0x3daf2bbc	0.085532635
41	0x3baa0600	0.0051887035
42	0xc01ed4fc	-2.4817495
43	0xc04ac103	-3.1680305
44	0xc0ac15ef	-5.3776774
45	0xc10a4e4d	-8.644116
46	0xbf4dad63	-0.8034269
47	0xbf1de516	-0.6167768
48	0x3e0d6256	0.13807043
49	0x3e812e6c	0.2523073
50	0xbe431b05	-0.19053276
51	0xbdbe3ca5	-0.09288911
52	0xc06bc1d7	-3.683706
53	0xc087c025	-4.242205
54	0xbff2d355	-1.8970743
55	0x40215615	2.520879
56	0x3d697103	0.056992542
57	0x401fde1d	2.4979317
58	0xbfd62538	-1.6730108
59	0xbfb8e64e	-1.4445283
60	0x402bd763	2.6850212
61	0xbe403e10	-0.18773675
62	0x3d64089d	0.055672277
63	0x3e054faa	0.1301867
64	0x3e17939a	0.148024
65	0xbe135e42	-0.14391425
66	0x3f719229	0.9436365
67	0xbf16743c	-0.5877111
68	0x3f68103f	0.9064979
69	0xc0775b30	-3.8649406
70	0xc0485aac	-3.1305342
71	0x400a9759	2.1654875
72	0xbe1d3719	-0.1535305
73	0x4092b04a	4.5840197
74	0xbf25c667	-0.6475586
75	0x3fab324c	1.3374724
76	0xbd850e76	-0.06496899
77	0x3eac3e77	0.33641407
78	0x3f1005c0	0.56258774
79	0x3ede687a	0.43439084
80	0x3f3a542d	0.7278469
81	0xbf0e1688	-0.5550313
82	0xc089cbef	-4.306144
83	0x3feedca3	1.8661083
84	0xbf3a96e7	-0.7288651
85	0x3eaf1bc3	0.34200868
86	0xc033d691	-2.809971
87	0x3f84cc66	1.0374877
88	0x3e7dbb1a	0.24778405
89	0x3fedf4aa	1.859029
90	0x3ec176f4	0.37786067
91	0x3f70f7ea	0.94128287
92	0xbe6f38d5	-0.23361523
93	0xbec6c158	-0.38819385
94	0xbfa0092f	-1.2502803
95	0xbf77c0f9	-0.9677883
96	0x3ff92690	1.9464893
97	0x3ee0c188	0.43897653
98	0xc04aae26	-3.1668792
99	0x40208590	2.508152
100	0xbfb8d04b	-1.4438566
101	0x3f591225	0.8479331
102	0xbf06a36d	-0.5259312
103	0x3ed961d6	0.42457455
104	0xbd0a3102	-0.033738144
105	0x3f28d807	0.6595463
106	0x3f8e1052	1.109873
107	0x3f9d876a	1.230695
108	0xbe56d2b5	-0.20978816
109	0x3fa2d336	1.2720706
110	0xbe63bd1d	-0.2224011
111	0xbf806074	-1.0029435
112	0xbe1d3acc	-0.1535446
113	0xbc06a660	-0.008218378
114	0xbbf75f40	-0.0075491965
115	0xbe06c5e6	-0.1316143
116	0xbdb065ee	-0.086131915
117	0xbe8708a0	-0.26373768
118	0xbe4309a5	-0.19046648
119	0x3e74ae4a	0.23894611
120	0xbe88a492	-0.26688057
121	0xbe828e5b	-0.25499234
122	0x3dffa540	0.12482691
123	0x3d4e7610	0.050405562
124	0xbe6840f9	-0.22681035
125	0xbdb5e8c4	-0.08882287
126	0xc0c1047c	-6.0317974
127	0x3f7cb8c8	0.98719454
128	0xc13b04ad	-11.688642
129	0xbf29f619	-0.6639114
130	0xbf8ec935	-1.1155154
131	0xbff9d631	-1.9518491
132	0xbe5ef7ec	-0.21774262
133	0xc0272120	-2.6113968
134	0xbef52cfc	-0.47885883
135	0xbf592a0b	-0.8482978
136	0x3f80798a	1.0037091
137	0xbf0a1cc9	-0.5395017
138	0xbf869911	-1.0515462
139	0x40186590	2.381199
140	0xbfc5d15a	-1.5454514
141	0x4002d412	2.0441937
142	0xc0a53fa6	-5.1640196
143	0xc10b75a9	-8.716226
144	0xc05c8313	-3.4455001
145	0xbd0e5464	-0.03474845
146	0xc025853e	-2.5862575
147	0xc0121493	-2.2825058
148	0xbf886a92	-1.0657523
149	0xbf227765	-0.6346343
150	0x3fa1e78e	1.264879
151	0xbd17eac1	-0.037089113
152	0x3fc8fe1c	1.5702548
153	0x3fb00e50	1.3754368
154	0xbfc620ff	-1.547882
155	0x40281465	2.6262448
156	0x3fde0547	1.734536
157	0x40814501	4.0396733
158	0xbfcd14a7	-1.6021928
159	0x3ebd875f	0.37017342
160	0x3f0982a6	0.5371498
161	0x3f53df2f	0.82762426
162	0x3ee2200b	0.44165072
163	0x3e55954f	0.20857738
164	0x4029e01d	2.6543038
165	0x40070c1b	2.1101139
166	0xbfb67439	-1.4254218
167	0xc0110b96	-2.2663321
168	0xbfaf67f5	-1.37036
169	0x408765e9	4.23119
170	0xc0061e11	-2.095585
171	0xbfb3f4bd	-1.4059063
172	0x40224ccb	2.535937
173	0x3fb237eb	1.3923315
174	0xbcf6c773	-0.030124402
175	0xc0bcedfb	-5.9040504
176	0x3dbd2d90	0.09237206
177	0xbcb0b707	-0.02157165
178	0xbffb00fb	-1.9609674
179	0xbee958a4	-0.4557544
180	0xbf35dd6a	-0.71040976
181	0xc01dd805	-2.4663098
182	0x4055de8d	3.3417084
183	0xbff13218	-1.8843412
184	0x40324cb6	2.785932
185	0xc0accf58	-5.4003105
186	0xbe33c036	-0.17553791
187	0x3dc6e02d	0.09710727
188	0xbe27d101	-0.16388322
189	0x3ebe4d6a	0.37168437
190	0x3da31e7e	0.079648
191	0xbe8e4c77	-0.27792713
192	0xbfc4359f	-1.5328864
193	0xbf88ce71	-1.0688001
194	0x3eaf3446	0.3421957
195	0x3fa17673	1.2614273
196	0x40030acd	2.0475342
197	0xbebfba1f	-0.37446687
198	0xbf92443f	-1.1427077
199	0xbff795a8	-1.9342546
200	0xbfd952e5	-1.6978422
201	0x3f8889c5	1.0667044
202	0x3e410ea3	0.1885324
203	0x3fb95934	1.4480348
204	0xbe83cba1	-0.25741294
205	0xbf0df707	-0.5545506
206	0x3fc71e46	1.5556114
207	0x3f4ec4eb	0.8076922
208	0xbdc41f4b	-0.09576281
209	0xbffd03ab	-1.9766744
210	0x40f7ff4e	7.749915
211	0xbfe71918	-1.8054533
212	0x40e3cdd7	7.118877
213	0xbf9eb0fd	-1.2397763
214	0x3f85f1ed	1.0464455
215	0x3f4feca8	0.81220484
216	0xbd60aeff	-0.05485439
217	0xbe909513	-0.28238735
218	0x3e936e73	0.28795204
219	0x3efa4fd1	0.4888902
220	0x3e886881	0.2664223
221	0x3ffd8955	1.9807535
222	0x3de681e2	0.11255242
223	0xc067dfc6	-3.623033
224	0x3e27ece5	0.16398962
225	0x403cc250	2.94936
226	0xbf0f0ca2	-0.5587865
227	0xbf0968f0	-0.53675747
228	0x404acdbc	3.168807
229	0x3e1a82d2	0.15088966
230	0xc0fe5d6a	-7.948903
231	0xbe736eb8	-0.23772705
232	0x3e47e0fd	0.1951942
233	0x3e3a1783	0.18173032
234	0xc05bd9b8	-3.4351635
235	0xc069d8aa	-3.6538491
236	0x3f091c8e	0.53559196
237	0xc0655b23	-3.5836875
238	0xbf8139ff	-1.0095824
239	0x3fa5c329	1.2950183
240	0xbfd07048	-1.6284266
241	0xbff77295	-1.9331843
242	0x3e597f37	0.21239935
243	0x3dc93d70	0.098261714
244	0x3f6c252b	0.92244214
245	0x3fc695f2	1.551451
246	0x3ed2e6ab	0.4119161
247	0x3e8b57d3	0.27215442
248	0x3fb7ebb8	1.4368811
249	0xbfea9d8f	-1.8329333
250	0x40070027	2.1093843
251	0x3f91557d	1.1354214
252	0xbfb198fd	-1.3874813
253	0x400afb32	2.1715817
254	0xbf35caa7	-0.7101235
255	0xbf775868	-0.9661927

net.0.bias f4 [128]
0	0x3ebaf8df	0.36518
1	0xbfa1cda2	-1.2640879
2	0xbe54ec16	-0.20793185
3	0xbe2a3fe2	-0.16625932
4	0x3e64967b	0.22323029
5	0x3e4d8c41	0.20073034
6	0x3edb5248	0.42836213
7	0x3e7cc3e2	0.24684098
8	0x3da955ec	0.082683414
9	0xbf471706	-0.77769506
10	0xbbc9ec14	-0.006162176
11	0x3e5d9376	0.21638283
12	0x3eb664a6	0.35623664
13	0x3ff1827c	1.8867946
14	0xbf84fedb	-1.0390276
15	0xc0048d62	-2.0711293
16	0x3f853075	1.0405413
17	0x3f9831d9	1.1890212
18	0x3d8e0e38	0.06936306
19	0x3f14ed16	0.58174264
20	0xbe9d62d1	-0.30739453
21	0xbf29c49e	-0.6631564
22	0x3c985b5a	0.018598247
23	0x3e2a0e46	0.16607007
24	0xbc1e9100	-0.009678125
25	0x3e5685f8	0.20949543
26	0xbe1dc7c3	-0.15408234
27	0x40137f8a	2.3046594
28	0x3f9af70b	1.2106642
29	0x3f26a231	0.65091234
30	0x3fd52319	1.6651336
31	0x3f4f8a2a	0.81070197
32	0x3fc40a81	1.5315706
33	0x3fe6c5d4	1.8029122
34	0x4006ce71	2.1063502
35	0xbf2cac5b	-0.67450494
36	0x403d6df1	2.9598353
37	0x3fef3ff2	1.869139
38	0x40088ffd	2.1337883
39	0x3f62421d	0.8838213
40	0x3f762a5e	0.961584
41	0xbbe12d80	-0.006871879
42	0xbd8ecf22	-0.06973101
43	0xbea2fe4a	-0.31834632
44	0x3faecc90	1.3656178
45	0xbe267674	-0.16256124
46	0x3eb58aad	0.35457364
47	0x3fa7f162	1.3120539
48	0xbf0dbb4e	-0.5536393
49	0x3e61b5a5	0.22041948
50	0xbe7ce06f	-0.2469499
51	0x3da2a9b5	0.07942525
52	0x3c4e8660	0.01260528
53	0x3c11f6c6	0.008908933
54	0x3d82b9c7	0.063830905
55	0xbe1de97a	-0.15421095
56	0x3f22fe46	0.6366924
57	0xbfa71f1c	-1.3056369
58	0x3f0de80a	0.5543219
59	0xbfa0967f	-1.2545928
60	0x3edf3865	0.43597713
61	0xbfbf89e8	-1.4963961
62	0xbe34511e	-0.17609069
63	0xbe311945	-0.17294796
64	0x3d63351b	0.055470567
65	0x3f84eac3	1.0384144
66	0x3f030287	0.5117573
67	0x3fb1c6e8	1.3888826
68	0xbe3ccc10	-0.18437219
69	0x3fdf4a19	1.7444488
70	0xbf2b062f	-0.6680631
71	0x3fb74629	1.4318286
72	0xbe1b6e02	-0.15178683
73	0x3e12bbff	0.14329527
74	0xbe335111	-0.17511393
75	0x3f4e88b7	0.8067736
76	0x3dd94500	0.10608864
77	0xbf68381f	-0.90710634
78	0x3f5ca543	0.8618967
79	0x3e5b7896	0.21432719
80	0xbf54432b	-0.8291499
81	0xbe12bf0f	-0.14330696
82	0x3fdd7a2c	1.7302909
83	0xbf644498	-0.89167166
84	0x3e3fcf67	0.18731461
85	0xbfcb2f5c	-1.5873828
86	0xbf07de0f	-0.5307321
87	0x3fb1e2c7	1.3897332
88	0xbd9a9a56	-0.075489685
89	0x3f71adf5	0.9440606
90	0x3f150cc9	0.58222634
91	0x3ff81afe	1.9383237
92	0x3f9df1ee	1.2339456
93	0x3fc23180	1.5171356
94	0x3e665470	0.22493148
95	0x3ce73950	0.02822557
96	0x3e012e0a	0.12615219
97	0x3fa05355	1.2525431
98	0x3f1b3d46	0.6064037
99	0x3f99c3e0	1.2012901
100	0xbf0f881f	-0.5606708
101	0xbd4d5261	-0.05012739
102	0x3feba583	1.8409885
103	0xbe101988	-0.1407224
104	0x3d979232	0.074009314
105	0x3f01501e	0.50512874
106	0xbd94f770	-0.072737575
107	0x3e3900b7	0.18066679
108	0x3d7a911f	0.061173555
109	0x3f50dfe8	0.81591654
110	0x3f7338ed	0.95008737
111	0x3fbb41c0	1.462944
112	0x3dbb47ff	0.091445915
113	0x3dfe7570	0.12424743
114	0xc01d9519	-2.4622252
115	0xbeb7460d	-0.35795632
116	0x3da3af6e	0.07992445
117	0x3fd710f0	1.6802044
118	0xbf74dbe2	-0.95648015
119	0xbe6cbf65	-0.23119886
120	0x400a3d1c	2.1599798
121	0x3e9721b3	0.29517898
122	0xbf87a8fd	-1.0598446
123	0xbf53c2a6	-0.82718885
124	0x3ff2a7da	1.8957474
125	0x3f298ab5	0.66227275
126	0xbe4298d5	-0.19003613
127	0x3f2dd648	0.6790509

net.2.weight f4 [64, 128]
0	0x3d4c5a99	0.04989109
1	0x3d5bf9f2	0.053705163
2	0xbb70ec20	-0.0036761835
3	0x3d2404ec	0.040043756
4	0xbd8a4757	-0.06751888
5	0xbd423c0c	-0.047420546
6	0x3d4a7cce	0.04943543
7	0x3d9cc411	0.07654584
8	0xbbb59740	-0.005541712
9	0x3cc26ba2	0.023732964
10	0xbdb1a4ea	-0.08674033
11	0xbdb91a5b	-0.0903823
12	0x3d577a13	0.052606653
13	0xbd33c01c	-0.04388438
14	0x3d242652	0.040075608
15	0xbdae1035	-0.08499185
16	0x3d1991a2	0.037492402
17	0xbdbea262	-0.09308316
18	0x3b8e39ca	0.004340385
19	0x3d8dbe3d	0.06921051
20	0x3d091f6e	0.03347724
21	0x3ce56895	0.02800397
22	0x3c520e28	0.012820758
23	0xbd2faed4	-0.04289134
24	0x3d939949	0.07206971
25	0xbd302fdf	-0.043014403
26	0x3d874001	0.06604005
27	0x3d384f62	0.04499758
28	0xbdb50a02	-0.088397995
29	0xbc9af2b5	-0.01891456
30	0xbd8784fb	-0.06617161
31	0xbd7097c6	-0.058738492
32	0xbd737f0a	-0.059447326
33	0x3d97526b	0.07388767
34	0x3da7fb75	0.082022585
35	0x3b5797c0	0.0032896847
36	0x3d425506	0.047444366
37	0x3d91f872	0.07127465
38	0xbcb757a5	-0.02238066
39	0xbd71df97	-0.059051123
40	0x3c72e1f4	0.014824379
41	0x3d850d9b	0.06496736
42	0x3d1491ae	0.036271743
43	0x3d8afe87	0.067868285
44	0x3d1d855b	0.038457256
45	0x3d16363a	0.03667281
46	0xbd63a3af	-0.055576023
47	0xbc02350b	-0.007947217
48	0xbd7965ee	-0.060888223
49	0xbca98f55	-0.020698229
50	0x3d0e7a4a	0.034784593
51	0x3cd01b10	0.02540353
52	0xbd46064f	-0.04834586
53	0xbd4a21c1	-0.049348596
54	0x3d91b1b1	0.0711397
55	0xbb105880	-0.0022025406
56	0xbd10fe74	-0.035398915
57	0xbd36c6be	-0.04462313
58	0x3c2380b5	0.009979417
59	0x3d1b2441	0.03787637
60	0xbdc4c465	-0.09607772
61	0xbd160c60	-0.036632895
62	0x3cc40278	0.023926958
63	0x3d8ada07	0.06779867
64	0x3c586678	0.013208024
65	0x3b212537	0.0024588832
66	0xbdb90e9f	-0.09035992
67	0x3d8292d1	0.06375659
68	0x3db3c1c7	0.087771945
69	0xbcd3d9e0	-0.025860727
70	0xbc03bd3a	-0.008040721
71	0xbd39fc6c	-0.045406744
72	0xbd901829	-0.07035858
73	0xbc6ca670	-0.014443979
74	0x3d625614	0.05525787
75	0xbc63c983	-0.013903025
76	0x3d66ef2a	0.05638043
77	0x3d1846c6	0.03717687
78	0x3c966456	0.01835839
79	0xbd25a7d5	-0.04044326
80	0x3dab4f95	0.083647884
81	0xbcabde8c	-0.020980142
82	0xbd92409b	-0.07141229
83	0x3b4883bd	0.00305961
84	0x3d95a97a	0.07307716
85	0xbda97f1e	-0.08276199
86	0xbd4c66b2	-0.049902625
87	0xbdc29f9e	-0.09503101
88	0x3da21843	0.07914784
89	0x3b8afbb0	0.0042414293
90	0xbd122507	-0.035679843
91	0xbdca3d50	-0.09874976
92	0x3da8af73	0.08236589
93	0xbccbd3d0	-0.024881274
94	0xbd3076ee	-0.04308217
95	0x3db2af43	0.08724835
96	0xbd90e8f1	-0.0707568
97	0xbd4579c5	-0.04821183
98	0x3cd8b93f	0.02645552
99	0x3d264b01	0.040598873
100	0xbcb991d2	-0.02265254
101	0x3d29809e	0.041382425
102	0xbcbc36bc	-0.022975318
103	0x3d610242	0.054933794
104	0xbcf4e773	-0.02989552
105	0xbc8f6e97	-0.017508788
106	0xb95a0800	-0.0002079308
107	0x3d3684d6	0.044560276
108	0xbd8a3cbd	-0.06749866
109	0x3d240d0d	0.04005151
110	0xbdc5315f	-0.096285574
111	0x3c8875e5	0.016657779
112	0x3c9cd154	0.019142784
113	0x3d5f928e	0.054583125
114	0x3c6c2135	0.014412214
115	0x3cfa6f1f	0.030570565
116	0xbcf38016	-0.029724162
117	0xbd9be533	-0.07612076
118	0x3c96ed92	0.01842383
119	0x3d697b9e	0.057002656
120	0xbdac6606	-0.08417897
121	0x3cea32c5	0.028588662
122	0x3c48a9a8	0.01224748
123	0xbd7399a0	-0.05947268
124	0xbd7c6f10	-0.061629355
125	0x3d60c0ae	0.054871254
126	0xbd90432c	-0.07044062
127	0xbd908060	-0.070557356
128	0x398b32dc	0.0002655004
129	0xbd8d2c41	-0.068932064
130	0xbcd7761c	-0.026301436
131	0xbd8ae850	-0.06782591
132	0x3d908d16	0.0705816
133	0xbd0b60d5	-0.034027893
134	0xbcd92182	-0.026505236
135	0xbd9780dd	-0.073976256
136	0x3d0cfc72	0.034420438
137	0xbd05c5a7	-0.0326592
138	0xbda9865e	-0.08277582
139	0x3c51f181	0.012813927
140	0x3b533520	0.003222771
141	0x3d64ac7e	0.055828564
142	0xbd538cb0	-0.051647842
143	0xbcff9951	-0.031201037
144	0x3d56a1ad	0.05240028
145	0x3c96aa57	0.018391771
146	0xb9a901ce	-0.00032235536
147	0xbc87d8ee	-0.016582932
148	0xbdc5c4dc	-0.096566886
149	0xbdb2aa65	-0.087239064
150	0x3d927b85	0.07152466
151	0x3d57440a	0.05255512
152	0xbd94302f	-0.07235753
153	0x3ca036a7	0.01955731
154	0x3c054268	0.008133508
155	0x3d1ed8be	0.03878092
156	0x3d807805	0.06272892
157	0xbd98f1a7	-0.074679665
158	0xbc9ccbf2	-0.019140217
159	0xbd7ce41f	-0.06174099
160	0x3da35ec3	0.07977059
161	0xbc82fe08	-0.015990272
162	0x3d0cec88	0.03440526
163	0x3be8cad0	0.0071042553
164	0xbc246713	-0.01003434
165	0xbc74d68f	-0.014943733
166	0x3d50ef6a	0.051009573
167	0xbd8b63ac	-0.0680612
168	0xbd81bf7e	-0.06335352
169	0xbcc37f30	-0.023864359
170	0xbd9e28f8	-0.07722658
171	0xbd7058d0	-0.05867845
172	0x3ccddb47	0.025128974
173	0x3cfe2538	0.031023607
174	0xbda7f824	-0.08201626
175	0x3cb083fe	0.021547314
176	0xbd539859	-0.051658962
177	0xbceb9faa	-0.028762657
178	0xbd848c6c	-0.06472096
179	0xbdb36ca4	-0.08760956
180	0x3d8d91a3	0.069125436
181	0xbc8d8fa8	-0.017280415
182	0xbd67fe52	-0.056639023
183	0xbd670250	-0.05639869
184	0xbc193190	-0.0093501955
185	0x3cf448a6	0.029819798
186	0x3d322cf2	0.043499894
187	0xbb893e38	-0.0041883253
188	0x3d95dd01	0.07317544
189	0xbd970504	-0.073740035
190	0x3d975aeb	0.07390388
191	0x3b7fb380	0.0039016902
192	0x3d55d742	0.05220724
193	0x3d2cbddd	0.042173255
194	0xbd7d3ac9	-0.06182364
195	0xbd98b2bc	-0.07455966
196	0xbdaa7029	-0.08322174
197	0xbc0c3dc3	-0.008559647
198	0x3ca06cd1	0.019583138
199	0xbcc042a2	-0.023469273
200	0xbd4e944d	-0.0504344
201	0xbcbff88c	-0.023433946
202	0x3d357504	0.044301048
203	0xbce4a443	-0.027910357
204	0xbc08fe08	-0.008361347
205	0xbd862556	-0.0655009
206	0x3d4dcff6	0.050247155
207	0x3d5be0ee	0.053681307
208	0xbd622516	-0.05521115
209	0xbb8dad40	-0.0043236315
210	0x3d860c6f	0.0654534
211	0xbd2a1289	-0.041521583
212	0x3d7f0cce	0.06226807
213	0xbde72c10	-0.11287701
214	0x3d66903a	0.05628989
215	0xbc8bca14	-0.017064132
216	0x3d8085e9	0.06275541
217	0xbc2aa313	-0.0104148565
218	0x3cd4b6f4	0.025966145
219	0xbdb1e6a6	-0.08686571
220	0x3d16f33d	0.036853064
221	0xbc6377b0	-0.013883516
222	0x3c126598	0.008935355
223	0x3d8c356f	0.06846129
224	0xbd74a16e	-0.059724264
225	0x3ce0958c	0.02741506
226	0x3c803677	0.01565097
227	0xbbe94f0e	-0.0071200198
228	0xbd6f0e47	-0.058363225
229	0xba8e5e80	-0.0010861903
230	0xbd5cb150	-0.053880036
231	0xbca57e78	-0.020201907
232	0xbc824295	-0.01590089
233	0xbddb8d5e	-0.10720323
234	0xbc530860	-0.012880415
235	0xbda938fe	-0.082628235
236	0x3d9ebbc7	0.077506594
237	0xbdd79811	-0.10527051
238	0x3d605281	0.05476618
239	0xbcda5dfd	-0.026656145
240	0xbcf9af40	-0.030479074
241	0x3da9dfbd	0.08294628
242	0xbcaa6f87	-0.020805134
243	0xbc30e7a3	-0.010797414
244	0xbd41824c	-0.0472434
245	0xbde2d4d2	-0.110757485
246	0x3cbf1f13	0.023330247
247	0x3cd6e750	0.026233345
248	0xbd8db473	-0.069191836
249	0xbd23c298	-0.0399805
250	0xbcf316ca	-0.029673953
251	0x3d0458da	0.032311298
252	0xbd40638a	-0.046969928
253	0xbd98e596	-0.07465665
254	0xbdc85c55	-0.09783236
255	0x3c8d36fb	0.01723813

net.2.bias f4 [64]
0	0xbda66e1d	-0.08126471
1	0x3d091738	0.03346941
2	0x3e03e0b3	0.12878685
3	0x3eaa70d6	0.33289212
4	0xb9642726	-0.00021758358
5	0x3d60634b	0.054782193
6	0xbba70840	-0.005097419
7	0x3e8bd141	0.27308086
8	0x3bfcb5eb	0.007712116
9	0x4004b4da	2.0735383
10	0x3e70f09c	0.23529285
11	0xbef0fe06	-0.47068805
12	0x3cf91ca4	0.030409165
13	0x3e78d109	0.2429849
14	0x3f05081e	0.5196551
15	0xbeb57eee	-0.35448402
16	0x3cefebea	0.029287297
17	0x3cca1324	0.02466733
18	0x3d6fd950	0.058556855
19	0x3d2629f9	0.040567372
20	0x3f00ebc4	0.5035975
21	0xbe2d2409	-0.16908278
22	0xbb747c7b	-0.0037305641
23	0x3ca68c65	0.020330617
24	0x3cff155e	0.031138118
25	0x3cbac9e0	0.02280134
26	0x3f070692	0.527444
27	0xbca7e130	-0.02049312
28	0xbb69218a	-0.003557297
29	0xbd185230	-0.037187755
30	0x3fbbb709	1.4665233
31	0x3b919828	0.0044431873
32	0xbd508b04	-0.050913826
33	0xbf95f95b	-1.1716722
34	0x3d00e9ed	0.03147309
35	0x3d2a017d	0.041505326
36	0x3c6d9686	0.01450122
37	0xbf0680ec	-0.5254047
38	0x3e71a64b	0.23598592
39	0x3e884baa	0.26620227
40	0x3edb93be	0.42886156
41	0xbdac010f	-0.083986394
42	0xbd19b558	-0.03752646
43	0x3f0f757b	0.56038636
44	0xbc0fb090	-0.008770123
45	0xbdd8d485	-0.1058741
46	0x3ee103ed	0.43948308
47	0xbd6b9a7a	-0.057520367
48	0xbcef4492	-0.029207502
49	0x3f44996c	0.76796603
50	0xbea7f006	-0.3280031
51	0xbc7d0f8a	-0.015445599
52	0x3e1a891c	0.15091366
53	0x3d3a26de	0.045447223
54	0x3ec7cc59	0.39023092
55	0x3f03cce0	0.5148449
56	0x3ce2b1a1	0.02767259
57	0x3cb9ed84	0.022696264
58	0x3d0a3133	0.033738326
59	0x3c3b6224	0.011436973
60	0xbda8db87	-0.082449965
61	0x3cf822df	0.030290065
62	0x3c9669df	0.01836103
63	0x3feb0ecf	1.8363894

net.4.weight f4 [4, 64]
0	0xbdccc2aa	-0.09998067
1	0xbbb867b5	-0.005627597
2	0xbfdc2553	-1.719889
3	0xc0a8f3f1	-5.279778
4	0x3d69e2f9	0.057101224
5	0x3d032794	0.032020167
6	0xbdb00492	-0.08594622
7	0xc0db17d5	-6.846659
8	0xbd3377bb	-0.043815356
9	0xc0811399	-4.0336423
10	0x40b109bf	5.5324397
11	0x4092be6e	4.585746
12	0x3c95b205	0.018273363
13	0xc097c67b	-4.7429786
14	0xc18b828d	-17.438745
15	0x4188c0c4	17.094124
16	0x3cbae233	0.022812938
17	0xbd45e0b0	-0.04830998
18	0x3d267220	0.04063618
19	0xbf55b465	-0.83478385
20	0xc14f3086	-12.949347
21	0xc0bc5eae	-5.8865576
22	0x3c94e566	0.018175792
23	0x3cbbeb7d	0.022939438
24	0x3ca12468	0.01967068
25	0x3d2f34fa	0.04277513
26	0xc1403cb8	-12.014824
27	0xbdff9bc7	-0.12480884
28	0xbdb8c185	-0.09021286
29	0x3d074156	0.033021294
30	0x411f5d2d	9.960248
31	0xbd84b49f	-0.06479763
32	0x3ccc3600	0.024928093
33	0x41038600	8.220215
34	0x3de1da3e	0.110279545
35	0xc1b69034	-22.820412
36	0xbc1053d8	-0.008809052
37	0xc0ec4a86	-7.384097
38	0xc0afa3a2	-5.4887247
39	0x40cc01af	6.3752055
40	0xc12e7f44	-10.906071
41	0x3dc2ff19	0.09521312
42	0xbd6500c5	-0.055908937
43	0x41129a40	9.162659
44	0xbd5ae600	-0.053442
45	0x3cc65e4e	0.02421489
46	0xc158948e	-13.536268
47	0x3c786900	0.015161753
48	0xbbd960c8	-0.0066338517
49	0xbf8c8c84	-1.0980382
50	0xc0de5161	-6.947434
51	0x3d9feb6f	0.07808577
52	0xc15649d4	-13.393024
53	0xc0cdfddd	-6.437239
54	0x40c7307a	6.2246675
55	0xc11eb909	-9.920175
56	0x3c83ec2d	0.016103828
57	0x3d7ec8cf	0.062203225
58	0x3d4a1d39	0.049344275
59	0x40f3494a	7.6026964
60	0x3b353b2e	0.0027653682
61	0xc0b4a59c	-5.645216
62	0xc0b9c107	-5.804813
63	0x41245ff6	10.273428
64	0xbc791915	-0.015203734
65	0xbdb352ae	-0.08756004
66	0xc0f5d2ef	-7.6819987
67	0xc08f0adf	-4.470077
68	0xbd990208	-0.074710906
69	0x3c093dc8	0.008376546
70	0x3c7eb62c	0.015546363
71	0xc102768b	-8.153941
72	0x3df1919e	0.117953524
73	0xc01c2c05	-2.4401867
74	0x40ac8108	5.390751
75	0x408e4638	4.4460716
76	0xbc802728	-0.015643671
77	0xc0d7c0b1	-6.742272
78	0xc14d2759	-12.822106
79	0x417c3bf1	15.764634
80	0x3d7347f5	0.059394795
81	0x3d80197e	0.06254862
82	0x3d82e67e	0.06391619
83	0xc0c93427	-6.2876163
84	0xc135f408	-11.372078
85	0x3f5cc2b4	0.86234593
86	0xbc6444e7	-0.013932443
87	0x3dab9ddf	0.08379721
88	0xbdaca974	-0.08430758
89	0x3c987438	0.018610105
90	0xc15d92cb	-13.848338
91	0x3d7de9e8	0.06199065
92	0xbc93e160	-0.018051803
93	0x3deede1b	0.11663457
94	0x40edab5d	7.4271684
95	0x3d97a8c4	0.07405236
96	0xbd42eb12	-0.04758746
97	0x4101c3b9	8.110284
98	0x3dc82b6c	0.09773907
99	0xc1baaf8c	-23.335716
100	0x3d8dbb6c	0.069205135
101	0xc0ccfc8e	-6.4058294
102	0xc0a6b432	-5.2094965
103	0x40ce5bcb	6.448705
104	0xc0ebb574	-7.3659
105	0x3d40df0d	0.047087718
106	0xbc842322	-0.016130034
107	0x411b244b	9.696361
108	0xbc2b3d10	-0.01045157
109	0x3d07f5db	0.03319345
110	0xc1517b0c	-13.092541
111	0x3cee3a48	0.029080525
112	0xbdc97804	-0.09837344
113	0xc0687d22	-3.6326375
114	0xc1017381	-8.090699
115	0x3ddce822	0.10786463
116	0xc1882c0d	-17.02151
117	0xc0d3cfeb	-6.6191306
118	0x40be0d4a	5.939122
119	0xc15e9b5d	-13.9129305
120	0x3c3ec9bb	0.011644776
121	0x3c0b04a2	0.008484991
122	0x3e01b1b4	0.12665445
123	0x41001f7f	8.007689
124	0x3db1d6c0	0.086835384
125	0xc09c4df2	-4.884515
126	0xc0fcb2f6	-7.896846
127	0x41340cf6	11.253164
128	0xbbe38060	-0.0069427937
129	0x3dd4a1ef	0.10382449
130	0xc0f99230	-7.799095
131	0xc0e46f94	-7.1386204
132	0x3ce99942	0.028515462
133	0x3d06f7e8	0.032951266
134	0x3de0b35c	0.1097171
135	0xc0f730cf	-7.724708
136	0x3d528eb8	0.05140564
137	0xc039c0ce	-2.9023929
138	0x40a942d6	5.2894087
139	0x4088d5e9	4.276112
140	0x3c33ab05	0.010966067
141	0xc10b6722	-8.712679
142	0xc184a588	-16.580826
143	0x418ac9bd	17.348505
144	0x3ce2b91b	0.027676156
145	0xb9d3f200	-0.0004042536
146	0xbd026e2c	-0.03184335
147	0xc062d8be	-3.544479
148	0xc147eba9	-12.495034
149	0xc08b828c	-4.359686
150	0xbc38ea39	-0.011286312
151	0x3de48a6a	0.11159213
152	0x3dbabfbe	0.09118603
153	0x3c5cc49a	0.013474608
154	0xc164a6cb	-14.290721
155	0x3c7384a0	0.014863163
156	0xbc954560	-0.018221557
157	0x3d0dcd86	0.03461983
158	0x4125ea6a	10.36973
159	0x3d9c88a6	0.07643251
160	0x3daaf95e	0.08348344
161	0x40f65cac	7.6988125
162	0x3cf41285	0.029793987
163	0xc1b9ca77	-23.22386
164	0x3d38849f	0.045048352
165	0xc0cd30ba	-6.412198
166	0xc0a4ec42	-5.15384
167	0x40cebb7c	6.4603863
168	0xc10ee2c9	-8.930367
169	0xbca35feb	-0.019943198
170	0x3dcb685e	0.09932016
171	0x41163528	9.387978
172	0x3b7c2980	0.0038476884
173	0xbd80f063	-0.0629585
174	0xc14ec7e9	-12.923806
175	0xbd92cb78	-0.07167715
176	0xbde319e6	-0.11088924
177	0xc0309e20	-2.7596512
178	0xc1005763	-8.021335
179	0x3ddd0f77	0.10793965
180	0xc192d3a7	-18.353346
181	0xc0a4cb3a	-5.149808
182	0x40c065a3	6.012407
183	0xc12026f1	-10.009507
184	0xbdb4991a	-0.08818264
185	0xbc9299fa	-0.017895687
186	0xbdef8c1a	-0.11696644
187	0x40fd989d	7.9248796
188	0xbdf83166	-0.12118797
189	0xc0a233b2	-5.0688105
190	0xc0c39e01	-6.1130376
191	0x412f836a	10.9695835
192	0xbd41dfa4	-0.04733242
193	0x3d923fcb	0.07141074
194	0xc00c817c	-2.195403
195	0xc116d6ca	-9.427439
196	0x3dc0dd61	0.09417225
197	0xbca5cd3b	-0.020239463
198	0x3d803e8b	0.06261929
199	0xc065c461	-3.590111
200	0xbd4c3ef3	-0.04986472
201	0xc0917e1b	-4.5466437
202	0x40b45e7c	5.6365337
203	0x409c6741	4.887604
204	0x3dc6bc10	0.09703839
205	0xc13d5512	-11.833269
206	0xc1886251	-17.048006
207	0x4180c414	16.095741
208	0x3d85b7c3	0.065291904
209	0xbdf80afa	-0.121114686
210	0x3c7540eb	0.014969091
211	0xc0219226	-2.5245452
212	0xc1449603	-12.286624
213	0xc0862ff4	-4.1933537
214	0x3b432025	0.0029773798
215	0xbd62ae9e	-0.05534231
216	0xbd04d7f8	-0.032432526
217	0xbe13bb0d	-0.14426823
218	0xc127c05b	-10.484462
219	0x3dc2a976	0.09504978
220	0xbc1d583b	-0.009603555
221	0x3d9f3973	0.077746294
222	0x40e3a827	7.1142764
223	0xbdcb4318	-0.099249065
224	0x3df1c26a	0.1180466
225	0x41091f48	8.570137
226	0xbdd17298	-0.10226935
227	0xc1add9c6	-21.731335
228	0x3dc07c07	0.09398656
229	0xc106c185	-8.422246
230	0xc1089608	-8.536629
231	0x40baf541	5.842438
232	0xc11c0add	-9.752652
233	0x3c9425a5	0.018084357
234	0x3dec88cd	0.1154953
235	0x41164591	9.391984
236	0xbdfe21d2	-0.124087945
237	0xbbdde70b	-0.0067719272
238	0xc136518a	-11.394907
239	0xbcc8fd68	-0.024534896
240	0xbd9edfa8	-0.07757503
241	0xbea4d99d	-0.32197276
242	0xc0efa0e1	-7.4883885
243	0x3d77dd7b	0.060513955
244	0xc17afe61	-15.687104
245	0xc0a13878	-5.038143
246	0x40b73fdc	5.7265453
247	0xc11b0ecd	-9.691113
248	0xbc1231ba	-0.008922989
249	0x3d5da774	0.054114774
250	0xbd63be6f	-0.055601534
251	0x4105dc3c	8.366268
252	0xbd9c2a18	-0.07625216
253	0xc09cc765	-4.89934
254	0xc0d126f8	-6.536007
255	0x412bfee6	10.749731

net.4.bias f4 [4]
0	0x402587ab	2.5864055
1	0xbfb0e65d	-1.3820301
2	0x3f7e8839	0.9942661
3	0xc0c14a73	-6.040338
