modelo_temp_finetune.pth (torch, 44977 bytes, 6 tensors)

net.0.weight f4 [128, 14]
00000000: f613 81bf ee7e 2ac1 1425 8dbf 434e 32c1
00000010: 63bc 18bf 337b 9bbe ca1f 59bf b10b 48bd
00000020: 4042 b03c 467c c93e 4c6e 11bf bcf6 c4bf
00000030: 2183 8e3d cb46 d1c0 317a d9c0 bd48 123f
00000040: 7fa1 8e3d 433d df3e ce97 11bc 4242 d8be
00000050: fdc3 4b3f 8206 843f 96c4 b1bd 1117 2b3e
00000060: 8b2c 463f 1fed 973c 2b39 0bc1 127e 0d3f
00000070: e0ab 673d 320b 2d3e aa26 a7bd d0c2 2f3d
00000080: 6c0f b6bd 00c0 64bb e60a d0bd 4e85 0e3e
00000090: c819 8fbd b462 4ebd 6832 233d e8f7 54be
000000a0: bc2b af3d 0006 aa3b aa55 1ac0 4a31 5ac0
000000b0: 4f29 acc0 d853 0bc1 50eb 7ebf 16e5 1dbf
000000c0: 4406 c9bb dc75 6f3e 0abc bbbe 91bd 89be
000000d0: fe31 7bc0 5a78 8fc0 9ad3 e9bf ca0f 1640
000000e0: 3705 40bf e729 ae3f 9c7a 01bf aaf0 13bf
000000f0: 8454 4840 827c f4bd c0eb 2a3e e6ac bf3e
00000100: 1ac3 173d 687f 82be 7607 2a3e 6964 4dbf
00000110: 590e 143f bf52 95c0 dcb9 0ec0 d436 0c40
00000120: d326 af3e 0421 ac40 a417 febe 2de7 c43f
00000130: 076d 9abe bc11 8fbe 265d 423f ca8b 213f
00000140: 9e99 a33f 7137 d6be 834a 76c0 0546 d83f
00000150: 69d3 6cbf a9cf cf3f f2b7 7cc0 3de5 7a3f
00000160: 9596 413e 5791 c23f 430a afbd 601e b33f
00000170: 968c 1dbe 82eb 9dbe 5e0c 96bf df6d 8fbd
00000180: e8ac cb3f 936c c33f 68c4 39c0 fa32 d73f
00000190: 382a 9ebf 9d95 4f3f b522 71bf f64d 403f
000001a0: 7987 f9be 0a51 3b3f e9f6 a53f 016e b53f
000001b0: 9795 09bf e98c 1f3f 4f6e 02bf eb60 9bbf
000001c0: cc3a 1dbe 60a6 06bc 405f f7bb e6c5 06be
000001d0: ee65 b0bd a008 87be a509 43be 4aae 743e
000001e0: 92a4 88be 5b8e 82be 40a5 ff3d 1076 4e3d
000001f0: f940 68be c4e8 b5bd 7c04 c1c0 c8b8 7c3f
00000200: ad04 3bc1 19f6 29bf 35c9 8ebf 31d6 f9bf
00000210: ecf7 5ebe 2021 27c0 fc2c f5be 0b2a 59bf
00000220: 8a79 803f c91c 0abf 1199 86bf 9065 1840
00000230: 5ad1 c5bf 12d4 0240 a63f a5c0 a975 0bc1
00000240: 1383 5cc0 6454 0ebd 3e85 25c0 9314 12c0
00000250: 926a 88bf 6577 22bf 8ee7 a13f c1ea 17bd
00000260: 1cfe c83f 500e b03f d3f0 f7bf 0091 1540
00000270: f466 d43f 6cd3 9740 54af c4bf 9f69 0c3f
00000280: 58d1 a33e e94b 663f 8561 1c3f 1b70 c13e
00000290: 8ab8 0e40 f56d 0840 be7a 43bf 346e 17c0
000002a0: ec82 15c0 5b20 b740 8901 c4bf 91a2 26c0
000002b0: d73b 1540 84bd c93e 2bcf 56bf fbed bcc0
000002c0: f465 cabd 5de1 59be d179 f2bf fdfc a2be
000002d0: 1ca0 4fbe 534b c8bf d15c 6c40 2462 00c0
000002e0: 074b 2140 848b 94c0 e201 2bbf 2a08 153f
000002f0: 91ec 123e 8bf7 93be 5014 5e3e f614 10be
00000300: 53da aabf 42ba 70bf d029 0bbe 8fbc b23f
00000310: c002 0b40 3182 bfbd d571 23c0 02df 90be
00000320: 6de5 0dc0 838c 4f3f 45f4 363f 1f87 ba3f
00000330: 82ff d0be 4690 34bf 881c c33f 98d1 6f3f
00000340: f091 90bd 414d 09c0 561c fc40 4814 a7bf
00000350: e183 e140 15c3 d3be 9924 593f 2f6a be3f
00000360: 0b21 a33e f15a 0bbf 7a93 a03e 4cba 033f
00000370: eb16 263f 38a9 cf3f 7fb7 073e 3036 62c0
00000380: a019 8c3e bafd 5a40 ea17 4dbf 7325 ce3e
00000390: aa71 0440 9d44 f63e 7c3d edc0 b162 3ebf
000003a0: e00b 6d3e 1243 5f3e 775a 38c0 ef2b 5cc0
000003b0: 67ee 3f3e 3cf2 88c0 f7b8 dcbf beaa bf3f
000003c0: b2c4 7abf 1cf2 50c0 4ada 973f 06d9 73bf
000003d0: 87f3 373f bba7 d63f 142b a13e 9439 333e
000003e0: 34e7 083f 7dac 0cc0 cf41 bf3f 2b4f c63f
000003f0: 1586 c0bf 60c7 9d3f 0fc3 3fbf 9c89 d1bf
-1.0084217 -10.655989 -1.102694 -11.144107 -0.59662455 -0.3036743 -0.8481413 -0.048839275
0.021515965 0.39352626 -0.56808925 -1.5387797 0.069586046 -6.5398917 -6.796166 0.5714224
0.06964397 0.43601426 -0.008886291 -0.4223805 0.7959593 1.0314486 -0.08680074 0.16708018
0.7741172 0.018545685 -8.701457 0.55270493 0.056560397 0.16898802 -0.081616715 0.042910397
-0.0888966 -0.003490448 -0.10158329 0.13918039 -0.06987339 -0.0503871 0.039842993 -0.20797694
0.085532635 0.0051887035 -2.4114785 -3.4092584 -5.3800426 -8.70797 -0.9957781 -0.6167768
-0.00613478 0.23384804 -0.366669 -0.2690244 -3.9249263 -4.4834414 -1.8267701 2.3447137
-0.7500796 1.3606538 -0.5057771 -0.577891 3.1301584 -0.119378105 0.16691494 0.374366
0.037051298 -0.25487828 0.16604409 -0.8023134 0.5783439 -4.666351 -2.230094 2.1908464
0.34209308 5.37903 -0.4962741 1.5383049 -0.30161306 -0.27943218 0.75923383 0.63103926
1.2781255 -0.41839173 -3.8482978 1.6896368 -0.92510086 1.6235248 -3.9487271 0.9800604
0.18905099 1.5200604 -0.08546879 1.3993645 -0.1538566 -0.3084374 -1.1722524 -0.07003378
1.5912142 1.5267509 -2.9026127 1.6812432 -1.2356634 0.81087667 -0.94193584 0.7511896
-0.4873617 0.7317053 1.2965976 1.4174196 -0.5374388 0.62324387 -0.5094957 -1.2138952
-0.1535446 -0.008218378 -0.0075491965 -0.1316143 -0.086131915 -0.26373768 -0.19046648 0.23894611
-0.26688057 -0.25499234 0.12482691 0.050405562 -0.22681035 -0.08882287 -6.0317974 0.98719454
-11.688642 -0.6639114 -1.1155154 -1.9518491 -0.21774262 -2.6113968 -0.47885883 -0.8482978
1.0037091 -0.5395017 -1.0515462 2.381199 -1.5454514 2.0441937 -5.1640196 -8.716226
-3.4455001 -0.03474845 -2.5862575 -2.2825058 -1.0657523 -0.6346343 1.264879 -0.037089113
1.5702548 1.3754368 -1.9370369 2.336975 1.6593919 4.7445583 -1.5366006 0.54848665
0.31995654 0.8995958 0.61086303 0.37780842 2.2300134 2.1317112 -0.76359165 -2.3661013
-2.3361158 5.7226996 -1.5312968 -2.6036723 2.3317773 0.394024 -0.83909863 -5.9040504
-0.09882727 -0.21277376 -1.8943425 -0.3183364 -0.2027592 -1.5647987 3.693165 -2.00599
2.5202043 -4.6420307 -0.6679975 0.5821558 0.14348055 -0.28899798 0.21687436 -0.14070496
-1.3347877 -0.94034207 -0.13590169 1.3963794 2.1720428 -0.09351004 -2.5538228 -0.2829514
-2.217128 0.8107378 0.71466476 1.4572486 -0.40819937 -0.70532644 1.5243082 0.9367919
-0.07059085 -2.1453402 7.878459 -1.3053064 7.0473485 -0.41359773 0.8482147 1.4876155
0.31861147 -0.5443564 0.31362516 0.5145614 0.6487872 1.6223516 0.13253592 -3.5345573
0.273633 3.4217362 -0.80114615 0.40262946 2.0694375 0.48099223 -7.4137554 -0.7436934
0.23149061 0.21802929 -2.8805215 -3.4401815 0.18743287 -4.2795696 -1.7243947 1.4973981
-0.97956383 -3.2647772 1.1863492 -0.95253026 0.7185597 1.6769937 0.31478179 0.17502433
0.5347779 -2.1980278 1.4941958 1.549291 -1.5040919 1.232647 -0.7490701 -1.637012

net.0.bias f4 [128]
00000000: b5c7 2c3e c0a1 b5bf 16ec 54be 374e afbe
00000010: 7cec e53d 0f72 cb3e bd12 023f 5202 de3e
00000020: ec55 a93d 0617 47bf 14ec c9bb 106f c53e
00000030: 4800 293e 688a 0140 914c 98bf 30e8 02c0
00000040: e7d5 893f dac5 8b3f 7f60 f43e e891 5a3f
00000050: 8786 acbe 5354 85bf 5a5b 983c 460e 2a3e
00000060: 0091 1ebc 503b f9ba c3c7 1dbe 9b35 0e40
00000070: 0a49 a73f af38 923e ecc1 0340 bfbd 893f
00000080: 0cb6 ee3f c0f7 e33f 343c 0340 2470 75bf
00000090: 560d 4340 8b7f f93f 9174 d83f 9393 0f3f
000000a0: 8fd9 3e3f 802d e1bb 22cf 8ebd 430b 853d
000000b0: c520 bd3f 7476 26be 31bb 043f e7a3 9e3f
000000c0: 0334 e8be a693 2b3e 6fe0 7cbe 8add 033d
000000d0: 6086 4e3c 25c0 d7bd fe41 8a3d 7ae9 1dbe
000000e0: 8853 473f 1869 9dbf bd11 2a3f 22bc a4bf
000000f0: 5fcf 873e d71a ccbf 1e51 34be 497f 92be
00000100: 4fa4 f63d ca89 883f 69af 243f a883 873f
00000110: 10cc 3cbe 3ab8 cf3f 764c 26bf d2c4 a73f
00000120: 14b4 3ebd ffbb 123e 381e eebe af34 203f
00000130: 0045 d93d e9ad 58bf 5c2c 573f 9678 5b3e
00000140: c2eb 50bf 0fbf 12be f8e4 f03f 84cd 82bf
00000150: eebe 083e 57f3 d2bf 92a6 14bf ed60 b43f
00000160: 569a 9abd 5e7e c03f 6de0 3e3f 2d05 fe3f
00000170: fc3f a53f 8031 c23f ece2 2f3d 5039 e73c
00000180: 0a2e 013e ca85 903f d537 133f ba8a bc3f
00000190: 1f88 0fbf 6152 4dbd 82df f03f 977a 61bd
000001a0: 720a 0d3e 37d1 263f 70f7 94bd b700 393e
000001b0: 1f91 7a3d d4e8 813f ba0b 843f b9e8 aa3f
000001c0: ff47 bb3d 7075 fe3d 6832 16c0 5291 ffbe
000001d0: 6602 2abe f726 e33f 6420 82bf 65bf 6cbe
000001e0: 9539 f23f 190d 653e 5062 65bf b2e9 74bf
000001f0: 1376 e83f aac1 063f beae a6bd b485 463f
0.16873057 -1.4189987 -0.20793185 -0.3423936 0.112267464 0.39735457 0.5080984 0.43361145
0.082683414 -0.77769506 -0.006162176 0.38561296 0.16504014 2.0240726 -1.1898366 -2.0454216
1.0768403 1.0919755 0.4772987 0.85378885 -0.33696386 -1.0416359 0.018598247 0.16607007
-0.009678125 -0.0019014869 -0.15408234 2.2220218 1.3069165 0.2855887 2.058711 1.0761031
1.8649306 1.7809982 2.0505495 -0.9587424 3.047689 1.9492048 1.6910573 0.56084555
0.7455072 -0.006871879 -0.06973101 0.064962886 1.4775625 -0.16256124 0.5184813 1.2393769
-0.45352182 0.16755542 -0.2469499 0.032193698 0.01260528 -0.105346955 0.06750868 -0.15421095
0.77861834 -1.2297697 0.66433316 -1.2869914 0.265254 -1.5945691 -0.17609069 -0.28612736
0.12043058 1.066705 0.64330155 1.0587053 -0.18437219 1.6228096 -0.6496042 1.310694
-0.046558455 0.14329527 -0.4650743 0.6258039 0.10608864 -0.84640366 0.8405206 0.21432719
-0.8160974 -0.14330696 1.8819876 -1.0218968 0.13354084 -1.6480511 -0.58066666 1.4092079
-0.075489685 1.5038564 0.74561197 1.984533 1.2910151 1.5171356 0.04294102 0.02822557
0.12615219 1.1290829 0.5750707 1.4729836 -0.5606708 -0.05012739 1.8818209 -0.05504855
0.13773516 0.65162987 -0.072737575 0.18066679 0.061173555 1.0149179 1.0316079 1.3352271
0.091445915 0.12424743 -2.3468266 -0.49915558 -0.16602477 1.7746266 -1.0166135 -0.23119886
1.8923823 0.22368278 -0.8960314 -0.9566909 1.8161033 0.5263926 -0.08138798 0.77547765

net.2.weight f4 [64, 128]
00000000: 995a 4c3d f2f9 5b3d 20ec 70bb ec04 243d
00000010: 5747 8abd 0c3c 42bd ce7c 4a3d 11c4 9c3d
00000020: 4097 b5bb a26b c23c eaa4 b1bd 5b1a b9bd
00000030: 137a 573d 1cc0 33bd 5226 243d 3510 aebd
00000040: a291 193d 62a2 bebd ca39 8e3b 3dbe 8d3d
00000050: 6e1f 093d 9568 e53c 280e 523c d4ae 2fbd
00000060: 4999 933d df2f 30bd 0140 873d 624f 383d
00000070: 020a b5bd b5f2 9abc fb84 87bd c697 70bd
00000080: 0a7f 73bd 6b52 973d 75fb a73d c097 573b
00000090: 0655 423d 72f8 913d a557 b7bc 97df 71bd
000000a0: f4e1 723c 9b0d 853d ae91 143d 87fe 8a3d
000000b0: 5b85 1d3d 3a36 163d afa3 63bd 0b35 02bc
000000c0: ee65 79bd 558f a9bc 4a7a 0e3d 101b d03c
000000d0: 4f06 46bd c121 4abd b1b1 913d 8058 10bb
000000e0: 74fe 10bd bec6 36bd b580 233c 4124 1b3d
000000f0: 65c4 c4bd 600c 16bd 7802 c43c 07da 8a3d
00000100: 7866 583c 3725 213b 9f0e b9bd d192 823d
00000110: c7c1 b33d e0d9 d3bc 3abd 03bc 6cfc 39bd
00000120: 2918 90bd 70a6 6cbc 1456 623d 83c9 63bc
00000130: 2aef 663d c646 183d 5664 963c d5a7 25bd
00000140: 954f ab3d 8cde abbc 9b40 92bd bd83 483b
00000150: 7aa9 953d 1e7f a9bd b266 4cbd 9e9f c2bd
00000160: 4318 a23d b0fb 8a3b 0725 12bd 503d cabd
00000170: 73af a83d d0d3 cbbc ee76 30bd 43af b23d
00000180: f1e8 90bd c579 45bd 3fb9 d83c 014b 263d
00000190: d291 b9bc 9e80 293d bc36 bcbc 4202 613d
000001a0: 73e7 f4bc 976e 8fbc 0008 5ab9 d684 363d
000001b0: bd3c 8abd 0d0d 243d 5f31 c5bd e575 883c
000001c0: 54d1 9c3c 8e92 5f3d 3521 6c3c 1f6f fa3c
000001d0: 1680 f3bc 33e5 9bbd 92ed 963c 9e7b 693d
000001e0: 0666 acbd c532 ea3c a8a9 483c a099 73bd
000001f0: 106f 7cbd aec0 603d 2c43 90bd 6080 90bd
00000200: dc32 8b39 412c 8dbd 1c76 d7bc 50e8 8abd
00000210: 168d 903d d560 0bbd 8221 d9bc dd80 97bd
00000220: 72fc 0c3d a7c5 05bd 5e86 a9bd 81f1 513c
00000230: 2035 533b 7eac 643d b08c 53bd 5199 ffbc
00000240: ada1 563d 57aa 963c ce01 a9b9 eed8 87bc
00000250: dcc4 c5bd 65aa b2bd 857b 923d 0a44 573d
00000260: 2f30 94bd a736 a03c 6842 053c bed8 1e3d
00000270: 0578 803d a7f1 98bd f2cb 9cbc 1fe4 7cbd
00000280: c35e a33d 08fe 82bc 88ec 0c3d d0ca e83b
00000290: 1367 24bc 8fd6 74bc 6aef 503d ac63 8bbd
000002a0: 7ebf 81bd 307f c3bc f828 9ebd d058 70bd
000002b0: 47db cd3c 3825 fe3c 24f8 a7bd fe83 b03c
000002c0: 5998 53bd aa9f ebbc 6c8c 84bd a46c b3bd
000002d0: a391 8d3d a88f 8dbc 52fe 67bd 5002 67bd
000002e0: 9031 19bc a648 f43c f22c 323d 383e 89bb
000002f0: 01dd 953d 0405 97bd eb5a 973d 80b3 7f3b
00000300: 42d7 553d ddbd 2c3d c93a 7dbd bcb2 98bd
00000310: 2970 aabd c33d 0cbc d16c a03c a242 c0bc
00000320: 4d94 4ebd 8cf8 bfbc 0475 353d 43a4 e4bc
00000330: 08fe 08bc 5625 86bd f6cf 4d3d eee0 5b3d
00000340: 1625 62bd 40ad 8dbb 6f0c 863d 8912 2abd
00000350: ce0c 7f3d 102c e7bd 3a90 663d 14ca 8bbc
00000360: e985 803d 13a3 2abc f4b6 d43c a6e6 b1bd
00000370: 3df3 163d b077 63bc 9865 123c 6f35 8c3d
00000380: 6ea1 74bd 8c95 e03c 7736 803c 0e4f e9bb
00000390: 470e 6fbd 805e 8eba 50b1 5cbd 787e a5bc
000003a0: 9542 82bc 5e8d dbbd 6008 53bc fe38 a9bd
000003b0: c7bb 9e3d 1198 d7bd 8152 603d fd5d dabc
000003c0: 40af f9bc bddf a93d 876f aabc a3e7 30bc
000003d0: 4c82 41bd d2d4 e2bd 131f bf3c 50e7 d63c
000003e0: 73b4 8dbd 98c2 23bd ca16 f3bc da58 043d
000003f0: 8a63 40bd 96e5 98bd 555c c8bd fb36 8d3c
0.04989109 0.053705163 -0.0036761835 0.040043756 -0.06751888 -0.047420546 0.04943543 0.07654584
-0.005541712 0.023732964 -0.08674033 -0.0903823 0.052606653 -0.04388438 0.040075608 -0.08499185
0.037492402 -0.09308316 0.004340385 0.06921051 0.03347724 0.02800397 0.012820758 -0.04289134
0.07206971 -0.043014403 0.06604005 0.04499758 -0.088397995 -0.01891456 -0.06617161 -0.058738492
-0.059447326 0.07388767 0.082022585 0.0032896847 0.047444366 0.07127465 -0.02238066 -0.059051123
0.014824379 0.06496736 0.036271743 0.067868285 0.038457256 0.03667281 -0.055576023 -0.007947217
-0.060888223 -0.020698229 0.034784593 0.02540353 -0.04834586 -0.049348596 0.0711397 -0.0022025406
-0.035398915 -0.04462313 0.009979417 0.03787637 -0.09607772 -0.036632895 0.023926958 0.06779867
0.013208024 0.0024588832 -0.09035992 0.06375659 0.087771945 -0.025860727 -0.008040721 -0.045406744
-0.07035858 -0.014443979 0.05525787 -0.013903025 0.05638043 0.03717687 0.01835839 -0.04044326
0.083647884 -0.020980142 -0.07141229 0.00305961 0.07307716 -0.08276199 -0.049902625 -0.09503101
0.07914784 0.0042414293 -0.035679843 -0.09874976 0.08236589 -0.024881274 -0.04308217 0.08724835
-0.0707568 -0.04821183 0.02645552 0.040598873 -0.02265254 0.041382425 -0.022975318 0.054933794
-0.02989552 -0.017508788 -0.0002079308 0.044560276 -0.06749866 0.04005151 -0.096285574 0.016657779
0.019142784 0.054583125 0.014412214 0.030570565 -0.029724162 -0.07612076 0.01842383 0.057002656
-0.08417897 0.028588662 0.01224748 -0.05947268 -0.061629355 0.054871254 -0.07044062 -0.070557356
0.0002655004 -0.068932064 -0.026301436 -0.06782591 0.0705816 -0.034027893 -0.026505236 -0.073976256
0.034420438 -0.0326592 -0.08277582 0.012813927 0.003222771 0.055828564 -0.051647842 -0.031201037
0.05240028 0.018391771 -0.00032235536 -0.016582932 -0.096566886 -0.087239064 0.07152466 0.05255512
-0.07235753 0.01955731 0.008133508 0.03878092 0.06272892 -0.074679665 -0.019140217 -0.06174099
0.07977059 -0.015990272 0.03440526 0.0071042553 -0.01003434 -0.014943733 0.051009573 -0.0680612
-0.06335352 -0.023864359 -0.07722658 -0.05867845 0.025128974 0.031023607 -0.08201626 0.021547314
-0.051658962 -0.028762657 -0.06472096 -0.08760956 0.069125436 -0.017280415 -0.056639023 -0.05639869
-0.0093501955 0.029819798 0.043499894 -0.0041883253 0.07317544 -0.073740035 0.07390388 0.0039016902
0.05220724 0.042173255 -0.06182364 -0.07455966 -0.08322174 -0.008559647 0.019583138 -0.023469273
-0.0504344 -0.023433946 0.044301048 -0.027910357 -0.008361347 -0.0655009 0.050247155 0.053681307
-0.05521115 -0.0043236315 0.0654534 -0.041521583 0.06226807 -0.11287701 0.05628989 -0.017064132
0.06275541 -0.0104148565 0.025966145 -0.08686571 0.036853064 -0.013883516 0.008935355 0.06846129
-0.059724264 0.02741506 0.01565097 -0.0071200198 -0.058363225 -0.0010861903 -0.053880036 -0.020201907
-0.01590089 -0.10720323 -0.012880415 -0.082628235 0.077506594 -0.10527051 0.05476618 -0.026656145
-0.030479074 0.08294628 -0.020805134 -0.010797414 -0.0472434 -0.110757485 0.023330247 0.026233345
-0.069191836 -0.0399805 -0.029673953 0.032311298 -0.046969928 -0.07465665 -0.09783236 0.01723813

net.2.bias f4 [64]
00000000: 1d6e a6bd 3817 093d b3e0 033e d670 aa3e
00000010: 2627 64b9 4b63 603d 4008 a7bb 41d1 8b3e
00000020: ebb5 fc3b c605 2040 0db9 563e de68 1fbf
00000030: a41c f93c 09d1 783e 1e08 053f ee7e b5be
00000040: eaeb ef3c 2413 ca3c 50d9 6f3d f929 263d
00000050: c4eb 003f 0924 2dbe 7b7c 74bb 658c a63c
00000060: 5e15 ff3c e0c9 ba3c 9206 073f 30e1 a7bc
00000070: 8a21 69bb 3052 18bd d7ff ac3f 2898 913b
00000080: 048b 50bd 4449 b0bf ede9 003d 7d01 2a3d
00000090: 8696 6d3c 9985 1abf 4ba6 713e deec 303e
000000a0: be93 db3e 0f01 acbd 58b5 19bd 43c6 8e3e
000000b0: 90b0 0fbc 85d4 d8bd ed03 e13e 7a9a 6bbd
000000c0: 9244 efbc eb08 953f 06f0 a7be 8a0f 7dbc
000000d0: 1c89 1a3e de26 3a3d 301e cf3e e0cc 033f
000000e0: a1b1 e23c 84ed b93c 3331 0a3d 79c9 5e3d
000000f0: 87db a8bd df22 f83c df69 963c 19e2 dc3f
-0.08126471 0.03346941 0.12878685 0.33289212 -0.00021758358 0.054782193 -0.005097419 0.27308086
0.007712116 2.5003524 0.20969029 -0.6226939 0.030409165 0.2429849 0.5196551 -0.35448402
0.029287297 0.02466733 0.058556855 0.040567372 0.5035975 -0.16908278 -0.0037305641 0.020330617
0.031138118 0.02280134 0.527444 -0.02049312 -0.003557297 -0.037187755 1.3515576 0.0044431873
-0.050913826 -1.3772359 0.03147309 0.041505326 0.01450122 -0.60360104 0.23598592 0.17277858
0.42886156 -0.083986394 -0.03752646 0.27885637 -0.008770123 -0.1058741 0.43948308 -0.057520367
-0.029207502 1.1643347 -0.3280031 -0.015445599 0.15091366 0.045447223 0.4045272 0.5148449
0.02767259 0.022696264 0.033738326 0.054391358 -0.082449965 0.030290065 0.01836103 1.72565

net.4.weight f4 [4, 64]
00000000: aac2 ccbd b567 b8bb 5325 dcbf f1f3 a8c0
00000010: f9e2 693d 9427 033d 9204 b0bd d517 dbc0
00000020: bb77 33bd ce98 7ac0 ce75 9a40 8392 9f40
00000030: 05b2 953c 7bc6 97c0 8d82 8bc1 c4c0 8841
00000040: 33e2 ba3c b0e0 45bd 2072 263d 65b4 55bf
00000050: 8630 4fc1 ae5e bcc0 66e5 943c 7deb bb3c
00000060: 6824 a13c fa34 2f3d b83c 40c1 c79b ffbd
00000070: 85c1 b8bd 5641 073d 1b21 1f41 9fb4 84bd
00000080: 0036 cc3c 16b2 0241 3eda e13d 3490 b6c1
00000090: d853 10bc 864a ecc0 a2a3 afc0 c9f0 f940
000000a0: 447f 2ec1 19ff c23d c500 65bd 2166 3a41
000000b0: 00e6 5abd 4e5e c63c 8e94 58c1 0069 783c
000000c0: c860 d9bb 2a0a b0bf 6151 dec0 6feb 9f3d
000000d0: d449 56c1 ddfd cdc0 ec05 f340 09b9 1ec1
000000e0: 2dec 833c cfc8 7e3d 391d 4a3d f0ac 1b41
000000f0: 2e3b 353b 9ca5 b4c0 07c1 b9c0 229a 3441
00000100: 1519 79bc ae52 b3bd efd2 f5c0 df0a 8fc0
00000110: 0802 99bd c83d 093c 2cb6 7e3c 8b76 02c1
00000120: 9e91 f13d d02a 17c0 c0c1 8b40 4e18 ad40
00000130: 2827 80bc b1c0 d7c0 5927 4dc1 f13b 7c41
00000140: f547 733d 7e19 803d 7ee6 823d 2734 c9c0
00000150: 08f4 35c1 b4c2 5c3f e744 64bc df9d ab3d
00000160: 74a9 acbd 3874 983c cb92 5dc1 e8e9 7d3d
00000170: 60e1 93bc 1bde ee3d f47e ec40 c4a8 973d
00000180: 12eb 42bd c667 2141 6c2b c83d 8caf bac1
00000190: 6cbb 8d3d 8efc ccc0 32b4 a6c0 7ae2 f640
000001a0: 74b5 ebc0 0ddf 403d 2223 84bc 84e9 1241
000001b0: 103d 2bbc dbf5 073d 0c7b 51c1 483a ee3c
000001c0: 0478 c9bd 7ab3 68c0 8173 01c1 22e8 dc3d
000001d0: 0d2c 88c1 ebcf d3c0 a258 0041 5d9b 5ec1
000001e0: bbc9 3e3c a204 0b3c b4b1 013e e4d5 0241
000001f0: c0d6 b13d f24d 9cc0 f6b2 fcc0 0408 2e41
00000200: 6080 e3bb efa1 d43d 3092 f9c0 946f e4c0
00000210: 4299 e93c e8f7 063d 5cb3 e03d cf30 f7c0
00000220: b88e 523d c549 42c0 82f4 9740 4466 a240
00000230: 05ab 333c 2267 0bc1 88a5 84c1 bdc9 8a41
00000240: 1bb9 e23c 00f2 d3b9 2c6e 02bd bed8 62c0
00000250: a9eb 47c1 8c82 8bc0 39ea 38bc 6a8a e43d
00000260: bebf ba3d 9ac4 5c3c cba6 64c1 a084 733c
00000270: 6045 95bc 86cd 0d3d 3b63 2541 a688 9c3d
00000280: 5ef9 aa3d 4294 f540 8512 f43c 77ca b9c1
00000290: 9f84 383d 4e46 cbc0 42ec a4c0 4de1 fc40
000002a0: c9e2 0ec1 eb5f a3bc 5e68 cb3d 06f1 5341
000002b0: 8029 7c3b 63f0 80bd e9c7 4ec1 78cb 92bd
000002c0: e619 e3bd 4141 25c0 6357 00c1 770f dd3d
000002d0: a7d3 92c1 3acb a4c0 3c7a dc40 f126 20c1
000002e0: 1a99 b4bd fa99 92bc 1a8c efbd 0e85 1041
000002f0: 6631 f8bd b233 a2c0 019e c3c0 3126 2d41
00000300: a4df 41bd cb3f 923d 7c81 0cc0 cad6 16c1
00000310: 61dd c03d 3bcd a5bc 8b3e 803d 61c4 65c0
00000320: f33e 4cbd f71f 91c0 c908 9f40 1505 9840
00000330: 10bc c63d 1255 3dc1 5162 88c1 14c4 8041
00000340: c3b7 853d fa0a f8bd eb40 753c 2692 21c0
00000350: 0396 44c1 f42f 86c0 2520 433b 9eae 62bd
00000360: f8d7 04bd 0dbb 13be 5bc0 27c1 76a9 c23d
00000370: 3b58 1dbc 7339 9f3d 67bc e240 1843 cbbd
00000380: 6ac2 f13d a1d1 4241 9872 d1bd c6d9 adc1
00000390: 077c c03d 85c1 06c1 0896 08c1 da32 0341
000003a0: dd0a 1cc1 a525 943c cd88 ec3d a405 5541
000003b0: d221 febd 0be7 ddbb 8a51 36c1 68fd c8bc
000003c0: a8df 9ebd 3bdb f0be e1a0 efc0 7bdd 773d
000003d0: 61fe 7ac1 7838 a1c0 9019 eb40 cd0e 1bc1
000003e0: ba31 12bc 74a7 5d3d 6fbe 63bd a796 1441
000003f0: 182a 9cbd 65c7 9cc0 f826 d1c0 d9d9 2a41
-0.09998067 -0.005627597 -1.719889 -5.279778 0.057101224 0.032020167 -0.08594622 -6.846659
-0.043815356 -3.9155765 4.8268805 4.9866347 0.018273363 -4.7429786 -17.438745 17.094124
0.022812938 -0.04830998 0.04063618 -0.83478385 -12.949347 -5.8865576 0.018175792 0.022939438
0.01967068 0.04277513 -12.014824 -0.12480884 -0.09021286 0.033021294 9.945582 -0.06479763
0.024928093 8.168478 0.110279545 -22.820412 -0.008809052 -7.384097 -5.4887247 7.8106427
-10.906071 0.09521312 -0.055908937 11.649934 -0.053442 0.02421489 -13.536268 0.015161753
-0.0066338517 -1.3753102 -6.947434 0.07808577 -13.393024 -6.437239 7.594473 -9.920175
0.016103828 0.062203225 0.049344275 9.729721 0.0027653682 -5.645216 -5.804813 11.28763
-0.015203734 -0.08756004 -7.6819987 -4.470077 -0.074710906 0.008376546 0.015546363 -8.153941
0.117953524 -2.361988 4.367401 5.409217 -0.015643671 -6.742272 -12.822106 15.764634
0.059394795 0.06254862 0.06391619 -6.2876163 -11.372078 0.86234593 -0.013932443 0.08379721
-0.08430758 0.018610105 -13.848338 0.06199065 -0.018051803 0.11663457 7.390497 0.07405236
-0.04758746 10.087835 0.09773907 -23.335716 0.069205135 -6.4058294 -5.2094965 7.715146
-7.3659 0.047087718 -0.016130034 9.182011 -0.01045157 0.03319345 -13.092541 0.029080525
-0.09837344 -3.6359544 -8.090699 0.10786463 -17.02151 -6.6191306 8.021639 -13.9129305
0.011644776 0.008484991 0.12665445 8.177219 0.086835384 -4.884515 -7.896846 10.876957
-0.0069427937 0.10382449 -7.799095 -7.1386204 0.028515462 0.032951266 0.1097171 -7.724708
0.05140564 -3.0357525 4.748597 5.0749836 0.010966067 -8.712679 -16.580826 17.348505
0.027676156 -0.0004042536 -0.03184335 -3.544479 -12.495034 -4.359686 -0.011286312 0.11159213
0.09118603 0.013474608 -14.290721 0.014863163 -0.018221557 0.03461983 10.336726 0.07643251
0.08348344 7.674348 0.029793987 -23.22386 0.045048352 -6.352332 -5.15384 7.9025025
-8.930367 -0.019943198 0.09932016 13.246344 0.0038476884 -0.0629585 -12.923806 -0.07167715
-0.11088924 -2.5821078 -8.021335 0.10793965 -18.353346 -5.149808 6.889921 -10.009507
-0.08818264 -0.017895687 -0.11696644 9.032484 -0.12118797 -5.0688105 -6.1130376 10.821824
-0.04733242 0.07141074 -2.195403 -9.427439 0.09417225 -0.020239463 0.06261929 -3.590111
-0.04986472 -4.535152 4.9698224 4.7506204 0.09703839 -11.833269 -17.048006 16.095741
0.065291904 -0.121114686 0.014969091 -2.5245452 -12.286624 -4.1933537 0.0029773798 -0.05534231
-0.032432526 -0.14426823 -10.484462 0.09504978 -0.009603555 0.077746294 7.0854983 -0.099249065
0.1180466 12.176179 -0.10226935 -21.731335 0.09398656 -8.422246 -8.536629 8.199915
-9.752652 0.018084357 0.1154953 13.313877 -0.124087945 -0.0067719272 -11.394907 -0.024534896
-0.07757503 -0.4704226 -7.4883885 0.060513955 -15.687104 -5.038143 7.3468704 -9.691113
-0.008922989 0.054114774 -0.055601534 9.28678 -0.07625216 -4.89934 -6.536007 10.678185

net.4.bias f4 [4]
00000000: 3b01 9440 3e49 22c0 bc9e ad3f df69 fac0
4.62515 -2.5357203 1.3564067 -7.8254237
