modelo_melhor.pth (torch, 571485 bytes, 6 tensors)

net.0.weight f4 [512, 18]
0.18987863 -0.07866973 -0.18342705 -0.21228002 -0.04658401 0.0743946 0.2021548 0.073592976
-0.18321219 -0.2075163 -0.21707954 -0.2217768 0.10045786 -0.17482434 -0.2046608 0.0758294
0.16254456 -0.09424794 0.16693006 0.017971233 -0.18914047 -0.09666118 -0.13120458 -0.09065303
-0.21990955 -0.113746054 -0.19722295 -0.044911176 -0.01355204 -0.1420552 0.05187066 0.030959144
0.06712623 0.17321254 -0.12757953 -0.035175472 0.1136856 0.77425516 0.4889401 -1.1763453
-0.7080589 0.23601158 0.1173314 0.09550799 -0.16458169 -0.08153604 -2.3335323 -1.4141715
-1.9499226 -0.25359237 0.2069863 0.27961442 0.3046352 0.4582446 0.5026298 -0.1912826
0.3298882 -1.7898872 -0.60905206 -0.34727693 -0.80236375 0.13640505 0.49049324 0.07988678
0.7580752 0.7563557 -0.62456936 -0.8575321 -0.3335448 -0.14603348 -0.029008746 0.31919697
-0.025878789 -0.32027343 -1.1405944 -0.8693442 -0.2811843 0.4251279 -2.298103 -0.012186644
0.18204132 0.13044772 -1.7734032 -1.7301272 0.9012763 0.5596043 -0.63649005 -0.0026835725
-0.43046328 -0.2517453 1.1714419 -0.04360487 -1.6912985 1.1061995 -0.066273734 1.0345973
0.066087365 -1.3981726 -0.037175644 -0.048089843 0.84895533 1.3031846 0.8506182 -0.9239644
-0.03267148 0.06580375 -0.15197197 0.311536 0.98449135 -0.19842915 -0.30478454 -0.37138775
0.043488238 0.9408038 1.2893125 -0.1250349 0.013608921 0.06356215 -0.29116637 -0.16063842
0.1549885 -1.6861559 0.48205727 -0.35339388 0.43796292 -0.79351586 -0.5307142 -0.21346258
-0.3465699 0.57504874 0.8162482 -0.8812682 -0.5292422 -1.5504538 0.010887663 0.07077399
-1.1223217 -1.5526389 1.1282609 -0.43728423 -0.22276379 0.3484182 -0.3908192 -0.19077691
-0.07507818 0.509012 -3.1414137 -1.4096084 0.4038202 -1.0101519 -0.9109515 -0.059700698
0.07045222 0.18358237 -0.8827075 -0.9924377 -0.13153051 -1.2274823 -0.2426538 0.09365545
-0.0742409 0.009110101 0.3130843 0.3818536 -0.69390875 -1.6374484 -0.624493 -0.22814617
-0.34122965 -1.131711 0.13519225 0.21934366 0.17097847 0.34956828 -0.47037145 0.4011752
0.24589913 0.7440568 0.56376296 -1.0625232 -0.21812357 -0.05742507 -0.10953248 -0.023633966
-0.0061273426 -0.18917793 0.09206063 0.043842807 -0.15929018 0.021424888 -0.08336926 -0.03803279
0.14848739 -0.11323315 -0.10197787 0.05577504 -0.014422089 0.077502705 -2.4905827 -1.1926463
0.7348604 1.3167506 -0.014725073 -0.33228087 0.7568372 -1.7891699 -0.13612162 -0.061011344
0.23379765 -0.70146835 -1.2846832 0.4071729 0.1343434 -0.35279325 0.14519483 0.65908426
-1.3742288 1.5521967 0.19851135 0.19434474 0.31741372 -0.078738004 -0.8654235 0.41856796
0.059928603 -0.13183525 -0.17841776 -0.8013562 -0.12598228 0.10696795 0.8036283 -0.5905465
-1.0883551 -0.06084943 0.31217045 -0.19664434 -7.98107 1.3368285 0.18019542 0.11230366
-0.04823004 -0.9494187 0.2306404 -0.1486467 0.11401126 0.5664996 -0.2419976 0.7918191
-0.27666914 -0.66497654 -0.6493856 0.42340723 1.1146297 0.84947854 0.100013055 0.9389025
00000000: 8b6f 423e 981d a1bd 4dd4 3bbe ef5f 59be
00000010: e0ce 3ebd 325c 983d ab01 4f3e eab7 963d
00000020: fa9b 3bbe 277f 54be 194a 5ebe 7519 63be
00000030: dabc cd3d 2705 33be 9a92 51be 724c 9b3d
00000040: 1572 263e 1005 c1bd b7ef 2a3e 6838 933c
00000050: 0aae 41be 4cf6 c5bd 7e5a 06be 4ca8 b9bd
00000060: f82f 61be b1f3 e8bd d0f4 49be c8f4 37bd
00000070: 6009 5ebc eb76 11be 5476 543d 089e fd3c
00000080: 7a79 893d a15e 313e 35a4 02be 2814 10bd
00000090: ffd3 e83d 9635 463f 5b56 fa3e 7c92 96bf
000000a0: 5943 35bf 05ad 713e 724b f03d b199 c33d
000000b0: 1a88 28be 5efc a6bd 9858 15c0 9203 b5bf
000000c0: 1097 f9bf dcd6 81be 37f4 533e 9f29 8f3e
000000d0: 25f9 9b3e 099f ea3e 59ac 003f 96df 43be
000000e0: 1be7 a83e 061b e5bf d6ea 1bbf 48ce b1be
000000f0: b667 4dbf c4ad 0b3e ee21 fb3e ae9b a33d
00000100: 3711 423f 87a0 413f c7e3 1fbf 3987 5bbf
00000110: 62c6 aabe cd89 15be c0a3 edbc c96d a33e
00000120: c1ff d3bc e1fa a3be fffe 91bf 578d 5ebf
00000130: 63f7 8fbe 5daa d93e 1f14 13c0 7daa 47bc
00000140: 0a69 3a3e 1694 053e e0fe e2bf cf74 ddbf
00000150: 0bba 663f 3a42 0f3f 03f1 22bf e0de 2fbb
00000160: af65 dcbe c3e4 80be cff1 953f 059b 32bd
00000170: 787c d8bf f297 8d3f 86ba 87bd af6d 843f
00000180: d058 873d 52f7 b2bf 7d45 18bd dbf9 44bd
00000190: 2355 593f c1ce a63f 1dc2 593f ee88 6cbf
000001a0: 88d2 05bd 1ec4 863d 8a9e 1bbe a681 9f3e
000001b0: a007 7c3f 0331 4bbe b80c 9cbe 8926 bebe
000001c0: b920 323d 85d8 703f 3108 a53f 2609 00be
000001d0: f4f7 5e3c df2c 823d c213 95be 667e 24be
000001e0: 4eb5 1e3e f5d3 d7bf 36d0 f63e 0bf0 b4be
000001f0: ad3c e03e db23 4bbf e3dc 07bf ef95 5abe
00000200: 9c71 b1be 6536 133f a4f5 503f cb9a 61bf
00000210: 6b7c 07bf 4575 c6bf 2b62 323c f4f1 903d
00000220: 3da8 8fbf dfbc c6bf da6a 903f b8e3 dfbe
00000230: 311c 64be df63 b23e 7419 c8be 065b 43be
00000240: 97c2 99bd 9c4e 023f ec0c 49c0 0c6e b4bf
00000250: 85c1 ce3e a84c 81bf 1e34 69bf b888 74bd
00000260: 4149 903d 04fd 3b3e 1ef9 61bf 6610 7ebf
00000270: efaf 06be 241e 9dbf 3d7a 78be 6ece bf3d
00000280: 9d0b 98bd 8842 153c 964c a03e 5182 c33e
00000290: 01a4 31bf e997 d1bf c6de 1fbf 269f 69be
000002a0: a7b5 aebe e8db 90bf d66f 0a3e a09b 603e
000002b0: fb14 2f3e 9dfa b23e 87d4 f0be d666 cd3e
000002c0: fbcc 7b3e 827a 3e3f c552 103f c300 88bf
000002d0: c95b 5fbe 8d36 6bbd 9152 e0bd 059c c1bc
000002e0: e0c7 c8bb dcb7 41be 498a bc3d 8494 333d
000002f0: f71c 23be 3f83 af3c 81bd aabd 45c8 1bbd
00000300: 140d 183e c8e6 e7bd c6d9 d0bd 5e74 643d
00000310: a04a 6cbc bdb9 9e3d b565 1fc0 a2a8 98bf
00000320: d01f 3c3f 498b a83f 6f41 71bc b820 aabe
00000330: 15c0 413f 8503 e5bf 7763 0bbe 08e7 79bd
00000340: a768 6f3e 6e93 33bf 8070 a4bf f778 d03e
00000350: 5191 093e 51a1 b4be f4ad 143e bfb9 283f
00000360: bbe6 afbf 62ae c63f 8f46 4b3e 4f02 473e
00000370: 0d84 a23e 6441 a1bd 658c 5dbf 8a4e d63e
00000380: b277 753d d2ff 06be 25b3 36be ae25 4dbf
00000390: 8001 01be 0312 db3d 96ba 4d3f 0e2e 17bf
000003a0: 384f 8bbf 403d 79bd ced4 9f3e 225d 49be
000003b0: ed64 ffc0 321d ab3f 2685 383e 76ff e53d
000003c0: dd8c 45bd 1b0d 73bf ff2c 6c3e d736 18be
000003d0: bc7e e93d 1e06 113f 38ce 77be a8b4 4a3f
000003e0: 94a7 8dbe e73b 2abf 223e 26bf d5c8 d83e
000003f0: 30ac 8e3f 6d77 593f a5d3 cc3d ea5b 703f

net.0.bias f4 [512]
-0.025302798 -0.06441562 0.43148044 -0.005187146 0.2572503 -0.48870608 0.75259167 0.61664397
0.25543618 -0.26422888 -0.2026312 0.63923186 0.38000232 -0.2974041 0.05297951 0.44989306
-0.09987727 -0.10724735 -0.009719744 -0.576164 0.62032 0.0940525 0.19170055 0.67353356
0.27378184 0.4992536 -0.10623614 0.019293262 -0.16148223 0.11353357 -0.4876042 0.682829
-0.16991106 -0.05327384 -0.17490038 0.2073523 0.15740566 0.6911852 -0.08272851 0.7474919
0.29908586 -0.21581684 0.1329184 -0.017258227 0.33918822 0.36533132 -0.6095604 -0.23535044
0.074511826 0.20112915 0.49968007 0.3267775 -0.07668105 0.080140516 0.17591496 0.39190125
0.4671163 0.6464323 0.32118028 0.014687671 -0.06341322 0.49155283 0.7865927 -0.13650915
0.29686597 -0.06757023 -0.27136883 -0.53229576 -0.14308965 0.42397138 0.34872997 -0.2813893
0.25918457 0.48808327 0.05785716 0.023437407 -0.27041048 0.5626795 -0.07428923 -0.61270446
0.4198453 0.99576896 -0.12663628 0.48081055 -0.03927709 -0.0063805664 0.449569 0.06752565
0.73485035 0.37973872 0.16375776 -0.17186612 -0.065349594 0.19524609 0.5959551 0.36053094
-0.3125403 0.3584767 -0.25895825 0.023023974 0.071756124 0.49668926 0.21314056 -0.73733145
-0.23343083 -0.35821158 -0.6501188 -0.18855727 -0.4502888 0.13970998 0.5995117 0.17915685
-0.14101125 0.29804048 -0.22441387 -0.17888018 0.5258233 -0.29752627 -0.32087553 0.7656436
1.0515914 -0.018029882 -0.16426691 0.39993468 -0.1914085 -0.14352456 -0.014142182 0.62338245
-0.0016814263 0.19630888 0.02186067 0.13752909 0.35506344 -0.16969967 0.028569898 -0.45730716
0.34356987 0.59440655 0.39267525 -0.15476762 0.07449952 0.72508025 0.4582678 -0.16664542
0.38276842 0.078826465 0.5205274 0.22418255 0.39720815 0.45928875 0.08079966 0.508052
0.80912304 -0.3218229 0.4428408 0.35697907 0.13675787 0.0358522 0.6843549 -0.3305746
-0.02624973 -0.041103322 -0.19839391 0.18900405 0.06328497 0.10511516 0.049147647 0.41438395
0.60004115 -0.11797119 -0.1772618 -0.22559126 0.79071546 -0.17795676 0.28980714 0.46047047
0.08367575 0.44391105 -0.2649294 -0.49888515 0.59471595 0.11563246 0.015223624 0.3118589
-0.06612969 0.66686946 0.4198742 -0.021779481 0.04697307 0.1306771 -0.020703435 0.33022544
0.2469072 0.6519652 0.24504678 0.4830024 -0.23840573 -0.3119615 0.17030141 0.4979633
0.07369705 -0.4997993 -0.020066433 -0.16817953 0.47954485 -0.13639075 0.41068205 0.44728503
0.45002812 0.40430093 0.43921328 0.5840585 0.506566 -0.46391678 0.5200279 0.5888332
-0.39215213 -0.04059589 -0.12665519 0.8769949 -0.19472045 -0.23619431 0.05108954 0.5109825
0.22181241 -0.15239325 -0.2614581 0.3169801 0.1960775 -0.032112252 -0.11372656 0.53212154
0.23983112 -0.31012607 0.2564289 0.41318178 0.25680438 0.75920635 -0.21009906 0.1774061
0.7330001 0.53047657 0.2706225 0.7331555 0.47335178 0.16082919 0.2042151 -0.073766254
-0.2209096 0.36239672 -0.4513271 0.592352 0.03039749 0.05134374 0.45724964 0.15170278
00000000: d047 cfbc 56ec 83bd 01eb dc3e eff8 a9bb
00000010: 50b6 833e af37 fabe d9a9 403f 61dc 1d3f
00000020: 88c8 823e 0249 87be 8e7e 4fbe b3a4 233f
00000030: aa8f c23e 5a45 98be 0b01 593d 6258 e63e
00000040: 748c ccbd 80a4 dbbd 903f 1fbc 7c7f 13bf
00000050: 4bcd 1e3f 999e c03d 264d 443e b26c 2c3f
00000060: 222d 8c3e 2b9e ff3e 5592 d9bd e70c 9e3c
00000070: 995b 25be 4a84 e83d 42a7 f9be e2cd 2e3f
00000080: 2afd 2dbe ac35 5abd 1619 33be 2954 543e
00000090: f32e 213e 83f1 303f 916d a9bd a15b 3f3f
000000a0: c821 993e 17ff 5cbe c31b 083e 2061 8dbc
000000b0: 14aa ad3e b50c bb3e 260c 1cbf b5ff 70be
000000c0: a899 983d cdf4 4d3e 11d6 ff3e 614f a73e
000000d0: f40a 9dbd b620 a43d 0d23 343e 48a7 c83e
000000e0: de29 ef3e 967c 253f be71 a43e 8fa4 703c
000000f0: cade 81bd d0ac fb3e 245e 493f 0ec9 0bbe
00000100: d1fe 973e 4362 8abd dbf0 8abe 8944 08bf
00000110: 1886 12be c712 d93e bc8c b23e 4212 90be
00000120: d7b3 843e 0de6 f93e a1fb 6c3d ceff bf3c
00000130: 3e73 8abe c40b 103f f424 98bd 33da 1cbf
00000140: f7f5 d63e b7ea 7e3f f1ac 01be cd2c f63e
00000150: 04e1 20bd 1214 d1bb e82d e63e e34a 8a3d
00000160: 271f 3c3f 1d6d c23e 1db0 273e acfd 2fbe
00000170: 02d6 85bd 97ee 473e 8390 183f 8397 b83e
00000180: 4805 a0be 428a b73e 2d96 84be c69c bc3c
00000190: e0f4 923d 0e4e fe3e 8541 5a3e c1c1 3cbf
000001a0: 7e08 6fbe 8267 b7be 306e 26bf 2815 41be
000001b0: 418c e6be 2210 0f3e 9979 193f e574 373e
000001c0: 4165 10be c398 983e c0cc 65be 5e2c 37be
000001d0: 5b9c 063f 5d55 98be cc49 a4be 3801 443f
000001e0: 8c9a 863f 67b3 93bc 9635 28be 3dc4 cc3e
000001f0: 9700 44be 1af8 12be 9cb4 67bc fe95 1f3f
00000200: 4e63 dcba 3205 493e 2615 b33c 6dd4 0c3e
00000210: e0ca b53e c0c5 2dbe 6b0b ea3c 2a24 eabe
00000220: 64e8 af3e 072b 183f bb0c c93e 677b 1ebe
00000230: 3493 983d dc9e 393f 14a2 ea3e 19a5 2abe
00000240: 39fa c33e c56f a13d 4941 053f 1c90 653e
00000250: de5e cb3e e527 eb3e 4b7a a53d b20f 023f
00000260: b022 4f3f f9c5 a4be 08bc e23e f6c5 b63e
00000270: 410a 0c3e c2d9 123d e231 2f3f 1341 a9be
00000280: ac09 d7bc f55b 28bd c627 4bbe 478a 413e
00000290: 8d9b 813d 9e46 d73d 0b4f 493d 222a d43e
000002a0: 4c9c 193f e19a f1bd 1e84 35be 6501 67be
000002b0: 546c 4a3f 4c3a 36be 9a61 943e c9c2 eb3e
000002c0: 315e ab3d 4f48 e33e d4a4 87be e06d ffbe
000002d0: 4e3f 183f b6d0 ec3d 826c 793c f8ab 9f3e
000002e0: 016f 87bd f5b7 2a3f c0f9 d63e e26a b2bc
000002f0: d566 403d 38d0 053e 409a a9bc 4f13 a93e
00000300: 3ed5 7c3e 31e7 263f 8bed 7a3e 174c f73e
00000310: a220 74be 6bb9 9fbe 7e63 2e3e 0cf5 fe3e
00000320: 7bee 963d b2e5 ffbe 5c62 a4bc 4137 2cbe
00000330: e786 f53e 04aa 0bbe eb44 d23e 8b02 e53e
00000340: 166a e63e 8800 cf3e 90e0 e03e dc84 153f
00000350: 4fae 013f 8086 edbe 8c20 053f c6bd 163f
00000360: 2ac8 c8be e047 26bd e6b1 01be bd82 603f
00000370: cc64 47be ecdc 71be 4443 513d c0cf 023f
00000380: cb22 633e fa0c 1cbe d6dd 85be 374b a23e
00000390: 8ac8 483e 2388 03bd 78e9 e8bd 1e39 083f
000003a0: 4a96 753e d8c8 9ebe a64a 833e 908c d33e
000003b0: dd7b 833e 595b 423f 3524 57be f2a9 353e
000003c0: e5a5 3b3f 50cd 073f 088f 8a3e 14b0 3b3f
000003d0: 2a5b f23e 68b0 243e c31d 513e c312 97bd
000003e0: 2036 62be 108c b93e 5814 e7be 61a4 173f
000003f0: 2804 f93c d04d 523d a01c ea3e f957 1b3e

net.2.weight f4 [256, 512]
0.019522782 -0.0324639 0.019420799 0.015345927 0.031139761 -0.014306323 -0.055937972 -0.0035246706
-0.016751233 -0.0045991414 0.0026798658 -0.024536183 -0.024657527 -0.04109168 -0.024411023 0.007783796
-0.03355818 0.034715477 0.008458159 -0.022723805 -0.052393988 -0.012333792 -0.03164228 0.019936174
-0.031819656 0.014144848 -0.012608781 -0.048629194 0.03011115 0.025328983 0.025515046 -0.0006541849
-0.028094623 0.016687933 0.015783574 -0.022866309 0.004903186 -0.030884871 0.04045373 0.014259734
0.039207216 -0.033468727 -0.02981057 0.021252802 0.024826402 0.016346134 -0.02138951 -0.0024836399
-0.018092394 0.012789215 0.0041213534 -0.041218422 -0.008550901 0.0041494537 -0.013359734 0.02476595
-0.04450434 -0.026034992 -0.06084074 0.04149406 -0.0003876835 0.00080762705 -0.040307354 -0.020560103
-0.028929478 -0.03256866 -0.0059462218 0.007309758 -0.042183064 0.010786461 -0.056146145 -0.031201895
-0.028880326 -0.0066484013 4.90543e-05 0.03418481 -0.022203565 -0.030969223 -0.0029685488 -0.040777896
-0.02239483 -0.014557836 0.01198925 -0.012566446 -0.017477354 -0.002199834 0.021852287 -0.04183285
-0.015825536 -0.05238366 -0.009796277 0.029479478 -0.0016810372 0.0006955452 -0.0016812127 -0.032208126
0.024516819 -0.0038651363 -0.038894884 0.021673648 0.0032074724 -0.009687797 -0.0008814335 -0.01994397
-0.041837484 0.0029074317 -0.0540169 0.030976709 -0.023179887 0.032675896 -0.036817748 -0.014135311
-2.9034913e-05 0.00053905696 0.037068423 0.018724982 0.00565066 0.029543335 -0.029873975 0.03284074
0.0290965 0.029859968 -0.0032266236 -0.038893953 0.03934935 -0.055586234 -0.034085106 -0.04346706
-0.045163482 0.008272784 0.006662659 -0.053260714 -0.028532697 0.03917792 -0.0020325992 -0.038275287
0.008210694 0.012786373 -0.00053237577 0.007394946 0.0030711184 -0.05509861 -0.008207456 -0.04253022
-0.03799852 -0.024948226 -0.007190197 0.015419267 0.007954268 0.03242418 0.0012730476 0.035331745
-0.00439842 -0.038243696 -0.033141986 0.03985334 -0.030378746 -0.02311486 -0.013409824 0.044061344
-0.04813785 0.0056567006 0.010431017 0.04098201 0.017961103 0.04172713 -0.0132155605 0.0051886356
-0.012351508 -0.015438443 -0.0071613635 0.023325104 0.0098381555 -0.022347486 -0.015788537 -0.021384744
0.03195958 -0.032015152 0.03934445 0.0036877817 0.01363343 -0.017403571 0.014256021 -0.044304192
-0.032387402 -0.038998183 -0.008742113 -0.03718784 -0.027659962 0.017859768 -0.033840705 -0.03295259
-0.039683226 -0.028449053 -0.03882128 -0.016624173 -0.044981565 0.015402434 -0.019589933 -0.033256765
0.0002605766 -0.029382532 -0.018148229 -0.04114813 -0.044621877 0.020196198 -0.04328437 0.0053665093
-0.021544324 0.019121824 -0.0059291855 0.0024448321 0.025357168 -0.060196303 0.01632331 -0.015794175
-0.04129846 -0.030713342 0.012827694 -0.021722797 0.01960242 -0.026688196 -0.018515674 0.019527093
0.010333374 0.0126267895 0.00017718536 0.002300014 0.03117479 0.006704343 0.015751064 -0.013089026
-0.03499331 0.031980515 0.024965454 -0.014552534 0.010823334 0.020711344 -0.044264853 0.01762715
-0.049474597 -0.03166683 -0.042274848 0.011298862 -0.04503784 -0.026343215 0.02885646 -0.01054769
-0.02159577 0.023324478 0.025994219 0.025249114 0.016091889 0.031231547 -0.012516933 0.007709826
00000000: 3eee 9f3c def8 04bd 5e18 9f3c 7c6d 7b3c
00000010: d018 ff3c 1165 6abc 371f 65bd 29fe 66bb
00000020: e239 89bc 65b4 96bb b0a0 2f3b 1b00 c9bc
00000030: 95fe c9bc c04f 28bd a0f9 c7bc 370f ff3b
00000040: 4d74 09bd d131 0e3d 1794 0a3c 4627 babc
00000050: 149b 56bd ac13 4abc 569b 01bd 3051 a33c
00000060: 5455 02bd cbbf 673c 1095 4ebc 682f 47bd
00000070: a9ab f63c ba7e cf3c ee04 d13c 9b7d 2bba
00000080: b226 e6bc 22b5 883c 8e4c 813c 2052 bbbc
00000090: e8aa a03b 4502 fdbc cfb2 253d a9a1 693c
000000a0: bf97 203d 8116 09bd 4c35 f4bc 5b1a ae3c
000000b0: bd60 cb3c 54e8 853c 0e39 afbc 90c4 22bb
000000c0: 8036 94bc db89 513c 6b0c 873b a6d4 28bd
000000d0: 1419 0cbc 24f8 873b c9e2 5abc f6e1 ca3c
000000e0: 2f4a 36bd 5647 d5bc 2434 79bd adf5 293d
000000f0: 0042 cbb9 efb6 533a 5319 25bd a96d a8bc
00000100: 83fd ecbc b766 05bd 86d8 c2bb b286 ef3b
00000110: 26c8 2cbd b2b9 303c 80f9 65bd 1e9b ffbc
00000120: 6f96 ecbc d5da d9bb a7bf 4d38 5f05 0c3d
00000130: 40e4 b5bc 2bb3 fdbc fc8b 42bb b906 27bd
00000140: 5d75 b7bc fd83 6ebc 8f6e 443c 7fe3 4dbc
00000150: ab2c 8fbc 172b 10bb 9103 b33c ec58 2bbd
00000160: 8ea4 81bc 4090 56bd 9080 20bc f27e f13c
00000170: 4056 dcba 4055 363a 235c dcba abec 03bd
00000180: 7fd7 c83c 3a4e 7dbb 3e50 1fbd ef8c b13c
00000190: 7534 523b 91b9 1ebc 0010 67ba 8961 a3bc
000001a0: c85d 2bbd 9c8a 3e3b d340 5dbd dec2 fd3c
000001b0: bfe3 bdbc 29d7 053d 35ce 16bd cb97 67bc
000001c0: 0090 f3b7 804f 0d3a 0fd5 173d 2265 993c
000001d0: 2c29 b93b dd04 f23c 44ba f4bc 0384 063d
000001e0: c85b ee3c e49c f43c c375 53bb 444f 1fbd
000001f0: c92c 213d 64ae 63bd d39c 0bbd 840a 32bd
00000200: 58fd 38bd 928a 073c 6f52 da3b e827 5abd
00000210: 67bd e9bc 0779 203d 5b35 05bb 8cc6 1cbd
00000220: 2686 063c ef7d 513c 228f 0bba 4e51 f23b
00000230: d144 493b 15af 61bd 9178 06bc 2b34 2ebd
00000240: 56a4 1bbd 3960 ccbc be9b ebbb 18a1 7c3c
00000250: 9e52 023c 38cf 043d 64dc a63a 05b8 103d
00000260: 9f20 90bb 6ca5 1cbd e4bf 07bd 413d 233d
00000270: d9dc f8bc 605b bdbc e1b4 5bbc ab79 343d
00000280: 322c 45bd d85b b93b dbe6 2a3c c1dc 273d
00000290: 2a23 933c 11ea 2a3d 1486 58bc 6e05 aa3b
000002a0: fb5d 4abc 86f1 7cbc dfa9 eabb 4a14 bf3c
000002b0: 3730 213c 1312 b7bc f656 81bc 0f2f afbc
000002c0: 0ce8 023d 5222 03bd a527 213d b6ae 713b
000002d0: c05e 5f3c ef91 8ebc 1692 693c 5078 35bd
000002e0: a7a8 04bd 8fbc 1fbd 143b 0fbc 4752 18bd
000002f0: 2597 e2bc a64e 923c 8d9c 0abd 4cf9 06bd
00000300: e18a 22bd fd0d e9bc 1003 1fbd 6b2f 88bc
00000310: 973e 38bd 7e5a 7c3c 117b a0bc 3f38 08bd
00000320: 009e 8839 a3b3 f0bc 98ab 94bc f18a 28bd
00000330: 6ec5 36bd 7f72 a53c f44a 31bd 8bd9 af3b
00000340: b97d b0bc 5fa5 9c3c 9d49 c2bb 7a39 203b
00000350: d6b9 cf3c 6690 76bd 76b8 853c c962 81bc
00000360: 9328 29bd 8c9a fbbc 402b 523c 02f4 b1bc
00000370: 4195 a03c 34a1 dabc 2fae 97bc 48f7 9f3c
00000380: 504d 293c 98e0 4e3c d5ca 3939 d5bb 163b
00000390: 4662 ff3c 1bb0 db3b 6008 813c 5b73 56bc
000003a0: 2555 0fbd 00fe 023d 5a84 cc3c c06d 6ebc
000003b0: 5a54 313c d6aa a93c 104f 35bd d066 903c
000003c0: e0a5 4abd 14b5 01bd 6428 2dbd dd1e 393c
000003d0: 9979 38bd bacd d7bc 6264 ec3c 38d0 2cbc
000003e0: 9de9 b0bc fa12 bf3c d4f1 d43c 3bd7 ce3c
000003f0: 23d3 833c 4dd9 ff3c d213 4dbc b5a2 fc3b

net.2.bias f4 [256]
0.010610988 0.030003803 0.21389884 -0.15416694 -0.027316106 0.020727718 -0.048108026 -0.00046323868
0.013517934 0.06129762 -0.029666372 -0.03067646 -0.06876265 -0.0014734708 0.23408884 -0.0030187957
-0.0022833496 0.00676019 -0.046213 0.2917514 0.14969166 0.00075547694 -0.02193948 0.12596685
0.18299893 0.022053938 -0.000542685 -0.31383958 0.014105637 0.15699008 0.016949957 -0.05423186
-0.3223355 -0.012882952 -0.018653134 -0.06879801 -0.0027290462 0.02629547 0.31154445 0.22906606
-0.026140908 0.27698413 -0.022465544 -0.03220006 0.052968003 -0.036112923 -0.011398471 -0.036094673
0.0074579665 0.1428698 -0.044767737 1.1707466 0.23718956 -0.043288447 0.033990562 0.011219791
-0.01234986 0.6244144 -0.18041395 0.026032662 -0.0951673 -0.039495707 -0.0407606 -0.019193465
0.0001822222 0.08860299 -0.02535488 0.018151209 -0.0184563 -0.034584824 -0.033034958 -0.016954701
0.07327326 0.0033099058 0.09865641 -0.03699974 0.026849022 0.0026805142 -0.028059147 0.015301372
0.022545578 -0.04011985 -0.044596825 0.006426256 0.10691954 0.60312 -0.05116076 0.22014527
-0.04485578 -0.0076232306 -0.09599063 0.0626366 -0.0064128423 -0.13361251 -0.02661218 -0.033436242
-0.023908466 0.32931575 -0.08103814 -0.032624915 0.036955737 0.1383521 -0.21449046 0.27945045
-0.011673113 0.2055801 0.03358199 -0.046632744 0.13899921 -0.025857866 0.26925325 -0.34890544
-0.33974326 0.92582726 0.15254681 -0.014664433 0.0021615971 0.13298205 -0.054743446 -0.13697456
0.009870124 0.01610465 0.15418674 -0.0060496707 -0.060079493 -0.100575544 -0.05802891 0.010888739
0.53786266 0.6583147 0.9709453 -0.085820794 0.019506091 -0.020239288 -0.027307319 0.10276374
0.032510392 0.25654903 -0.04707536 0.10857372 -0.021964468 0.0120970365 0.13126712 -0.011671749
-0.00010034781 -0.03617989 0.18112282 -0.0016984779 -0.19083048 -0.020956317 0.18751444 1.1997218
-0.0126379505 0.0034579823 0.06584286 0.08269298 0.25530076 0.17698234 -0.022010919 -0.025725449
-0.0029555124 -0.104999304 0.14330487 -0.013322975 0.023770362 0.5819952 0.01214534 0.008858337
-0.028037047 0.8292783 -0.019940132 -0.039897483 -0.032288704 0.9073198 0.052834656 -0.031211404
-0.030327689 0.18216024 -0.042560305 0.25775385 0.10182129 -0.0034594275 0.8337964 0.015656298
-0.08963749 -0.04191713 0.05506237 -0.17990826 0.26723993 -0.048113193 -0.00374375 -0.012888786
-0.027667247 -0.029237995 -0.039215922 -0.044507563 0.15173858 0.09765232 -0.044533364 0.018793644
0.017548649 0.13622458 0.015549373 0.13410391 -0.0045204223 -0.040825106 -0.04356469 -0.054757003
0.57824504 -0.018177073 0.1416229 0.1615005 -0.09868604 0.15875438 0.3448636 0.5916562
-0.017816387 0.03908104 0.030793013 0.16262399 -0.050472908 -0.08837567 -0.20270215 -0.13702694
-0.023695664 -0.019186327 0.20361231 0.20990832 -0.0033073644 -0.0025979364 0.030626796 -0.034668945
-0.035201795 0.00484567 0.011800938 0.10791967 -0.03944797 0.18699287 0.167991 0.12701593
0.07470326 -0.011807752 0.06434944 -0.07618892 0.011188661 0.10080118 0.1313016 -0.041762307
-0.04881919 0.02855419 0.29293972 -0.009329165 -0.1256776 -0.025975589 -0.04197691 0.065232925
00000000: b6d9 2d3c 89ca f53c 4c08 5b3e f0dd 1dbe
00000010: 07c6 dfbc 2dcd a93c ec0c 45bd d8de f2b9
00000020: 537a 5d3c 3713 7b3d e406 f3bc 334d fbbc
00000030: 6fd3 8cbd 7a21 c1ba fcb4 6f3e fdd6 45bb
00000040: 40a4 15bb 9584 dd3b d849 3dbd 7160 953e
00000050: c548 193e 330b 463a 6dba b3bc 74fd 003e
00000060: 1264 3b3e 76aa b43c f942 0eba 95af a0be
00000070: 541b 673c 02c2 203e a3da 8a3c 3a22 5ebd
00000080: 2909 a5be 0413 53bc 75ce 98bc f9e5 8cbd
00000090: ccd9 32bb 9969 d73c c182 9f3e 4b90 6a3e
000000a0: 7525 d6bc ddd0 8d3e a909 b8bc 36e4 03bd
000000b0: faf4 583d 25eb 13bd a7c0 3abc 02d8 13bd
000000c0: f561 f43b 764c 123e 605e 37bd 06db 953f
000000d0: d2e1 723e 3a4f 31bd b039 0b3d 37d3 373c
000000e0: 1157 4abc 9fd9 1f3f 6fbe 38be 7342 d53c
000000f0: 13e7 c2bd 40c6 21bd 96f4 26bd 9d3b 9dbc
00000100: e612 3f39 7c75 b53d 0ab5 cfbc d8b1 943c
00000110: ab31 97bc d1a8 0dbd aa4f 07bd 96e4 8abc
00000120: 4a10 963d 01eb 583b 5f0c ca3d 0a8d 17bd
00000130: 7bf2 db3c 91ab 2f3b 4cdc e5bc 9bb2 7a3c
00000140: 81b1 b83c b654 24bd 29ab 36bd 5893 d23b
00000150: a2f8 da3d 1366 1a3f f28d 51bd c36d 613e
00000160: b2ba 37bd 4bcc f9bb bc96 c4bd 9e47 803d
00000170: d222 d2bb b8d1 08be c901 dabc 71f4 08bd
00000180: b0db c3bc 139c a83e 53f7 a5bd b4a1 05bd
00000190: e65e 173d 2cac 0d3e 63a3 5bbe 2114 8f3e
000001a0: 9640 3fbc 9783 523e 458d 093d fa01 3fbd
000001b0: cf55 0e3e e0d3 d3bc 90db 893e bca3 b2be
000001c0: d4f2 adbe 0403 6d3f 3b35 1c3e 1743 70bc
000001d0: 95a9 0d3b 722c 083e aa3a 60bd 0f43 0cbe
000001e0: 4db6 213c e6ed 833c 21e3 1d3e 513c c6bb
000001f0: ea15 76bd 8dfa cdbd b9af 6dbd ae66 323c
00000200: 5eb1 093f 5087 283f df8f 783f d0c2 afbd
00000210: 3dcb 9f3c ddcc a5bc 99b3 dfbc cc75 d23d
00000220: 9e29 053d 655a 833e 18d2 40bd e65b de3d
00000230: d4ee b3bc a632 463c e36a 063e dd3a 3fbc
00000240: d271 d2b8 5d31 14bd 4378 393e 769f deba
00000250: 1169 43be 95ac abbc c903 403e 7c90 993f
00000260: 680f 4fbc 519f 623b 9fd8 863d f05a a93d
00000270: c8b6 823e dc3a 353e 3e50 b4bc 2dbe d2bc
00000280: 45b1 41bb e009 d7bd 83be 123e 9b48 5abc
00000290: 10ba c23c a3fd 143f 40fd 463c 8f22 113c
000002a0: f3ad e5bc 954b 543f 7d59 a3bc 8b6b 23bd
000002b0: 2941 04bd 1c46 683f 2769 583d 0faf ffbc
000002c0: c671 f8bc 3788 3a3e b753 2ebd 50f8 833e
000002d0: ae87 d03d 90b7 62bb ae73 553f a341 803c
000002e0: dc93 b7bd 4cb1 2bbd 1489 613d df39 38be
000002f0: acd3 883e 5712 45bd b459 75bb 7d2b 53bc
00000300: 6ca6 e2bc 8584 efbc e0a0 20bd 904d 36bd
00000310: 5c61 1b3e f1fd c73d 9e68 36bd 21f5 993c
00000320: 2fc2 8f3c 757e 0b3e ccc2 7e3c 8952 093e
00000330: 0d20 94bb 3a38 27bd e370 32bd e148 60bd
00000340: de07 143f 16e8 94bc 9805 113e 6360 253e
00000350: e81b cabd 8290 223e f691 b03e c876 173f
00000360: acf3 91bc 7113 203d a141 fc3c e786 263e
00000370: aebc 4ebd 4efe b4bd 2791 4fbe ca50 0cbe
00000380: 691d c2bc a52c 9dbc bf7f 503e 35f2 563e
00000390: 5ec0 58bb 2442 2abb 0ce5 fa3c 0601 0ebd
000003a0: c22f 10bd 6dc8 9e3b b958 413c fd04 dd3d
000003b0: 3294 21bd 0f7b 3f3e d505 2c3e 7710 023e
000003c0: 06fe 983d 4d75 41bc a4c9 833d f008 9cbd
000003d0: a550 373c d970 ce3d ed73 063e f40e 2bbd
000003e0: a2f6 47bd 7aea e93c 32fc 953e 5bd9 18bc
000003f0: a1b1 00be c2ca d4bc fbef 2bbd d798 853d

net.4.weight f4 [4, 256]
0.020670941 -5.6117883 -4.7967844 -1.8835645 -0.032525204 0.030009314 0.053450137 0.022378473
-0.01591663 1.3491454 -0.0311919 -0.015768345 0.034671973 0.033638448 -2.912971 0.0066126254
0.0487611 -0.009314593 0.034437813 -1.8592559 0.5035247 0.014408828 0.03167641 -4.553548
-4.499534 0.032434363 -0.021145852 -4.946379 0.0059868693 -1.4560409 0.010617743 0.010455793
-3.9705145 0.04369005 0.016808867 2.541689 0.021855012 0.00044103974 -3.1332333 -3.7047217
-0.03999024 -3.0449872 -0.03399619 -0.059433565 -5.52533 -2.1773765 0.035052575 0.0647976
-0.032882176 -3.1529694 0.042247742 0.94992304 -0.27000198 -0.031911157 0.012775473 -1.4456673
0.013205169 2.206914 -3.5650663 -0.018255597 -1.2288952 0.01887843 -0.055363163 0.057070345
-0.014456004 2.3319802 -0.007257685 0.007949346 0.00035827523 0.04689226 0.048671357 0.031330805
-2.667901 -0.037694357 -1.1049498 0.04934544 0.023678645 0.029369848 0.054658175 -0.005869114
-0.006411636 -0.028958531 0.010247849 -0.0545016 -3.2317178 0.27327126 0.03636266 -4.5123606
0.017565172 -0.0077337883 -4.4664125 -3.850503 0.015106423 -2.5181546 -0.011552646 0.0175976
-0.017308362 -3.2470455 0.4147702 -0.006275582 -2.0231314 -3.510538 -1.289413 -2.5069332
0.010093839 -2.5901704 -0.009723177 0.0489846 -2.7066634 0.032769203 -5.0003977 -2.5920725
-2.6143508 1.514082 -3.39143 0.35475445 0.027124835 -3.7744703 0.0025533128 -0.49256322
0.029423188 0.0235969 4.3754387 0.009880066 0.006369087 -2.4882824 -1.3707848 0.022375027
0.4520492 1.6754918 0.63668287 -0.8236668 0.045268375 -4.130873 -0.042823248 -2.8905602
-3.4783473 -3.8554015 0.0010634641 -3.957431 0.017579606 -0.016930908 -4.4832835 0.024745565
0.038663503 0.3517034 -2.5124695 -4.832431 -0.11603217 0.047345486 -3.4999492 0.91264576
0.032810286 -0.03378676 -2.269549 4.1101356 -1.6479965 -2.1444676 0.030337857 0.0063019916
-0.020970631 -1.1776692 -3.2088478 -3.7094638 0.009244732 1.2273847 0.023223791 0.055048577
0.058030695 0.3406167 0.033285342 0.014784468 -0.04364579 0.81141245 -1.2054073 0.05613198
0.03119526 -2.3333828 -0.057728738 -0.46549284 -2.3797119 0.010863042 1.32918 0.41585222
-3.1932468 -0.011478751 -2.1781616 -2.2894247 1.61414 0.039964147 0.0041632843 0.036678817
-0.052291624 -0.018602824 -0.0332611 0.034965575 -4.3940086 -3.7728097 -0.048711643 0.018933816
0.02090065 -2.8738296 -0.044990122 -4.395184 0.01367345 -0.007615626 0.01299439 0.018519387
0.35490903 -0.022334255 -2.7056408 -1.4977769 -3.6979606 -2.9075801 -4.9331355 0.43595782
-0.028326064 1.5847306 -4.480365 -4.5584207 0.036778048 2.4005349 -3.718277 -4.0758624
0.047614545 0.039420538 -3.8231945 -4.1361036 -0.75495464 1.4932334 -3.8098712 0.017616495
-2.0135307 -0.04742291 0.0021154732 -4.082642 0.04958023 -1.7502881 -3.1220837 -2.1794903
-2.2155125 0.059200704 -3.2027588 -4.441954 -1.9005942 -3.5227866 -5.95248 0.020360181
-0.03205956 -2.6435843 -4.1837983 -0.012541725 -4.3681293 0.023938019 0.04136162 -3.5207775
00000000: 1b56 a93c c593 b3c0 427f 99c0 a418 f1bf
00000010: 2639 05bd 18d6 f53c 88ee 5a3d 0f53 b73c
00000020: 9863 82bc ccb0 ac3f 2886 ffbc 9e2c 81bc
00000030: 3304 0e3d 78c8 093d 1e6e 3ac0 b9ae d83b
00000040: b8b9 473d 3c9c 18bc aa0e 0d3d 19fc edbf
00000050: ffe6 003f 0113 6c3c 20bf 013d aab6 91c0
00000060: 2ffc 8fc0 e5d9 043d 113a adbc bd48 9ec0
00000070: 802d c43b 8c5f babf 0bf6 2d3c c64e 2b3c
00000080: e91c 7ec0 56f4 323d c0b2 893c 08ab 2240
00000090: 4809 b33c 5a3b e739 e586 48c0 291a 6dc0
000000a0: cecc 23bd 12e1 42c0 973f 0bbd 9c70 73bd
000000b0: 81cf b0c0 235a 0bc0 4a93 0f3d 9bb4 843d
000000c0: 76af 06bd 40ca 49c0 f80b 2d3d 282e 733f
000000d0: b33d 8abe 46b5 02bd 3850 513c a00b b9bf
000000e0: 7e5a 583c 143e 0d40 0c2a 64c0 c38c 95bc
000000f0: 704c 9dbf f0a6 9a3c 7cc4 62bd 98c2 693d
00000100: e0d8 6cbc 2a3f 1540 e0d1 edbb f93d 023c
00000110: e3d6 bb39 1912 403d 9e5b 473d bb54 003d
00000120: e4be 2ac0 6665 1abd ff6e 8dbf 721e 4a3d
00000130: b8f9 c13c 0999 f03c 40e1 5f3d b251 c0bb
00000140: b318 d2bb 713a edbc 98e6 273c 123d 5fbd
00000150: 77d4 4ec0 36ea 8b3e 03f1 143d 4265 90c0
00000160: d6e4 8f3c b86b fdbb daec 8ec0 a46e 76c0
00000170: ee80 773c 7229 21c0 4f47 3dbc d828 903c
00000180: 44ca 8dbc 98cf 4fc0 c25c d43e 66a3 cdbb
00000190: fc7a 01c0 a8ac 60c0 7c0b a5bf 9871 20c0
000001a0: a160 253c 5ac5 25c0 f64d 1fbc 13a4 483d
000001b0: f939 2dc0 0039 063d 4203 a0c0 84e4 25c0
000001c0: 8651 27c0 70cd c13f 300d 59c0 60a2 b53e
000001d0: e734 de3c ec90 71c0 7b55 273b 3f31 fcbe
000001e0: e608 f13c 494e c13c 9803 8c40 00e0 213c
000001f0: c6b3 d03b 0540 1fc0 e075 afbf d54b b73c
00000200: fe72 e73e 8476 d63f a6fd 223f d4db 52bf
00000210: 556b 393d 1d30 84c0 6e67 2fbd f0fe 38c0
00000220: 3e9d 5ec0 e6be 76c0 ef63 8b3a 8d46 7dc0
00000230: 1b03 903c b0b2 8abc 0f77 8fc0 36b7 ca3c
00000240: 9f5d 1e3d 7812 b43e 4dcc 20c0 46a3 9ac0
00000250: 46a2 edbd 57ed 413d 2bff 5fc0 27a3 693f
00000260: 1464 063d fc63 0abd 4a40 11c0 3b86 8340
00000270: 8df1 d2bf f53e 09c0 1987 f83c f080 ce3b
00000280: 9aca abbc ddbd 96bf c35d 4dc0 db67 6dc0
00000290: 3777 173c f11a 9d3f d23f be3c 9e7a 613d
000002a0: 98b1 6d3d 5065 ae3e 3656 083d 8e3a 723c
000002b0: eec5 32bd bab8 4f3f c94a 9abf a6ea 653d
000002c0: 348d ff3c 2556 15c0 f874 6cbd 1455 eebe
000002d0: 334d 18c0 e7fa 313c 9222 aa3f 95ea d43e
000002e0: 285e 4cc0 5f11 3cbc 0067 0bc0 ef85 12c0
000002f0: 249c ce3f 72b1 233d 296c 883b 873c 163d
00000300: be2f 56bd f364 98bc cb3c 08bd 1038 0f3d
00000310: b89b 8cc0 b775 71c0 dc85 47bd 171b 9b3c
00000320: d737 ab3c d3ec 37c0 9047 38bd 59a5 8cc0
00000330: 9b06 603c 808c f9bb 6ce6 543c f8b5 973c
00000340: a3b6 b53e 54f6 b6bc 3829 2dc0 27b7 bfbf
00000350: 63ab 6cc0 cb15 3ac0 3fdc 9dc0 dd35 df3e
00000360: 100c e8bc 74d8 ca3f 265f 8fc0 95de 91c0
00000370: 94a4 163d 5da2 1940 40f8 6dc0 776d 82c0
00000380: 7807 433d 6e77 213d 38af 74c0 f65a 84c0
00000390: b544 41bf 4622 bf3f eed4 73c0 7850 903c
000003a0: b0dd 00c0 863e 42bd c0a3 0a3b 01a5 82c0
000003b0: a414 4b3d 7109 e0bf 38d0 47c0 c57c 0bc0
000003c0: f5ca 0dc0 707c 723d 00fa 4cc0 7d24 8ec0
000003d0: ac46 f3bf 5675 61c0 b77a bec0 65ca a63c
000003e0: e350 03bd 7c30 29c0 ade1 85c0 cf7b 4dbc
000003f0: b7c7 8bc0 aa19 c43c cd6a 293d 6b54 61c0

net.4.bias f4 [4]
0.80924946 0.45276922 0.3667168 0.92039883
00000000: f92a 4f3f 5ed1 e73e 4ec2 bb3e 429f 6b3f
