modelo_done.pth (torch, 44869 bytes, 6 tensors)

net.0.weight f4 [128, 14]
000000 2f c8 59 3e 5f 16 c8 c0 6b 7c 18 3e fe 6f 72 c1
       0.2126777 -6.252731 0.14891212 -15.152342
000010 50 a2 7d bc 92 ec 8d bd bb 6c 62 3d 00 06 85 bb
       -0.015480593 -0.06929888 0.055279475 -0.004059553
000020 30 59 75 3e 57 90 1c 3f 84 43 d6 3e e4 79 c2 be
       0.23959804 0.61157745 0.41848385 -0.3798362
000030 5e d5 58 bf e0 60 36 c0 97 14 f9 c0 19 6b 5c 3f
       -0.8470057 -2.8496628 -7.7837634 0.8610092
000040 11 5a 98 be 68 78 6a 40 f2 b2 7f bf fd 2c 28 bf
       -0.29756215 3.663599 -0.99882424 -0.65693647
000050 c8 fd a7 bd a9 fd 48 3f d8 68 e8 3d e9 16 bc 3e
       -0.08202702 0.78512055 0.11348122 0.3673623
000060 53 fe 95 3f 6e ab ff 3d 98 9f ae c0 90 a1 c1 bf
       1.1718239 0.124838695 -5.4569817 -1.512743
000070 e0 ab 67 3d 32 0b 2d 3e aa 26 a7 bd d0 c2 2f 3d
       0.056560397 0.16898802 -0.081616715 0.042910397
000080 6c 0f b6 bd 00 c0 64 bb e6 0a d0 bd 4e 85 0e 3e
       -0.0888966 -0.003490448 -0.10158329 0.13918039
000090 c8 19 8f bd b4 62 4e bd 68 32 23 3d e8 f7 54 be
       -0.06987339 -0.0503871 0.039842993 -0.20797694
0000a0 bc 2b af 3d 00 06 aa 3b ed c7 72 c0 41 44 26 c0
       0.085532635 0.0051887035 -3.7934525 -2.597916
0000b0 36 62 ac c0 05 ae 06 c1 e2 92 00 bf f5 00 01 bf
       -5.3869886 -8.417485 -0.50224125 -0.50392085
0000c0 e7 7d 11 3f 29 68 f3 be 71 5f 73 be 5e 63 0f be
       0.56832737 -0.47540405 -0.23766877 -0.1400275
0000d0 7d db 52 c0 e4 ac 68 c0 1b 3e 2d c0 63 89 ef 3f
       -3.2946465 -3.6355524 -2.7069156 1.8713802
0000e0 ea d6 35 bf 0a 31 fa 3f c7 09 80 bf 3b 51 9a bf
       -0.7103106 1.9546216 -1.0002984 -1.205604
0000f0 33 59 39 40 cd fd c5 3e 96 8b 8a 3d 02 db 38 bf
       2.8960693 0.38670197 0.06764905 -0.7220918
000100 5d 62 80 3e b0 be 28 bd 1c a4 dd 3e 84 1d 88 bf
       0.25075045 -0.04119748 0.43289268 -1.0634007
000110 dd 70 d3 3e 56 eb 73 c0 2c f9 19 c0 a2 b1 1e 40
       0.41297045 -3.8112388 -2.4058332 2.4795918
000120 6a ef 90 be c5 c7 8b 40 38 46 e4 be 92 14 5f be
       -0.28307658 4.368136 -0.44584823 -0.2178519
000130 f0 94 e2 be ef 6d 6c 3f d1 82 0b 3f 50 64 d5 3e
       -0.44254255 0.92355245 0.54496485 0.41678095
000140 2a ef 93 3f 31 3d 2b 3d 75 68 8c c0 5f 90 02 40
       1.1557362 0.041806404 -4.387751 2.0400617
000150 37 b4 d8 bc 83 78 80 3f d1 cc 76 c0 32 65 65 3e
       -0.02645312 1.0036777 -3.856251 0.22401884
000160 dc 26 09 3f af d0 8c 3f d6 40 1a 3f 34 c4 02 3f
       0.5357492 1.1001185 0.6025518 0.5108063
000170 36 70 52 be 84 5d b8 be cb dc 8d bd a4 3f 37 3e
       -0.20550618 -0.36008847 -0.069268785 0.1789537
000180 45 2d 5b 3f 51 81 0e 3f 90 8d 72 c0 8a fd 48 40
       0.8561595 0.5566607 -3.7898903 3.1404748
000190 b1 aa 7b bf 20 3b 30 3f c2 da 0d bf 52 99 f3 3e
       -0.9830733 0.6884022 -0.5541192 0.47577912
0001a0 75 20 58 bf 9c 5f 71 3f f6 e5 81 3f f0 5c 91 3f
       -0.84424525 0.94286513 1.0148304 1.1356487
0001b0 d1 2d f4 3c 07 0d 9a 3f cd a2 77 be 0d 9e 30 bf
       0.029807003 1.2035226 -0.24183197 -0.68991166
0001c0 cc 3a 1d be 60 a6 06 bc 40 5f f7 bb e6 c5 06 be
       -0.1535446 -0.008218378 -0.0075491965 -0.1316143
0001d0 ee 65 b0 bd a0 08 87 be a5 09 43 be 4a ae 74 3e
       -0.086131915 -0.26373768 -0.19046648 0.23894611
0001e0 92 a4 88 be 5b 8e 82 be 40 a5 ff 3d 10 76 4e 3d
       -0.26688057 -0.25499234 0.12482691 0.050405562
0001f0 f9 40 68 be c4 e8 b5 bd a2 58 c2 c0 58 52 82 3f
       -0.22681035 -0.08882287 -6.0733194 1.0181379
000200 7a 5a 3a c1 e4 0b 09 bf 35 c9 8e bf 31 d6 f9 bf
       -11.647089 -0.5353377 -1.1155154 -1.9518491
000210 ec f7 5e be 20 21 27 c0 73 bf df be 36 73 4e bf
       -0.21774262 -2.6113968 -0.43700752 -0.8064455
000220 74 70 84 3f 70 0a 02 bf 71 48 8d bf 6d 12 1b 40
       1.0346818 -0.50797176 -1.1037732 2.4229996
000230 ed 9f c1 bf 13 b8 05 40 eb f7 a4 c0 26 22 0a c1
       -1.512693 2.08936 -5.1552634 -8.633337
000240 13 83 5c c0 0a 6b a4 bd 3e 85 25 c0 93 14 12 c0
       -3.4455001 -0.080282286 -2.5862575 -2.2825058
000250 c5 d7 81 bf c7 51 15 bf 59 f1 a7 3f cf 67 fb 3b
       -1.0143973 -0.5832791 1.3120528 0.007672287
000260 97 ed cd 3f ce 44 b6 3f 4d a8 ee bf 88 21 10 40
       1.6088132 1.4239748 -1.8645111 2.2520466
000270 5d e3 80 3f b9 3e 74 40 03 45 99 bf c9 49 c9 3e
       1.0069386 3.8163283 -1.1974186 0.39314106
000280 59 28 a7 3e 29 fa 30 3f ec cf 26 3f 8c 4c d6 3e
       0.3264797 0.69131714 0.65161014 0.41855276
000290 8b da 22 40 c2 53 ed 3f f4 41 74 bf cb d9 04 c0
       2.5445888 1.8541186 -0.95413136 -2.075793
0002a0 10 3c e9 bf 5b 04 72 40 1b f3 1b c0 96 32 76 be
       -1.8221455 3.7815158 -2.436713 -0.24042735
0002b0 01 2d 49 40 56 e9 c8 3f 0f 8a 3b 3e 4f 4d ac c0
       3.1433718 1.5696208 0.18314384 -5.384437
0002c0 2d b5 1b 3e 10 17 1c 3d 13 46 0e c0 92 43 f9 be
       0.15205832 0.03810793 -2.223027 -0.48684365
0002d0 a7 27 01 bf cc 0d 05 c0 04 15 2e 40 8d 8e 0a c0
       -0.5045113 -2.078967 2.7200327 -2.1649506
0002e0 5a fb 62 40 5f 9a ab c0 e0 d2 98 3e 85 63 dd 3f
       3.5465913 -5.362594 0.29848385 1.7295996
0002f0 f6 e8 4e 3d 7a 23 0e be 60 58 49 3d d3 e7 9d be
       0.050515138 -0.1388072 0.049156547 -0.3084093
000300 dd d6 13 c0 0f 6b e8 bf 6e 3e b6 be 8a ed 6d 3f
       -2.3099892 -1.8157672 -0.35594505 0.9294058
000310 b9 24 b4 3f 58 68 6f 3f f9 51 59 c0 fb a4 07 3e
       1.4073707 0.9351859 -3.3956282 0.13246529
000320 7c 67 95 bf 23 71 03 3f 81 61 1e bf 4f d8 b5 3e
       -1.1672206 0.5134451 -0.6186753 0.35516593
000330 bb 8f aa bd f6 c5 c2 be 68 91 d0 3f 2b 98 84 3f
       -0.08328196 -0.38041657 1.6294374 1.0358938
000340 c2 ca f8 3d 67 69 ed bc 5e ac df 40 d2 62 c2 bf
       0.12148048 -0.028980924 6.989791 -1.5186408
000350 d8 85 0b 41 33 a3 c4 bf 1d 35 8b be d1 72 67 be
       8.720177 -1.5362304 -0.2718896 -0.22602393
000360 e9 6c cb 3e 3d be 18 be 2c 67 cc bc 45 35 34 3e
       0.3973153 -0.1491632 -0.02495154 0.17598446
000370 8e ff 17 3f 98 5c e4 3f 2f 17 79 3e 34 b9 11 c0
       0.5937432 1.7840757 0.2432525 -2.276929
000380 98 65 ab 3f df 44 3b 3f 99 d3 0d c0 24 ff dd bf
       1.3390379 0.73151964 -2.21604 -1.7343488
000390 f5 53 22 40 3a eb 0f 3f 70 0e ad c0 e8 84 73 3f
       2.5363743 0.562183 -5.4080124 0.95124674
0003a0 2f 91 cb 3d dd fe af 3d 39 c8 30 c0 63 7e 28 c0
       0.09939801 0.08593533 -2.7622206 -2.632714
0003b0 af a6 be 3d 80 8f 5f c0 e6 ea 60 bf 4c 61 18 40
       0.09309136 -3.4931335 -0.87858427 2.3809385
0003c0 38 ac 81 bf 5b 30 86 bf 97 86 63 3e 93 45 f1 be
       -1.0130682 -1.0483507 0.2221931 -0.47123393
0003d0 7f af 8b 3f e5 6f 96 3f 7a 9e 1c 3f d1 ad f1 3e
       1.0912932 1.1752898 0.61179316 0.47202924
0003e0 63 02 9f 3f 0d be 7e bf 6a e8 fb 3f e9 59 ba 3f
       1.2422603 -0.99508744 1.9680302 1.4558688
0003f0 57 d8 c8 3f 3d 4f 21 40 09 b8 f9 3d b4 be 1b c0
       1.5691022 2.5204613 0.12193305 -2.4335146

net.0.bias f4 [128]
000000 81 67 73 be f6 15 e2 be 16 ec 54 be e9 4e 05 bf
       -0.23769952 -0.4415738 -0.20793185 -0.5207353
000010 e1 5e dc 3e fc f6 95 3e b3 d8 f0 3e 72 13 12 3f
       0.43041137 0.29289997 0.47040328 0.5706092
000020 ec 55 a9 3d db 60 3c bf 38 1a 39 3d 40 64 92 3e
       0.082683414 -0.7358529 0.04519102 0.2859211
000030 94 c9 14 3f 5b c4 b0 3f 3e 35 cf 3d fe 0b 88 bf
       0.58120084 1.3809923 0.10117577 -1.062866
000040 0c 4b 94 3f 1c b5 95 3f e4 9f 04 3f ef 0a c1 3e
       1.1585402 1.1695895 0.51806474 0.37703654
000050 86 8b a8 be 18 f2 2a bf 5a 5b 98 3c 46 0e 2a 3e
       -0.32918948 -0.66775656 0.018598247 0.16607007
000060 00 91 1e bc 59 dc 4f 3e c3 c7 1d be 79 d0 ce 3f
       -0.009678125 0.202989 -0.15408234 1.6157371
000070 d9 d2 75 3f c5 82 51 3f 32 96 e2 3f 1d 89 1b 3f
       0.96024853 0.81840163 1.7702086 0.60756093
000080 e1 9f dc 3f 7f 80 a4 3f fb 1c b0 3f 1b eb a1 be
       1.7236291 1.2851714 1.3758844 -0.31624684
000090 d7 f6 ef 3f f4 a2 ee 3f 5a 97 2e be 2b 13 59 3f
       1.8747205 1.8643479 -0.17049924 0.84794873
0000a0 2d 7e 79 3f 80 2d e1 bb 22 cf 8e bd 38 45 55 3f
       0.97458154 -0.006871879 -0.06973101 0.83308744
0000b0 8d 27 8f 3f 74 76 26 be 7a ff 88 3c bf 86 bd 3f
       1.1183945 -0.16256124 0.016723383 1.4806746
0000c0 da 17 8e bd 6a f7 cd 3e 6f e0 7c be dd 50 29 3e
       -0.06938143 0.40227824 -0.2469499 0.16534753
0000d0 60 86 4e 3c 8b 84 55 3e 90 65 b6 be 7a e9 1d be
       0.01260528 0.20851342 -0.3562436 -0.15421095
0000e0 d2 e1 d2 bc ef 2a 10 bf 94 77 02 3f ac 94 7e bf
       -0.025742445 -0.5631551 0.5096371 -0.99445605
0000f0 1e 17 21 3e d7 f6 4d bf 1e 51 34 be dc 50 98 be
       0.15731475 -0.8045477 -0.17609069 -0.2974919
000100 67 8f 15 3d 15 f5 8d 3f d6 0b 82 3e af 16 68 3f
       0.036513712 1.1090418 0.25399655 0.9065961
000110 10 cc 3c be 49 b7 ea 3f 02 ab 07 3f 2d 89 15 3f
       -0.18437219 1.8337184 0.5299531 0.5841244
000120 72 85 82 3e ff bb 12 3e a9 b9 87 3e eb 4b be 3e
       0.25492436 0.14329527 0.26508835 0.37167296
000130 00 45 d9 3d f5 f0 10 bf 6a 93 71 3f 96 78 5b 3e
       0.10608864 -0.5661767 0.9436556 0.21432719
000140 74 e2 08 bf 0f bf 12 be a3 67 2b 3f 3c f3 8d bf
       -0.5347054 -0.14330696 0.6695501 -1.1089854
000150 92 bd 97 3e a1 9c 0d bf 5e f1 b4 3e cc 48 c9 3f
       0.29636818 -0.5531712 0.353404 1.5725341
000160 56 9a 9a bd 0c 38 7e 3f 80 6e 96 3e d7 c0 b0 3f
       -0.075489685 0.9930427 0.2938118 1.380885
000170 51 4a c1 3f 67 44 d3 3f 91 ee bd 3e 50 39 e7 3c
       1.5100805 1.650525 0.37096074 0.02822557
000180 0a 2e 01 3e 9f 7e 75 be 25 eb 3a 3e 50 52 56 3f
       0.12615219 -0.23974083 0.18253763 0.8371935
000190 fc 2e 98 be 00 74 19 bd 97 e2 ad 3f 67 6e 78 3e
       -0.29723346 -0.03746414 1.3584775 0.24260865
0001a0 ff 31 a4 be 2f c2 32 3e 70 f7 94 bd b7 00 39 3e
       -0.32069394 0.17456888 -0.072737575 0.18066679
0001b0 1f 91 7a 3d a3 99 34 3f d0 09 17 3e 52 71 98 3f
       0.061173555 0.7054693 0.14749837 1.1909583
0001c0 ff 47 bb 3d 70 75 fe 3d a7 c8 e4 bf 47 2d a3 be
       0.091445915 0.12424743 -1.7873734 -0.3187048
0001d0 aa 38 17 3f 88 bb c2 3f eb 17 ad be 65 bf 6c be
       0.5907084 1.521348 -0.3380731 -0.23119886
0001e0 28 9f e2 3f ad 99 39 3f 51 ad ac bf e1 8f 24 bf
       1.7704821 0.72500116 -1.3490392 -0.6428204
0001f0 b5 66 15 40 d8 20 74 3f a0 54 63 3e ed 39 8e 3f
       2.3343937 0.95362616 0.2220025 1.1111428

net.2.weight f4 [64, 128]
000000 99 5a 4c 3d f2 f9 5b 3d 20 ec 70 bb ec 04 24 3d
       0.04989109 0.053705163 -0.0036761835 0.040043756
000010 57 47 8a bd 0c 3c 42 bd ce 7c 4a 3d 11 c4 9c 3d
       -0.06751888 -0.047420546 0.04943543 0.07654584
000020 40 97 b5 bb a2 6b c2 3c ea a4 b1 bd 5b 1a b9 bd
       -0.005541712 0.023732964 -0.08674033 -0.0903823
000030 13 7a 57 3d 1c c0 33 bd 52 26 24 3d 35 10 ae bd
       0.052606653 -0.04388438 0.040075608 -0.08499185
000040 a2 91 19 3d 62 a2 be bd ca 39 8e 3b 3d be 8d 3d
       0.037492402 -0.09308316 0.004340385 0.06921051
000050 6e 1f 09 3d 95 68 e5 3c 28 0e 52 3c d4 ae 2f bd
       0.03347724 0.02800397 0.012820758 -0.04289134
000060 49 99 93 3d df 2f 30 bd 01 40 87 3d 62 4f 38 3d
       0.07206971 -0.043014403 0.06604005 0.04499758
000070 02 0a b5 bd b5 f2 9a bc fb 84 87 bd c6 97 70 bd
       -0.088397995 -0.01891456 -0.06617161 -0.058738492
000080 0a 7f 73 bd 6b 52 97 3d 75 fb a7 3d c0 97 57 3b
       -0.059447326 0.07388767 0.082022585 0.0032896847
000090 06 55 42 3d 72 f8 91 3d a5 57 b7 bc 97 df 71 bd
       0.047444366 0.07127465 -0.02238066 -0.059051123
0000a0 f4 e1 72 3c 9b 0d 85 3d ae 91 14 3d 87 fe 8a 3d
       0.014824379 0.06496736 0.036271743 0.067868285
0000b0 5b 85 1d 3d 3a 36 16 3d af a3 63 bd 0b 35 02 bc
       0.038457256 0.03667281 -0.055576023 -0.007947217
0000c0 ee 65 79 bd 55 8f a9 bc 4a 7a 0e 3d 10 1b d0 3c
       -0.060888223 -0.020698229 0.034784593 0.02540353
0000d0 4f 06 46 bd c1 21 4a bd b1 b1 91 3d 80 58 10 bb
       -0.04834586 -0.049348596 0.0711397 -0.0022025406
0000e0 74 fe 10 bd be c6 36 bd b5 80 23 3c 41 24 1b 3d
       -0.035398915 -0.04462313 0.009979417 0.03787637
0000f0 65 c4 c4 bd 60 0c 16 bd 78 02 c4 3c 07 da 8a 3d
       -0.09607772 -0.036632895 0.023926958 0.06779867
000100 78 66 58 3c 37 25 21 3b 9f 0e b9 bd d1 92 82 3d
       0.013208024 0.0024588832 -0.09035992 0.06375659
000110 c7 c1 b3 3d e0 d9 d3 bc 3a bd 03 bc 6c fc 39 bd
       0.087771945 -0.025860727 -0.008040721 -0.045406744
000120 29 18 90 bd 70 a6 6c bc 14 56 62 3d 83 c9 63 bc
       -0.07035858 -0.014443979 0.05525787 -0.013903025
000130 2a ef 66 3d c6 46 18 3d 56 64 96 3c d5 a7 25 bd
       0.05638043 0.03717687 0.01835839 -0.04044326
000140 95 4f ab 3d 8c de ab bc 9b 40 92 bd bd 83 48 3b
       0.083647884 -0.020980142 -0.07141229 0.00305961
000150 7a a9 95 3d 1e 7f a9 bd b2 66 4c bd 9e 9f c2 bd
       0.07307716 -0.08276199 -0.049902625 -0.09503101
000160 43 18 a2 3d b0 fb 8a 3b 07 25 12 bd 50 3d ca bd
       0.07914784 0.0042414293 -0.035679843 -0.09874976
000170 73 af a8 3d d0 d3 cb bc ee 76 30 bd 43 af b2 3d
       0.08236589 -0.024881274 -0.04308217 0.08724835
000180 f1 e8 90 bd c5 79 45 bd 3f b9 d8 3c 01 4b 26 3d
       -0.0707568 -0.04821183 0.02645552 0.040598873
000190 d2 91 b9 bc 9e 80 29 3d bc 36 bc bc 42 02 61 3d
       -0.02265254 0.041382425 -0.022975318 0.054933794
0001a0 73 e7 f4 bc 97 6e 8f bc 00 08 5a b9 d6 84 36 3d
       -0.02989552 -0.017508788 -0.0002079308 0.044560276
0001b0 bd 3c 8a bd 0d 0d 24 3d 5f 31 c5 bd e5 75 88 3c
       -0.06749866 0.04005151 -0.096285574 0.016657779
0001c0 54 d1 9c 3c 8e 92 5f 3d 35 21 6c 3c 1f 6f fa 3c
       0.019142784 0.054583125 0.014412214 0.030570565
0001d0 16 80 f3 bc 33 e5 9b bd 92 ed 96 3c 9e 7b 69 3d
       -0.029724162 -0.07612076 0.01842383 0.057002656
0001e0 06 66 ac bd c5 32 ea 3c a8 a9 48 3c a0 99 73 bd
       -0.08417897 0.028588662 0.01224748 -0.05947268
0001f0 10 6f 7c bd ae c0 60 3d 2c 43 90 bd 60 80 90 bd
       -0.061629355 0.054871254 -0.07044062 -0.070557356
000200 dc 32 8b 39 41 2c 8d bd 1c 76 d7 bc 50 e8 8a bd
       0.0002655004 -0.068932064 -0.026301436 -0.06782591
000210 16 8d 90 3d d5 60 0b bd 82 21 d9 bc dd 80 97 bd
       0.0705816 -0.034027893 -0.026505236 -0.073976256
000220 72 fc 0c 3d a7 c5 05 bd 5e 86 a9 bd 81 f1 51 3c
       0.034420438 -0.0326592 -0.08277582 0.012813927
000230 20 35 53 3b 7e ac 64 3d b0 8c 53 bd 51 99 ff bc
       0.003222771 0.055828564 -0.051647842 -0.031201037
000240 ad a1 56 3d 57 aa 96 3c ce 01 a9 b9 ee d8 87 bc
       0.05240028 0.018391771 -0.00032235536 -0.016582932
000250 dc c4 c5 bd 65 aa b2 bd 85 7b 92 3d 0a 44 57 3d
       -0.096566886 -0.087239064 0.07152466 0.05255512
000260 2f 30 94 bd a7 36 a0 3c 68 42 05 3c be d8 1e 3d
       -0.07235753 0.01955731 0.008133508 0.03878092
000270 05 78 80 3d a7 f1 98 bd f2 cb 9c bc 1f e4 7c bd
       0.06272892 -0.074679665 -0.019140217 -0.06174099
000280 c3 5e a3 3d 08 fe 82 bc 88 ec 0c 3d d0 ca e8 3b
       0.07977059 -0.015990272 0.03440526 0.0071042553
000290 13 67 24 bc 8f d6 74 bc 6a ef 50 3d ac 63 8b bd
       -0.01003434 -0.014943733 0.051009573 -0.0680612
0002a0 7e bf 81 bd 30 7f c3 bc f8 28 9e bd d0 58 70 bd
       -0.06335352 -0.023864359 -0.07722658 -0.05867845
0002b0 47 db cd 3c 38 25 fe 3c 24 f8 a7 bd fe 83 b0 3c
       0.025128974 0.031023607 -0.08201626 0.021547314
0002c0 59 98 53 bd aa 9f eb bc 6c 8c 84 bd a4 6c b3 bd
       -0.051658962 -0.028762657 -0.06472096 -0.08760956
0002d0 a3 91 8d 3d a8 8f 8d bc 52 fe 67 bd 50 02 67 bd
       0.069125436 -0.017280415 -0.056639023 -0.05639869
0002e0 90 31 19 bc a6 48 f4 3c f2 2c 32 3d 38 3e 89 bb
       -0.0093501955 0.029819798 0.043499894 -0.0041883253
0002f0 01 dd 95 3d 04 05 97 bd eb 5a 97 3d 80 b3 7f 3b
       0.07317544 -0.073740035 0.07390388 0.0039016902
000300 42 d7 55 3d dd bd 2c 3d c9 3a 7d bd bc b2 98 bd
       0.05220724 0.042173255 -0.06182364 -0.07455966
000310 29 70 aa bd c3 3d 0c bc d1 6c a0 3c a2 42 c0 bc
       -0.08322174 -0.008559647 0.019583138 -0.023469273
000320 4d 94 4e bd 8c f8 bf bc 04 75 35 3d 43 a4 e4 bc
       -0.0504344 -0.023433946 0.044301048 -0.027910357
000330 08 fe 08 bc 56 25 86 bd f6 cf 4d 3d ee e0 5b 3d
       -0.008361347 -0.0655009 0.050247155 0.053681307
000340 16 25 62 bd 40 ad 8d bb 6f 0c 86 3d 89 12 2a bd
       -0.05521115 -0.0043236315 0.0654534 -0.041521583
000350 ce 0c 7f 3d 10 2c e7 bd 3a 90 66 3d 14 ca 8b bc
       0.06226807 -0.11287701 0.05628989 -0.017064132
000360 e9 85 80 3d 13 a3 2a bc f4 b6 d4 3c a6 e6 b1 bd
       0.06275541 -0.0104148565 0.025966145 -0.08686571
000370 3d f3 16 3d b0 77 63 bc 98 65 12 3c 6f 35 8c 3d
       0.036853064 -0.013883516 0.008935355 0.06846129
000380 6e a1 74 bd 8c 95 e0 3c 77 36 80 3c 0e 4f e9 bb
       -0.059724264 0.02741506 0.01565097 -0.0071200198
000390 47 0e 6f bd 80 5e 8e ba 50 b1 5c bd 78 7e a5 bc
       -0.058363225 -0.0010861903 -0.053880036 -0.020201907
0003a0 95 42 82 bc 5e 8d db bd 60 08 53 bc fe 38 a9 bd
       -0.01590089 -0.10720323 -0.012880415 -0.082628235
0003b0 c7 bb 9e 3d 11 98 d7 bd 81 52 60 3d fd 5d da bc
       0.077506594 -0.10527051 0.05476618 -0.026656145
0003c0 40 af f9 bc bd df a9 3d 87 6f aa bc a3 e7 30 bc
       -0.030479074 0.08294628 -0.020805134 -0.010797414
0003d0 4c 82 41 bd d2 d4 e2 bd 13 1f bf 3c 50 e7 d6 3c
       -0.0472434 -0.110757485 0.023330247 0.026233345
0003e0 73 b4 8d bd 98 c2 23 bd ca 16 f3 bc da 58 04 3d
       -0.069191836 -0.0399805 -0.029673953 0.032311298
0003f0 8a 63 40 bd 96 e5 98 bd 55 5c c8 bd fb 36 8d 3c
       -0.046969928 -0.07465665 -0.09783236 0.01723813

net.2.bias f4 [64]
000000 1d 6e a6 bd 38 17 09 3d b3 e0 03 3e d6 70 aa 3e
       -0.08126471 0.03346941 0.12878685 0.33289212
000010 26 27 64 b9 4b 63 60 3d 40 08 a7 bb 41 d1 8b 3e
       -0.00021758358 0.054782193 -0.005097419 0.27308086
000020 eb b5 fc 3b 47 8b c4 3f 3d 37 21 3e dd 6f 4f be
       0.007712116 1.5355004 0.15743728 -0.20257516
000030 a4 1c f9 3c 09 d1 78 3e 1e 08 05 3f df 6d e0 3d
       0.030409165 0.2429849 0.5196551 0.10958456
000040 ea eb ef 3c 24 13 ca 3c 50 d9 6f 3d f9 29 26 3d
       0.029287297 0.02466733 0.058556855 0.040567372
000050 be fe 09 3f 1b 4b d9 bd 7b 7c 74 bb 65 8c a6 3c
       0.5390433 -0.10610028 -0.0037305641 0.020330617
000060 5e 15 ff 3c e0 c9 ba 3c 92 06 07 3f 30 e1 a7 bc
       0.031138118 0.02280134 0.527444 -0.02049312
000070 d8 0e ee 39 30 52 18 bd d4 81 f1 3e 28 98 91 3b
       0.00045405957 -0.037187755 0.47169363 0.0044431873
000080 04 8b 50 bd 73 62 56 bf ed e9 00 3d 69 0b 5e 3d
       -0.050913826 -0.8374397 0.03147309 0.0542101
000090 86 96 6d 3c 03 36 1e bf 4b a6 71 3e dc b0 71 3f
       0.01450122 -0.61801165 0.23598592 0.9441049
0000a0 30 93 e0 3e 0f 01 ac bd 58 b5 19 bd 37 af 0e 3f
       0.43862295 -0.083986394 -0.03752646 0.55736107
0000b0 90 b0 0f bc 32 6f cc bd ed 03 e1 3e 7a 9a 6b bd
       -0.008770123 -0.09982146 0.43948308 -0.057520367
0000c0 92 44 ef bc dc 39 15 3f 33 f3 7f be 8a 0f 7d bc
       -0.029207502 0.5829141 -0.24995117 -0.015445599
0000d0 1c 89 1a 3e de 26 3a 3d 00 d6 ab bd e0 cc 03 3f
       0.15091366 0.045447223 -0.08390427 0.5148449
0000e0 a1 b1 e2 3c 84 ed b9 3c 8e 1d 27 3d 48 79 22 3e
       0.02767259 0.022696264 0.04079967 0.15866578
0000f0 87 db a8 bd df 22 f8 3c df 69 96 3c 73 6f e5 3f
       -0.082449965 0.030290065 0.01836103 1.7924637

net.4.weight f4 [4, 64]
000000 aa c2 cc bd b5 67 b8 bb 53 25 dc bf f1 f3 a8 c0
       -0.09998067 -0.005627597 -1.719889 -5.279778
000010 f9 e2 69 3d 94 27 03 3d 92 04 b0 bd d5 17 db c0
       0.057101224 0.032020167 -0.08594622 -6.846659
000020 bb 77 33 bd e6 ff 87 c0 9f c1 bb 40 88 23 91 40
       -0.043815356 -4.2499876 5.8673854 4.5355873
000030 05 b2 95 3c 7b c6 97 c0 8d 82 8b c1 dc b0 89 41
       0.018273363 -4.7429786 -17.438745 17.211357
000040 33 e2 ba 3c b0 e0 45 bd 20 72 26 3d 65 b4 55 bf
       0.022812938 -0.04830998 0.04063618 -0.83478385
000050 94 ca 50 c1 ae 5e bc c0 66 e5 94 3c 7d eb bb 3c
       -13.049458 -5.8865576 0.018175792 0.022939438
000060 68 24 a1 3c fa 34 2f 3d b8 3c 40 c1 c7 9b ff bd
       0.01967068 0.04277513 -12.014824 -0.12480884
000070 85 c1 b8 bd 56 41 07 3d 3e 3d ad 40 9f b4 84 bd
       -0.09021286 0.033021294 5.413726 -0.06479763
000080 00 36 cc 3c 05 35 d2 40 3e da e1 3d 34 90 b6 c1
       0.024928093 6.568972 0.110279545 -22.820412
000090 d8 53 10 bc 86 4a ec c0 a2 a3 af c0 62 fc 9a 40
       -0.008809052 -7.384097 -5.4887247 4.8433084
0000a0 44 7f 2e c1 19 ff c2 3d c5 00 65 bd 69 99 0e 41
       -10.906071 0.09521312 -0.055908937 8.912454
0000b0 00 e6 5a bd 4f a7 10 3d 8e 94 58 c1 00 69 78 3c
       -0.053442 0.035315808 -13.536268 0.015161753
0000c0 c8 60 d9 bb 95 66 b0 bf 9e 06 d0 c0 6f eb 9f 3d
       -0.0066338517 -1.3781306 -6.500808 0.07808577
0000d0 d4 49 56 c1 dd fd cd c0 27 1a 37 bf 09 b9 1e c1
       -13.393024 -6.437239 -0.7152428 -9.920175
0000e0 2d ec 83 3c cf c8 7e 3d e1 41 4d 3d 5b 84 20 41
       0.016103828 0.062203225 0.050111655 10.032313
0000f0 2e 3b 35 3b 9c a5 b4 c0 07 c1 b9 c0 c2 fa 1f 41
       0.0027653682 -5.645216 -5.804813 9.99872
000100 15 19 79 bc ae 52 b3 bd ef d2 f5 c0 df 0a 8f c0
       -0.015203734 -0.08756004 -7.6819987 -4.470077
000110 08 02 99 bd c8 3d 09 3c 2c b6 7e 3c 8b 76 02 c1
       -0.074710906 0.008376546 0.015546363 -8.153941
000120 9e 91 f1 3d f0 e9 27 c0 e5 d8 b5 40 41 7e 8e 40
       0.117953524 -2.6236534 5.6827264 4.452912
000130 28 27 80 bc b1 c0 d7 c0 59 27 4d c1 d3 c9 93 41
       -0.015643671 -6.742272 -12.822106 18.473547
000140 f5 47 73 3d 7e 19 80 3d 7e e6 82 3d 27 34 c9 c0
       0.059394795 0.06254862 0.06391619 -6.2876163
000150 4f c8 3f c1 b4 c2 5c 3f e7 44 64 bc df 9d ab 3d
       -11.986403 0.86234593 -0.013932443 0.08379721
000160 74 a9 ac bd 38 74 98 3c cb 92 5d c1 e8 e9 7d 3d
       -0.08430758 0.018610105 -13.848338 0.06199065
000170 60 e1 93 bc 1b de ee 3d a8 7c d0 3f c4 a8 97 3d
       -0.018051803 0.11663457 1.6288042 0.07405236
000180 12 eb 42 bd ca 42 e8 40 6c 2b c8 3d ef c8 ba c1
       -0.04758746 7.258153 0.09773907 -23.348112
000190 6c bb 8d 3d c4 31 ca c0 32 b4 a6 c0 eb 2b b8 40
       0.069205135 -6.318575 -5.2094965 5.755361
0001a0 52 13 ec c0 0d df 40 3d 22 23 84 bc eb fb 16 41
       -7.3773584 0.047087718 -0.016130034 9.436503
0001b0 10 3d 2b bc b7 63 3b 3d 0c 7b 51 c1 48 3a ee 3c
       -0.01045157 0.045749392 -13.092541 0.029080525
0001c0 04 78 c9 bd 43 10 70 c0 2e bb da c0 22 e8 dc 3d
       -0.09837344 -3.7509925 -6.835349 0.10786463
0001d0 0d 2c 88 c1 eb cf d3 c0 f4 d3 1a bd 5d 9b 5e c1
       -17.02151 -6.6191306 -0.03779979 -13.9129305
0001e0 bb c9 3e 3c a2 04 0b 3c b4 b1 01 3e ec a0 27 41
       0.011644776 0.008484991 0.12665445 10.476788
0001f0 c0 d6 b1 3d f2 4d 9c c0 f6 b2 fc c0 7c 07 23 41
       0.086835384 -4.884515 -7.896846 10.189327
000200 60 80 e3 bb ef a1 d4 3d 30 92 f9 c0 94 6f e4 c0
       -0.0069427937 0.10382449 -7.799095 -7.1386204
000210 42 99 e9 3c e8 f7 06 3d 5c b3 e0 3d cf 30 f7 c0
       0.028515462 0.032951266 0.1097171 -7.724708
000220 b8 8e 52 3d a5 67 58 c0 0d 6b ae 40 e1 aa 8e 40
       0.05140564 -3.381326 5.4505677 4.4583592
000230 05 ab 33 3c 22 67 0b c1 88 a5 84 c1 4e b8 2c 41
       0.010966067 -8.712679 -16.580826 10.794996
000240 1b b9 e2 3c 00 f2 d3 b9 2c 6e 02 bd be d8 62 c0
       0.027676156 -0.0004042536 -0.03184335 -3.544479
000250 ce 26 46 c1 8c 82 8b c0 39 ea 38 bc 6a 8a e4 3d
       -12.384474 -4.359686 -0.011286312 0.11159213
000260 be bf ba 3d 9a c4 5c 3c cb a6 64 c1 a0 84 73 3c
       0.09118603 0.013474608 -14.290721 0.014863163
000270 60 45 95 bc 86 cd 0d 3d e9 f2 b4 40 a6 88 9c 3d
       -0.018221557 0.03461983 5.654652 0.07643251
000280 5e f9 aa 3d 5b 9f de 40 85 12 f4 3c 77 ca b9 c1
       0.08348344 6.9569526 0.029793987 -23.22386
000290 9f 84 38 3d 89 65 cb c0 42 ec a4 c0 92 be b3 40
       0.045048352 -6.3561444 -5.15384 5.617013
0002a0 c9 e2 0e c1 eb 5f a3 bc 5e 68 cb 3d ff 01 0b 41
       -8.930367 -0.019943198 0.09932016 8.687987
0002b0 80 29 7c 3b 2f 12 9a bd e9 c7 4e c1 78 cb 92 bd
       0.0038476884 -0.075229995 -12.923806 -0.07167715
0002c0 e6 19 e3 bd 02 fa 25 c0 6f d3 f2 c0 77 0f dd 3d
       -0.11088924 -2.5933843 -7.58831 0.10793965
0002d0 a7 d3 92 c1 3a cb a4 c0 15 f2 9e 3f f1 26 20 c1
       -18.353346 -5.149808 1.2417628 -10.009507
0002e0 1a 99 b4 bd fa 99 92 bc 1a 8c ef bd 93 45 1f 41
       -0.08818264 -0.017895687 -0.11696644 9.954486
0002f0 66 31 f8 bd b2 33 a2 c0 01 9e c3 c0 19 47 1e 41
       -0.12118797 -5.0688105 -6.1130376 9.892358
000300 a4 df 41 bd cb 3f 92 3d 7c 81 0c c0 ca d6 16 c1
       -0.04733242 0.07141074 -2.195403 -9.427439
000310 61 dd c0 3d 3b cd a5 bc 8b 3e 80 3d 61 c4 65 c0
       0.09417225 -0.020239463 0.06261929 -3.590111
000320 f3 3e 4c bd 6c 1d 97 c0 8c e5 c8 40 ca da 94 40
       -0.04986472 -4.7223415 6.278021 4.6517076
000330 10 bc c6 3d 12 55 3d c1 51 62 88 c1 e1 5a 8f 41
       0.09703839 -11.833269 -17.048006 17.919374
000340 c3 b7 85 3d fa 0a f8 bd eb 40 75 3c 26 92 21 c0
       0.065291904 -0.121114686 0.014969091 -2.5245452
000350 ea c6 46 c1 7f 57 87 c0 25 20 43 3b 9e ae 62 bd
       -12.423563 -4.2294307 0.0029773798 -0.05534231
000360 f8 d7 04 bd 0d bb 13 be 5b c0 27 c1 76 a9 c2 3d
       -0.032432526 -0.14426823 -10.484462 0.09504978
000370 20 a5 76 bc 73 39 9f 3d 3c 2c 16 3f 18 43 cb bd
       -0.015054017 0.077746294 0.58661246 -0.099249065
000380 6a c2 f1 3d a4 59 ea 40 98 72 d1 bd c6 d9 ad c1
       0.1180466 7.3234425 -0.10226935 -21.731335
000390 07 7c c0 3d 85 c1 06 c1 08 96 08 c1 31 51 9c 40
       0.09398656 -8.422246 -8.536629 4.884911
0003a0 f1 1f 1c c1 a5 25 94 3c cd 88 ec 3d fe ff 1e 41
       -9.757798 0.018084357 0.1154953 9.937498
0003b0 d2 21 fe bd 4c 18 c4 3b 8a 51 36 c1 68 fd c8 bc
       -0.124087945 0.0059843417 -11.394907 -0.024534896
0003c0 a8 df 9e bd 21 9e 3c bf 67 af 06 c1 7b dd 77 3d
       -0.07757503 -0.73678786 -8.417823 0.060513955
0003d0 61 fe 7a c1 78 38 a1 c0 a9 89 5c bf cd 0e 1b c1
       -15.687104 -5.038143 -0.8614755 -9.691113
0003e0 ba 31 12 bc 74 a7 5d 3d 6f be 63 bd ef 2c 2e 41
       -0.008922989 0.054114774 -0.055601534 10.88597
0003f0 18 2a 9c bd 65 c7 9c c0 f8 26 d1 c0 f2 91 20 41
       -0.07625216 -4.89934 -6.536007 10.035631

net.4.bias f4 [4]
000000 bb f6 79 3f b0 92 dc bf 8c f5 2a 40 3a cc aa c0
       0.97642106 -1.7232265 2.671237 -5.33743
