modelo_dqn_hard.pth (torch, 279605 bytes, 6 tensors)

fc1.weight f4 [256, 8]
00000000: 5ef0 0c3e bcb1 3b3e 636b 383e 5bc8 bcbd
00000010: 4c48 fa3b fa6d 283e 1a26 acbd 60ca d63e
00000020: f89b bdbd f02a 8bbd a0fc 84bc df36 a2be
00000030: 40b6 c73b 54f9 e63d 5637 19be dc1a da3d
00000040: 7024 ffbd 0970 f4be bba3 d63e ebb8 9d3d
00000050: 35e8 18bf b28d 953d f44e 593f 0243 6cbd
00000060: 1e8c b03e fc25 973e d562 213e dc98 5a3c
00000070: 4c9b b2be dadd 113b c3ba d73c 411a 43be
00000080: 2a5e b23e 0ddf 2bbe 812b 48be 15fa 39bd
00000090: a980 f3bd 09e1 2fbe c4c7 b4be b9ce 5b3e
000000a0: a933 2a3b 3572 d23c 990f 17be 9336 9b3e
000000b0: 45e0 29be d27d bd3e 65ad a23e 90cd 953e
000000c0: 92fd b2be 169d dabe d38d 983e 1d76 41be
000000d0: 53ee afbe 0ee1 07be 1b70 cbbe 310d 573e
000000e0: 9258 003e 30db 233e 9929 263d 37eb 3a3e
000000f0: d2c5 06be a800 8bbe 0114 b63e 7324 b1bd
00000100: eb09 a0be 6786 a63e 5654 55ba 848e c93e
00000110: f71e 9dbe 10cb c13e 31b9 e13e 43ae b13e
00000120: 7e27 d83d 3d29 e7be 8aa3 96be b5c5 bc3d
00000130: 65fc 593e 8474 023e 3a46 07bf 74d9 a73e
00000140: 3a69 b53e 316d a0be 3689 6cbe 69b2 813e
00000150: 76a8 963e 146e a53e 6d70 533e c20f e03c
00000160: 696c 93bd 6a01 b4be 646e 2e3d 94bc cabd
00000170: 75b4 dd3d 7d0c 7abc c83a 003f 4f2c 5b3f
00000180: cea4 bdbb ef71 8cb8 a37e dcbc b9ec bbbd
00000190: 9916 033e 4009 8a3c 728c 16be ac73 8c3d
000001a0: ba48 9b3e b034 fa3d 6785 af3d feaa 633e
000001b0: c0cb d13d c6ec bb3e ea9c e0bd a327 98be
000001c0: 2ce4 053e 6162 15bd 3a3b e0bb 5d0f c53e
000001d0: 750d 0b3d f705 db3e 48d5 bb3e 291f b2be
000001e0: 7a79 27be 9269 8c3e 4d3f b73e ef16 50be
000001f0: 7d8b c53e 707a 65ba eafc 3a3f 014b a8bd
00000200: fdd4 583e 16d3 07bf fa92 4d3e 6c9a 6bbd
00000210: 9ec3 853e fa6c febe a811 93bd 11fc abbe
00000220: 0c33 313b b3d5 9cbe c01b dc3e 684e c5bd
00000230: a0a6 0cbf 3800 8b3d 195c 303e 59fd d83e
00000240: 93c9 793e ec75 523e 871a 70be 87a5 44be
00000250: 09d0 843e 9e01 77be aabe 873d 646c 47be
00000260: 7169 f73d 2951 e4be e59b debe 3a8e c93d
00000270: d733 463e d3a1 b9be ff78 1dbd 48a9 203f
00000280: 63d5 783e 4185 3a3e 3e82 6cbe aeeb 6c3e
00000290: e802 29be 2138 83be c429 0d3e 8525 9ebe
000002a0: b1e7 293e 2295 3f3e 3bfd 7b3e 81de 9c3e
000002b0: 7f55 7f3e e44c 013f cbb3 c13e 2fda b6be
000002c0: c0df 2bbd 16c5 58be f602 fdbd 54c5 c9bd
000002d0: c44c 8fbe f131 aabe f861 903d 9d46 903e
000002e0: 60c5 a4bc 5744 38be 7546 a8be e8b4 c33d
000002f0: 5618 3f3e c018 43bd 6284 253e 8cef 96bd
00000300: 6cdf e93c 83bc 25bf 8a35 c2bd 3e42 0d3e
00000310: 571b bbbe 347b 89be 3c1d dd3e 8a1b b63e
00000320: b70d d53e db81 243e fa38 d5bd b046 c6bd
00000330: 3127 bc3e 0ffc 113e 5043 13be 3662 dabe
00000340: 3af5 6cbd f147 e23e 0e9f 46bd b832 3d3d
00000350: 569b 2ebe a2e0 49be e99e 9e3e eada 98be
00000360: a745 e9be 7e68 c53d 0673 283e 3d20 d4bd
00000370: b251 bd3d 02b1 f13e 6ce5 913d 3994 3a3e
00000380: 1681 6abe 184a 2abd 56fa 073e 602a 43be
00000390: 30f7 0dbe 682d 31be d065 113e 0051 08bd
000003a0: 000b cbbe 21fc cdbd e581 fe3e 2052 843c
000003b0: bbfe 79bd 0aa7 20bd 3f7c f33d 6944 e53d
000003c0: 5be1 1c3e bc22 88be 3ed5 903e 17f6 62bd
000003d0: 6206 013f 9834 aabe 1e19 2fbf 8e8d 7ebc
000003e0: 3d72 63be 33a3 b23e 0042 87bb 4cef 2dbe
000003f0: 6339 713e 168a 643e af02 f3bc 4512 96be
0.13763568 0.18329519 0.18009715 -0.09217902 0.007638013 0.16448203 -0.08405705 0.41951275
-0.09258264 -0.06795299 -0.016233742 -0.31682488 0.006094724 0.11278024 -0.14962515 0.10649654
-0.12458122 -0.47741726 0.4192179 0.07701286 -0.5972932 0.07302417 0.848861 -0.05768109
0.344819 0.29521167 0.15760358 0.013342109 -0.34884107 0.0022257478 0.026334172 -0.19052984
0.34837466 -0.16784306 -0.19547845 -0.045404512 -0.11889774 -0.17175688 -0.3530866 0.21465577
0.0025970733 0.025689224 -0.14752044 0.30315074 -0.16589458 0.37010056 0.31772915 0.29258394
-0.34959084 -0.42697972 0.29795703 -0.18892713 -0.34361514 -0.13269445 -0.39733967 0.21001126
0.12533787 0.16001582 0.040567014 0.1825379 -0.131614 -0.27148938 0.35562137 -0.0864953
-0.31257567 0.32524416 -0.0008137872 0.39366543 -0.30687687 0.37850237 0.44086602 0.34703264
0.105544075 -0.4514865 -0.29421645 0.09217397 0.21287687 0.1273976 -0.5284153 0.3278309
0.35431844 -0.31333306 -0.23099217 0.2533143 0.294254 0.32310545 0.20648356 0.027351264
-0.07198412 -0.3515733 0.042585745 -0.0989925 0.10825435 -0.0152617665 0.50089693 0.85614485
-0.0057874685 -6.696942e-05 -0.026915854 -0.09176011 0.12801589 0.016850114 -0.14702013 0.06858
0.30328923 0.122170806 0.08570366 0.22233197 0.1024394 0.3670408 -0.10967429 -0.2971774
0.13075322 -0.036470775 -0.006842998 0.38488284 0.03394838 0.42777988 0.36686158 -0.34789398
-0.16354933 0.27424294 0.35790482 -0.20321248 0.38582984 -0.00087539013 0.73042166 -0.08217431
0.21174999 -0.53056467 0.20075598 -0.057520315 0.26125807 -0.49692518 -0.07181102 -0.3359075
0.0027038483 -0.3063179 0.42989922 -0.096340954 -0.5494175 0.06787151 0.17222632 0.4238079
0.243933 0.20552796 -0.2344762 -0.19203769 0.25939968 -0.2412171 0.06628163 -0.19474941
0.12080658 -0.4459317 -0.43478313 0.09841581 0.19355713 -0.36256275 -0.03844547 0.627583
0.2430015 0.18214895 -0.23096558 0.2313678 -0.16505015 -0.2562876 0.13785464 -0.30888
0.1659229 0.18709233 0.24608319 0.30638507 0.24934958 0.5050795 0.37832484 -0.35713336
-0.04196143 -0.21168932 -0.123540804 -0.098520905 -0.27988255 -0.33241227 0.07049936 0.28178874
-0.020113647 -0.1799482 -0.32866254 0.095559895 0.18661627 -0.047631025 0.16163781 -0.07369909
0.028548919 -0.6474077 -0.09482868 0.137948 -0.36544296 -0.2685181 0.43186367 0.35567886
0.41612026 0.16065161 -0.10411258 -0.09681451 0.3674865 0.14256309 -0.14381146 -0.42653054
-0.057851054 0.44195512 -0.04849153 0.046190947 -0.17051443 -0.19714597 0.30980614 -0.29854518
-0.45560953 0.09639071 0.16450128 -0.103577115 0.09244098 0.4720536 0.07123837 0.18220605
-0.22900805 -0.041574568 0.1327909 -0.19059134 -0.13863826 -0.17302477 0.14198995 -0.033280373
-0.3965683 -0.100578554 0.49708477 0.016152442 -0.061033946 -0.0392218 0.118889324 0.11194689
0.15320341 -0.26589 0.2828769 -0.05541047 0.50400364 -0.3324325 -0.683977 -0.015536679
-0.22211547 0.34890136 -0.004127741 -0.16985816 0.23557048 0.223183 -0.029664366 -0.29310814

fc1.bias f4 [256]
00000000: bb37 78be 8f90 a43e 5e92 fc3e 0aae 8ebe
00000010: 0564 633e 1ccc e13d 634b 3b3e e0a2 553e
00000020: b101 7e3e fc82 97bd 52a5 0abd 91aa 933e
00000030: 5d5c 1ebd cb27 0abd 6840 563e a71d 0ebe
00000040: fcc7 893e 6e9d c33e f15c 4ebc b92c 42be
00000050: ec02 1dbe ad62 033e 8298 4e3e 61d4 69be
00000060: faad 723d 104e 38be 3b12 853e 360a 7cbe
00000070: b461 a6bd 55d4 073f f566 39bd 2acb 87bd
00000080: 93ff 6c3e 454b febd a62b 52bd 0466 ef3c
00000090: 123c 8cbe 92e4 c6be 4be0 393e 0838 db3e
000000a0: 3c7c e73d 1698 35be 1717 cbbd 40fd 8a3c
000000b0: 481e b63e a6a6 323e 41de d1bc 008b 09bb
000000c0: a49b ba3e bbe2 893e b9d9 ab3e ce23 64be
000000d0: 770e 993e fd53 48bd 5f12 813e b458 84be
000000e0: e746 4bbd 8f1e 893e 723b 08be ecbf 3dbe
000000f0: efe8 d13d c03f 17be cc47 d1bd c9ed 55be
00000100: 4e35 fbbd 89b0 e33d 9721 e73e 1a28 873e
00000110: 69d9 84be 04b9 633e 861d 9e3e 0225 5e3e
00000120: a720 91bd 3967 78be 9b7c bd3e b50a e63d
00000130: d63d 1abe db48 613e ac18 053d 07ba 143c
00000140: 7971 083f 45a3 d6bd ae46 1c3e bef9 ce3e
00000150: 9d7b a63e b63c 9cbe 0c08 acbe a723 85be
00000160: 7260 1b3e 5d04 c7bd 7642 2e3e ee4e 9b3e
00000170: 08a8 80be ba3f 5e3e bbf7 72be a755 833d
00000180: 0fd3 17be 02b1 95be 2894 86be 44e0 a6bd
00000190: 00d4 06be 02f4 403e 4633 b93e 8845 52be
000001a0: ce54 07be aac4 5a3e c0a3 1e3e fd03 8f3e
000001b0: 0350 7d3e 3ff0 a13e bf1d bbbd 3643 9cbe
000001c0: e249 99be c365 82bd 9571 2fbe 9085 93bd
000001d0: 9c9e 403e bdc5 ebbc a5d2 8abe f4dc d5bd
000001e0: bdf1 ed3d c2ad 2fbe 7315 103d 2cb7 b2be
000001f0: 18a8 a03e a966 9d3e 77a1 edbd 5703 8fbe
00000200: 1026 5fbe 978a 923e 3556 943e 105a b73d
00000210: d5fe 00be 2b35 b9be 8f55 a73e 9a51 b63e
00000220: 3134 043e 9416 dbbd ad24 bbbd de7b 973e
00000230: a4d2 9a3d b0fb ecbc 97f5 6f3e fcac b93e
00000240: fca2 0f3e d0ba 60be f956 5c3e 4f2f b93e
00000250: 2be7 67bd a21b 923e b04e a93e 8904 ef3e
00000260: 7bff f3bd b1e2 a9be 426d 543e e2af c13d
00000270: bd4f 8fbe 6d10 7c3e 0550 56be a6a4 b93e
00000280: 6e17 563e 2a7f 8ebe 810c a8bc 1bd5 8b3e
00000290: b88e c4bd ae29 823d 5ec7 613e 687c c4bc
000002a0: 16b5 31bd 08bf a63e b366 223e 1ee4 853d
000002b0: f22a ccbd 426f 77bd c3e8 913e 9f39 8e3c
000002c0: 961e 553e da27 8bbe 3dd6 55bd b813 913e
000002d0: 88bf a0bd 775f 0b3d 53d5 8cbe ec71 a53d
000002e0: 7c4c 573e 47c7 a73e 3aa4 113e dfda d9bd
000002f0: 87ef e7ba 89e8 073e 337b b33e 4c5a 973d
00000300: bbce 6bbe 834e e03e 2c2b 8a3d a147 923e
00000310: ba75 ae3e 379c 193d e049 56bc ea13 dc3d
00000320: bb01 903d b60f a9be 3510 70be f97a c13d
00000330: c21f ca3d 6305 9c3e 59eb 293e 18cf 6b3e
00000340: fd31 8ebe eff4 b4bd 9163 afbe 5ac3 d13c
00000350: 37d4 49be 2803 f9bd 1b78 1abd 2cc3 8abd
00000360: ecfa 4f3e 104e 6f3d 1104 85b9 cfc4 5f3e
00000370: 7490 9cbe a0f8 04bd 5a0f 7cbe c63a 4dbe
00000380: 9741 45be d205 e2bd bc66 623e b8ee 943c
00000390: 6edc 373e 4ca8 29be fb03 7abe 715c 993e
000003a0: 3783 b5bd 454d c33d 82ab 283e 72d4 ecbd
000003b0: c793 6a3e 6800 c83e df41 adbe e699 b9bd
000003c0: 7584 8f3e ca6b 25be 7d29 a83e daa9 f43d
000003d0: 8c99 0b3c 4d2b d03e e162 413b 475b 69be
000003e0: 6b4c c1bc e895 f0bc 1a51 69be 43b4 adbe
000003f0: b057 85be d68e b13e 6e33 1bbe 2ee0 2d3e
-0.2424001 0.3214154 0.4933042 -0.27867156 0.22206123 0.11025259 0.18290477 0.20862913
0.24805333 -0.0739803 -0.033849068 0.2884107 -0.038662303 -0.033729356 0.20923007 -0.13878499
0.26910388 0.38206047 -0.012595401 -0.18962373 -0.15333146 0.1283061 0.20175365 -0.22834922
0.05924795 -0.17998528 0.2599047 -0.2461327 -0.08124104 0.5305837 -0.045264203 -0.06630547
0.23144369 -0.124167 -0.051311158 0.02922345 -0.2738958 -0.3884626 0.18151967 0.42816186
0.11302993 -0.17733797 -0.099165134 0.016966462 0.35569978 0.17446384 -0.025618674 -0.0020987391
0.3644687 0.26930794 0.33564547 -0.22279283 0.29893848 -0.048908222 0.2520933 -0.25848925
-0.049628165 0.26781127 -0.13303927 -0.18530244 0.10249507 -0.14770412 -0.10218772 -0.20891489
-0.122660264 0.11117656 0.45142815 0.26397783 -0.2594712 0.22238547 0.308819 0.21693805
-0.07086306 -0.24258126 0.3700913 0.11232511 -0.15062651 0.22000448 0.032494232 0.0090775555
0.53298146 -0.1048036 0.15261337 0.40424913 0.32516184 -0.3051507 -0.3359989 -0.26003763
0.1517351 -0.09717629 0.1701754 0.30333656 -0.25128198 0.21703997 -0.23727314 0.06412821
-0.14826606 -0.2923661 -0.2628491 -0.08148244 -0.13166809 0.18843082 0.3617193 -0.20534337
-0.13215944 0.21364084 0.15492153 0.2793273 0.24737553 0.31628606 -0.09136533 -0.30520028
-0.2993918 -0.06367066 -0.17133172 -0.072032094 0.18810505 -0.028780812 -0.27113834 -0.10442534
0.116183735 -0.17156127 0.035176706 -0.34905374 0.31378245 0.30742386 -0.116030626 -0.27932236
-0.21791863 0.2862136 0.2897202 0.08952725 -0.1259721 -0.36173376 0.32682464 0.35609132
0.12910534 -0.10697666 -0.09137855 0.2958669 0.07559708 -0.028928608 0.23433529 0.3626479
0.14027017 -0.21946263 0.21517552 0.36168906 -0.056616943 0.28536707 0.33067846 0.46683148
-0.119139634 -0.33180764 0.20744804 0.09457375 -0.27990523 0.24615641 -0.20928963 0.3625843
0.20907375 -0.27831393 -0.020513775 0.27311024 -0.09597534 0.06355606 0.22048709 -0.023985103
-0.043385588 0.3256762 0.15859489 0.065376505 -0.09969129 -0.060408838 0.28497896 0.01736146
0.20812449 -0.27178842 -0.052206267 0.28335357 -0.07849032 0.03402659 -0.27506503 0.080783695
0.2102527 0.32769224 0.14222804 -0.106374495 -0.0017695286 0.13272299 0.3505493 0.0739027
-0.2302808 0.438099 0.06746516 0.28570274 0.34074193 0.037502494 -0.013079137 0.10745986
0.0703158 -0.330198 -0.23443682 0.09447283 0.098693386 0.3047286 0.16593684 0.23028219
-0.27772513 -0.0883578 -0.3425565 0.025605846 -0.1970986 -0.12158805 -0.037712198 -0.06775507
0.20310563 0.058424056 -0.00025370767 0.2185242 -0.3057896 -0.03246367 -0.24615231 -0.20041952
-0.19263302 -0.110362664 0.22109503 0.018180236 0.17955181 -0.16568106 -0.24415581 0.2995334
-0.08862918 0.09536222 0.16471675 -0.11563958 0.22907935 0.3906281 -0.33839318 -0.09062557
0.28030744 -0.161544 0.32844153 0.11946459 0.008520495 0.40658036 0.00295084 -0.22788726
-0.02359601 -0.029368356 -0.22784844 -0.3392659 -0.26043463 0.34679288 -0.15156338 0.16980049

fc2.weight f4 [256, 256]
00000000: 53b1 8c3a 50e5 363c b895 f7be 2762 673b
00000010: 97c8 1abe 8391 9b3d 6593 c9bd 494d 12bc
00000020: 1b00 c73c 1671 88be 3c29 463d d13d 7a3e
00000030: c420 ab3b eefa 593c fd9e ddbb 83d8 65bd
00000040: 5368 78bd c3b6 9abe 29b4 a9be 63df 60be
00000050: 59da 113e fb0e 6e3d 260a 7a3d 2023 243b
00000060: 514c 75be 166b a53c 9872 e1bd 435e b2be
00000070: dc9c 663d 1974 2c3d 24af acbe 9d8c 1e3e
00000080: 8ac3 cdbe 2000 903d 1cd0 b0be 7821 d73c
00000090: 2115 1dbf ff76 863b 0289 293b cddd 78bf
000000a0: 50f8 0b3d d071 953c 92a3 bdbe e02f cebb
000000b0: b334 9b3d e05a 8b3d e3de cf3d 0c17 9f3c
000000c0: 8a69 b0be 2a26 55bd 4898 3fbf b544 f0be
000000d0: 9ed0 a13d 2cb4 93be 5e9e 3d3d c6db 923e
000000e0: afec 09bf 75fc b2be 87d3 94bd 8b69 a6bd
000000f0: c518 b73b b101 13bf 5ee5 e8bc cbfd 863d
00000100: 0063 003a b38b 053e cf2b e03d aef5 773d
00000110: 3eee 013e 7b25 6cbd 461b 233e e851 103c
00000120: 486c ccb9 6860 49be f951 98bc 4507 303e
00000130: 905d 35bc c916 1c3d 007d 24bf 6cd6 dfbb
00000140: 84cc 0abc 10ba 85bd c85f 2abc a8de 4f3d
00000150: 6050 ce3b 8440 2c3e 7206 5f3d 8e39 75bd
00000160: e805 5b3c c181 a7bd 574f 003c 9fe0 97bb
00000170: 89be 983d a6fb 233d 0312 f0bb 0d57 dc3d
00000180: 4f70 ec3d 78f2 3b3e 7b65 a73d 9424 e93d
00000190: 5b61 68be d0b0 0bbc 41a3 0f3c 2c50 933c
000001a0: 80d2 003b 22f0 033e 3dd2 073d c950 c93c
000001b0: e084 ec3d 43a4 93bb 73b1 ca3d cb5b 943c
000001c0: 5d9c e3bc afc0 063e 6df1 abbe a03a 0fbb
000001d0: 5a5f 0abf c7fd 173e 5ad1 74bd 1c32 2cbd
000001e0: f56b b33d 6faf c23d 36c2 e23c 40b8 5fbc
000001f0: 041a 44be d324 193e 55b4 0f3d 7e27 f7bd
00000200: a863 12bd 98dc a53c 170f d53d 269d f7bc
00000210: f413 13be 73db 9db9 d600 8e3d 3b58 303c
00000220: 3057 14bd 940d 3e3d 98c3 1c3e 1b04 cd3d
00000230: 1328 843d e5c7 4a3d fc3f c73d 99fa 5abd
00000240: afd5 eabd d7ad d0be f540 cf3d 68d2 5b3d
00000250: 1934 273d 8394 1e3e d77b 46bb 1d16 9cbe
00000260: acc0 38be 0cd1 e73c 00c9 c83b c9ff 4fbd
00000270: 5b8d d7bd 68cb e4bc 4e3e 73be 2a95 943d
00000280: c97d 7c3d 705b 9f3d 2c30 15be 49e8 213e
00000290: 87f3 363c 8c05 b03b 73c4 9dbe b42e 0abf
000002a0: 2a2b a6bd 8846 27bc 92b3 c53d 7cd6 f53d
000002b0: 3836 bbbb 28d9 c43d f2b7 4dbd fb37 5bbe
000002c0: a0c3 263c f37d b0be 6147 36be 99a6 1b3e
000002d0: e5a5 6c3d 83a7 f4bd b37d fc3d 36af 28bd
000002e0: 91de 8a3c e22e d43d ebdb d83c 5374 ac3c
000002f0: a913 883d e18d 67bf 7a90 28bd b467 3dbd
00000300: a124 aebd 8dac f5bc 814f 0cbd f7c7 223d
00000310: a8c9 e8bd c8d9 05bc 4069 fa3c 34be 4abe
00000320: d2b6 b3ba e28a dabe 561e 7f3d a2b6 2bbd
00000330: ebd7 4abe cc17 22bd 373a 29bd deaa 03be
00000340: a49d 6f3b d2e1 513d 485a 75bd a2c5 f2bc
00000350: e412 d13d 9865 2d3d 2226 b9bd 9e2c c93d
00000360: 847d 6e3d 6087 9ebc a10e 0abe 836e 413d
00000370: be02 673d 2a86 c23b b64c e0be 6f18 3e3e
00000380: c13e 95be 7e13 00be 5f3e 4d3d 5683 0e3e
00000390: af51 aabd ebc3 dabe 060a a23c 5003 6bbe
000003a0: fec9 fcbd 074d db3c b7e4 4ebe ffee 4abe
000003b0: 9b45 ddbc d060 a93d 373d b8be 2715 d7be
000003c0: 920b 13bd 6f73 a6bb 4b83 7b3d 4c1a 973c
000003d0: ff1f b13d 00bc 973d b3e6 06bf af6c 2b3c
000003e0: b6f6 0b3d 8e22 133e 9b27 66bd cdf5 8dbc
000003f0: c624 af3d 8ac8 85ba 2496 32bd c053 c53b
0.0010733999 0.011163071 -0.48356414 0.0035306306 -0.15115581 0.075961135 -0.098425664 -0.008929559
0.024292042 -0.26648778 0.048379168 0.24437644 0.005222412 0.013304455 -0.0067633376 -0.056114685
-0.060646366 -0.3021756 -0.33145264 -0.21960215 0.1424345 0.058119755 0.061044835 0.002504535
-0.23954894 0.020192664 -0.11008185 -0.3483754 0.056301937 0.042102907 -0.33727372 0.15483327
-0.40188247 0.07031274 -0.34533775 0.026261076 -0.61360365 0.004103541 0.0025869017 -0.9721344
0.034172356 0.018242747 -0.37038857 -0.0062923282 0.07578411 0.068044424 0.10149934 0.01942017
-0.3445552 -0.05203835 -0.7484174 -0.4692742 0.07901119 -0.28848398 0.04629361 0.286833
-0.53876776 -0.34958234 -0.07266908 -0.081255995 0.0055876696 -0.57424456 -0.028429683 0.06591376
0.00048975646 0.13041572 0.10945856 0.060537033 0.12688538 -0.05765293 0.15928373 0.0088085905
-0.00038990588 -0.19665682 -0.018593775 0.17190273 -0.01106967 0.038107667 -0.64253235 -0.006830981
-0.008471612 -0.06529629 -0.010398813 0.05074945 0.0062962025 0.16821486 0.054449506 -0.05986934
0.013368107 -0.081790455 0.007831416 -0.004634931 0.07458217 0.040034913 -0.007326366 0.10758791
0.11544859 0.18354213 0.08173653 0.1138393 -0.22693388 -0.008526042 0.00876695 0.017982565
0.0019656718 0.12884572 0.033159483 0.024574654 0.115487814 -0.0045056655 0.09897127 0.018110177
-0.02778452 0.1315944 -0.3358263 -0.0021855012 -0.54051745 0.14842902 -0.059769966 -0.042039976
0.087608255 0.095061176 0.027680498 -0.0136547685 -0.19150549 0.14955454 0.035084087 -0.120680794
-0.03573957 0.020246789 0.10403269 -0.030226301 -0.1436308 -0.00030108876 0.06933753 0.010763223
-0.03621596 0.046399668 0.15308988 0.10010549 0.06452956 0.04950704 0.09729001 -0.053461645
-0.11466538 -0.4075763 0.101198114 0.053667456 0.04082117 0.1548634 -0.0030286217 -0.3048562
-0.18042248 0.028297924 0.0061274767 -0.050781045 -0.10525008 -0.027929023 -0.23754236 0.07255013
0.061643396 0.07781112 -0.14569157 0.15811266 0.01116646 0.005371755 -0.3081394 -0.53977513
-0.08113702 -0.010209687 0.09653391 0.120038 -0.0057132505 0.09611732 -0.050224252 -0.21408074
0.010178477 -0.34471092 -0.17800666 0.1520027 0.057775397 -0.11946013 0.12328663 -0.04118272
0.016951831 0.10360505 0.026472053 0.021051561 0.06644375 -0.90450865 -0.04115341 -0.046241477
-0.0850308 -0.029989505 -0.03425551 0.039741483 -0.11366588 -0.008169599 0.030567765 -0.19799119
-0.0013711101 -0.42684084 0.06228479 -0.04192222 -0.19808929 -0.039573476 -0.041315284 -0.1285815
0.0036562467 0.05124075 -0.059900552 -0.029635254 0.10208681 0.042333215 -0.090404764 0.09822963
0.05822517 -0.019351661 -0.13482143 0.047224533 0.0563991 0.0059364038 -0.43808526 0.18564008
-0.2914944 -0.12507436 0.05010831 0.13917288 -0.08316361 -0.427276 0.01978017 -0.22950482
-0.123432145 0.026770128 -0.20204435 -0.19817732 -0.02701073 0.08270419 -0.35984203 -0.42008325
-0.035899706 -0.0050796787 0.061404508 0.018445157 0.08648681 0.07408905 -0.5269577 0.010462924
0.03417083 0.1436865 -0.056190114 -0.017329121 0.08551936 -0.001020686 -0.043600217 0.0060219467

fc2.bias f4 [256]
00000000: d954 b23d 5c94 3abc 0d03 48bd be5d 073d
00000010: d4c6 4cbb 490a 123e 8425 67bd f492 2dbc
00000020: e42c 92bd 229d 25bc 9efd ee3d e8fb d63c
00000030: 5c7e 66bd f994 1a3d 425a 753d 5e8f d13d
00000040: d0a0 39bc 903b e13d 738c 49bd b8d8 8bbd
00000050: 5c6f bc3d 919a e73d 1443 163e b4b7 093e
00000060: cc5c 763d 20bd 0a3b 7dc0 59bd 7b33 a93d
00000070: c076 203d d726 3dbd 1601 093e ca93 fb3d
00000080: 162b 79bd 0a12 cfbc 24a8 103d 4245 ccbd
00000090: 2267 333d 2661 87bc 699e 0e3e e067 e83d
000000a0: 6993 e03d 34c9 823b 4a5b 1d3d 3970 f23c
000000b0: 4561 373d c946 02bd f073 263d 36ad 063d
000000c0: 369d 253d 34c3 d0bc 80be c3bd cb86 c7bc
000000d0: fb11 093e 3f02 94bc 32e1 16bd d295 3b3d
000000e0: 8b74 143c 5e07 653d c77b 733d fe7b 023d
000000f0: 3425 75bd 7aaf 6d3b 30ba fc3d 539d 82bd
00000100: 7ea2 5b3d afbd 7dbb fd5c 503d 78d0 dbbc
00000110: 3b34 6f3d 6de1 a53c aaa4 c33b 1792 f93b
00000120: 3927 b0bc 2e15 ffbc 2297 3dbd 6c73 683c
00000130: 5329 95bd 44bc 7abd f185 c6bb f5d2 163d
00000140: 9942 a8bd 48d0 19bc 7926 173d c14e 863d
00000150: 0911 2cbb 5c72 25bd 61dd 6ebc 024b c2bc
00000160: 5500 11bc fc19 bbbc 6a38 fcbb 8b5c 873d
00000170: 28a0 c33d 48ad 0f3e a086 c63d 38c0 61bd
00000180: 84da 67bc e5f2 4cbc ca0d afbc 4545 23bd
00000190: a3db 4139 114c 28bd d8d3 d03c e908 8a3c
000001a0: 8c76 d33c b7a0 bbbd aa03 e23d 7369 53bd
000001b0: eaab c63d bba7 693a d8b7 4dbc 28b6 f63d
000001c0: 3b64 343d 8f60 ea3c e587 50bd a05f b63d
000001d0: e9d7 cd3c 42e6 1f3d 98cb 223c f8b8 373d
000001e0: 1f66 003e 7b36 d33d 39b6 9b3d ae57 013e
000001f0: 528f 013d 3fb8 a83d 2f69 1f3d a0c2 68bb
00000200: 55d5 8abd 5a6e fe3d cafc 0c3d b2db a93b
00000210: 888b 9cbb 8667 73bd 4066 ddbc 9104 593d
00000220: afde 473c 3383 bc3d 00f9 483b 707a 0dbc
00000230: 6228 813c f5a1 3abd fcb0 f23c b441 59bc
00000240: 5e17 dbbc 90e9 2bbd 3bb9 0e3c b5e6 973d
00000250: 6f6c fcbb ea8c 4fbc bb48 f93a 0f2d e53b
00000260: a16d 69bd 4d22 24bd 6198 8dbd ae8c 6fbd
00000270: a460 13bd 4742 3a3d 622b 1f3d 9af5 7bbd
00000280: ae40 153a b3d0 0cbd 787c cab9 f94d 7cbd
00000290: 4adc 8dbd e7a3 bd3d 24a5 1dbd ac5c 95bc
000002a0: 4c05 f9bc 9fbb 503b bbf4 6b3d 887a a63c
000002b0: 3a5e f3bc c85d 41bd 3a9a 943d 5235 163d
000002c0: 1493 073d 4ee4 72bd 9a1e 6c3b f734 8fbc
000002d0: 4c10 ba3c b528 16bd 6522 1dbd 5a09 073d
000002e0: 3c02 c63c f156 883c 047a 58bd fb9b 92bd
000002f0: f33b 703c 0048 1b3d 4dec 873d 1567 083d
00000300: 4882 e23c 37cd e9bd 8ad0 ce3c 43b8 e0bc
00000310: 16e0 e6bc 4a35 a2bb fdbb 2b3d 85af 44bc
00000320: cc4e 63bd 7ba5 063d a20f d8bd 0051 8b39
00000330: 7c8b de3d 58f8 4bba 51aa 693d 211a 4f3d
00000340: ebed 91bd 3d7f 1cbd 78f5 153c 0652 54bd
00000350: 0081 733d 3871 5f3c b05c e2bc e678 54bd
00000360: caed 923d 1523 ff3d bde5 bfbd c0ac c7bc
00000370: 6d10 5fbd 5618 26bd 198e 023e 929b df3d
00000380: 100d be3d 069e 233d 2809 0f3d aafb 143e
00000390: 73de 113d ec7d 83bc 705d 12bc 50ab 023e
000003a0: 176c 603d bb3c 2f3d 93e6 8ebc cfad 3a3d
000003b0: 1596 ab3b 2c24 1d3b 116c 0cbc c084 343d
000003c0: 0982 a6bd b4e1 863d f3cf 0fbb 387c c13c
000003d0: e12a ca3c f553 5bbd a8c8 e13d 2c8b ac3b
000003e0: 6aee 4ebd 1cd5 fdbc b9fc 313d 9451 503d
000003f0: ee4e 093e 5e37 173d 542e f8bc 11e9 8f3d
0.0870759 -0.011387911 -0.048831034 0.033048384 -0.003124644 0.14261736 -0.056432262 -0.010594118
-0.071374685 -0.010108264 0.116694674 0.026243165 -0.05627285 0.037739728 0.05990053 0.10232423
-0.011329845 0.10997689 -0.04920621 -0.06828445 0.092009276 0.11308778 0.14674026 0.13448983
0.06014709 0.0021169856 -0.053162087 0.08261772 0.03917575 -0.04617962 0.1337932 0.12284048
-0.060832106 -0.025277156 0.0353166 -0.099741474 0.043799527 -0.016525816 0.13927616 0.113479376
0.10965616 0.0039912704 0.03841714 0.029594528 0.044770498 -0.031805787 0.04063791 0.03288003
0.04043313 -0.025483705 -0.09557819 -0.024356266 0.13385765 -0.018067477 -0.036835857 0.045797177
0.009060989 0.05591523 0.059444215 0.03185653 -0.059849933 0.0036267922 0.123402 -0.063776635
0.05362176 -0.0038717797 0.05086993 -0.026832804 0.05839942 0.020249093 0.005970557 0.007616292
-0.021503078 -0.031138029 -0.04628671 0.014187675 -0.072832726 -0.0612147 -0.0060584475 0.036822278
-0.082158275 -0.009388037 0.036901925 0.0655799 -0.002625527 -0.040392265 -0.014579148 -0.023717407
-0.008850177 -0.022839539 -0.007697155 0.06609448 0.09552032 0.14030945 0.096936464 -0.055114955
-0.014151219 -0.012509082 -0.02136888 -0.039860982 0.00018487735 -0.041088168 0.02549164 0.016849952
0.025813363 -0.09161513 0.11035855 -0.051614236 0.09700759 0.00089132384 -0.012556039 0.12046462
0.0440409 0.028610496 -0.05091085 0.08904958 0.025127368 0.03903795 0.009936236 0.044854134
0.12538956 0.10313126 0.076031156 0.12631103 0.03163082 0.08238267 0.03891867 -0.0035516396
-0.06778971 0.12423392 0.034420766 0.0051836604 -0.0047773756 -0.0594249 -0.027026296 0.05298287
0.012199088 0.09204712 0.0030665994 -0.008635148 0.015766326 -0.04556461 0.029625408 -0.013260294
-0.02674454 -0.04197079 0.008711155 0.07417051 -0.007703356 -0.012667874 0.0019018868 0.006993897
-0.056989316 -0.040071774 -0.069138296 -0.058483772 -0.035980836 0.045473363 0.038859732 -0.06151352
0.0005693537 -0.03437872 -0.0003862118 -0.061597798 -0.069267824 0.092597775 -0.03848757 -0.018232666
-0.030398034 0.0031850112 0.05760644 0.0203221 -0.029708017 -0.047208577 0.07255979 0.036671944
0.03309925 -0.05929976 0.0036028982 -0.01748131 0.02271285 -0.036659915 -0.03836288 0.032967903
0.024170987 0.01664302 -0.05285074 -0.07158657 0.0146627305 0.03791046 0.06636868 0.03330143
0.027650014 -0.11416095 0.025245924 -0.027431613 -0.028183024 -0.0049502 0.041927326 -0.012004738
-0.05549507 0.03287266 -0.10549857 0.00026572496 0.10866448 -0.00077808416 0.057047192 0.050562028
-0.071254574 -0.03820728 0.009152763 -0.051836036 0.059449196 0.013637833 -0.027632087 -0.05187311
0.07174261 0.12457863 -0.09369991 -0.024374366 -0.054459024 -0.040550552 0.12749518 0.109183446
0.09279835 0.039945625 0.03492084 0.14549127 0.035612535 -0.016051255 -0.00893341 0.12760663
0.054790583 0.042782526 -0.01744393 0.045575913 0.005236397 0.002397786 -0.008570687 0.044071913
-0.08130271 0.06586018 -0.0021944016 0.023618802 0.02467865 -0.053546865 0.110246 0.005265614
-0.050520338 -0.030985408 0.043453906 0.05085905 0.13409016 0.036918037 -0.030295528 0.07026876

fc3.weight f4 [4, 256]
00000000: 395f 553e d4b5 56be d3f9 1ebe 780f a9bc
00000010: 1bdc 313d 3195 2d3e 80a0 d2bc 127a ac3c
00000020: 82b0 1dbc f229 22bd 5cc4 133e e8d9 0ebd
00000030: 9692 60bd d9c7 f43d 6a8a 0dbd c587 0b3e
00000040: 6da9 3fbc beb2 35bb a0ae 04bc 7d39 9dbc
00000050: c8f7 733e fcb7 8b3e ac8a ec3d 3026 283d
00000060: 5eed 48bd c655 09bd 82ed 53bd 9d2f 9d3d
00000070: ebd3 e53d 0c08 603c d9a6 683e 1892 d73d
00000080: 44a8 f73d f846 93be c01a a8ba 5f85 18be
00000090: 9c9f 1bbd 08ce 7dbb b4ba 973d 6049 eebc
000000a0: 412f 3cbe 3cdb 0cbd 8cae 03bd 04df 503e
000000b0: 6a62 863e c777 b13a 2ff7 c73d 8c33 1cbd
000000c0: 1853 69bd 9f20 bdbe 4746 82be 40db cabc
000000d0: dafd 283e 0b2d 70bc 0750 7cbe 2060 aabb
000000e0: e5dd 7cbb 1a73 ecbd 9f73 f8bc 786d 653d
000000f0: 1287 0a3d 5125 19bd 4151 193d 20b9 33bd
00000100: 13f0 163d 3a6b ab3e 61ca 93bd ee7f 0bbd
00000110: 3142 edbe 5a91 183d f0d7 2abc 1ae2 163e
00000120: f09f 81bd 4080 09bd f745 f3bd fb52 2fbd
00000130: 599b 353d 2a36 7abd c1ba 3abd 8f74 09bb
00000140: 8792 afbc 29de 3abd df48 0d3e 9577 d23d
00000150: 8b91 9ebe 1c63 9e3c 8ee0 cabc 3f18 6a3c
00000160: cb9a 05be f933 25bc fa78 df3c 581a b53d
00000170: ae15 043f f9c0 073e f430 133e c2dd 333d
00000180: 0089 67be 1d74 1d3d afb2 41bc 2adf 2a3e
00000190: 019f 01bd e015 76bb a84e 19bd 6530 f53c
000001a0: a6f6 573d 1536 66be 06de 063f 3ddd b5be
000001b0: 090f 0d3e a03d 883e a0b6 423d e57f f53d
000001c0: f6ab 773d ab52 08bb 301d b2bd 9eb4 043e
000001d0: a67b 253d bcfb af39 842d 74b9 4657 633b
000001e0: 7d4e ba3d f586 3e3e 0884 753e a156 0e3e
000001f0: cc87 d83d a1cc f53d 05db c93c cce1 4cbd
00000200: f847 953c 9186 293e c86b e03c 5cd1 3bbd
00000210: 7441 6c3d 8397 2fbd c006 0c3d 2444 423e
00000220: 646e e63d ae47 af3c 1817 763c 9a97 2b3d
00000230: 3b82 653d 8318 cc3c ae17 fe3c 524c f33b
00000240: d139 c73c a2cd 8abe 8cb6 153d a1f4 25bb
00000250: 5f1e 65bd d21f 9dbe af4d 8cbe e8ab 97bc
00000260: f9ff 323d 2270 403d fe3a 0cbe 863a 883d
00000270: c990 093d c04b babc 90b8 01bd 8e87 713d
00000280: ce49 50bd 18a9 453c bbe3 383d 6fdd 0b3c
00000290: 58cc 2bbd 9bec b43e 3356 4e3d 62cc 173d
000002a0: 215f 97be 4544 7bbd 8fe2 9abe d1ac 47bc
000002b0: 6545 0ebd b577 15bd b663 d23e c2d0 0dbd
000002c0: 6465 863d 2a06 75bd 8455 093d 5739 3fbe
000002d0: 7e29 2cbd a647 01bc 1375 5a3d 03f2 e03d
000002e0: bdde a6bc a6a3 eebc 4f31 1f3d 280e bcbc
000002f0: 5e15 c93d 99c5 91be 98f1 843b a06b e9bb
00000300: 9208 363c c1ff babe 4695 4e3c 5e13 80bd
00000310: de2d 69bd 7038 d1bc 11ec 1b3d a225 463c
00000320: 919f 513d 62d9 5dbe fb2e 00be 8009 003c
00000330: ceba a23d d466 80be 4fbb 053e a60f 7e3c
00000340: 94bc a4be edee 1a3d 587b 5ebc 57c6 4e3d
00000350: 08e9 bd3c 5555 873c 5876 c3bc a15e 55bd
00000360: 8fa3 9d3e d2a4 f73d bb4d 22be 20f8 4ebc
00000370: 4062 293b 7ad9 06bd 1e69 f23d 744a 283d
00000380: ca6e 233d 8059 99bb 4ee5 283d 4329 9e3e
00000390: b45e 113e 6140 55bd 8639 3abd a2f7 9c3d
000003a0: 287f ac3d abf5 193e 98e6 113c 37a0 033e
000003b0: f0db 4bbd a66b c5bb 1198 5ebd 00f0 aeb7
000003c0: 0de0 9cbd 748b a33e ddf0 a9bc 06ef 00be
000003d0: ad4c afbb 4453 01bd 93b8 4e3e 38f7 f53c
000003e0: e420 67bd 3a3a 74bd bde1 7b3e 6495 fa3d
000003f0: ff5b 783d b50c 83be ac6d 5cbc 0ba8 5e3e
0.20837106 -0.209678 -0.15524988 -0.020637259 0.0434228 0.16951443 -0.025711298 0.021054301
-0.009624602 -0.039590783 0.14430374 -0.03487578 -0.054827295 0.119521804 -0.03455583 0.1362601
-0.011698109 -0.0027724947 -0.0080982745 -0.019192452 0.2382499 0.27288806 0.11549887 0.041052043
-0.049054496 -0.033529066 -0.051740177 0.07675097 0.11222061 0.0136737935 0.22719897 0.10525912
0.12092641 -0.28765082 -0.0012825355 -0.14894627 -0.037994012 -0.003872754 0.07408658 -0.029087722
-0.18377401 -0.034388766 -0.032148883 0.20397574 0.2624696 0.0013539725 0.097639434 -0.038135096
-0.05696401 -0.3693895 -0.25444242 -0.02476275 0.16503087 -0.014659177 -0.24639903 -0.0051994473
-0.0038584408 -0.115453914 -0.03032857 0.0560126 0.03382022 -0.037389103 0.037431005 -0.04387772
0.036850046 0.33480245 -0.07216335 -0.03405755 -0.46339563 0.037247993 -0.01042746 0.14734688
-0.06329334 -0.033569574 -0.11878579 -0.042803746 0.044337604 -0.06108681 -0.04558826 -0.0020974015
-0.021432174 -0.045622025 0.1379733 0.10276715 -0.30970415 0.019334368 -0.02476528 0.014288007
-0.1304733 -0.010083192 0.027279366 0.08842915 0.5159558 0.13257207 0.14374143 0.043912657
-0.22610855 0.038440812 -0.011822387 0.16686693 -0.03164578 -0.003754966 -0.037428528 0.029930303
0.052725457 -0.22481568 0.5268253 -0.35520354 0.13775267 0.26609516 0.047537446 0.119872846
0.06046673 -0.0020801227 -0.08696973 0.12959525 0.040401123 0.00033566158 -0.00023286609 0.003468947
0.09097002 0.1860617 0.23976147 0.13900234 0.10572776 0.120019205 0.02464057 -0.050020024
0.018222794 0.1655524 0.027395144 -0.045853958 0.05767961 -0.042869102 0.034186125 0.18971306
0.11251524 0.021396484 0.015020154 0.041892625 0.0560324 0.024914032 0.03101715 0.0074248696
0.024319561 -0.2711001 0.036551043 -0.0025322812 -0.055937167 -0.3068834 -0.27403018 -0.018514588
0.043701146 0.04698194 -0.13694379 0.066517875 0.033585344 -0.022741199 -0.031670153 0.058967166
-0.050851636 0.012064241 0.045139056 0.008536681 -0.041942924 0.35336766 0.050375175 0.03706015
-0.29564765 -0.061344404 -0.30250975 -0.012187199 -0.03473415 -0.036491115 0.41091698 -0.034622915
0.065623075 -0.05982033 0.03352882 -0.18674217 -0.042031758 -0.0078906175 0.053334307 0.1098366
-0.020369882 -0.029130768 0.038865384 -0.022955969 0.098185286 -0.28471068 0.0040571205 -0.0071234256
0.011110442 -0.3652325 0.012608832 -0.06253694 -0.056928508 -0.025539607 0.038066927 0.012093933
0.051177565 -0.21664956 -0.12517922 0.007814765 0.079457864 -0.25078452 0.13059734 0.015506661
-0.32175124 0.037825514 -0.013579212 0.05048212 0.023182407 0.016520182 -0.023860142 -0.0520922
0.30788848 0.12091984 -0.15849964 -0.0126324 0.0025845915 -0.032922246 0.11836456 0.04108663
0.03990058 -0.0046798587 0.041234307 0.30890855 0.14196283 -0.05206335 -0.045465015 0.0766442
0.08422691 0.15035121 0.0089050755 0.12854086 -0.049770296 -0.0060247956 -0.05434424 -2.0854175e-05
-0.07659922 0.31942332 -0.020744735 -0.1259118 -0.0053497166 -0.03157355 0.20187597 0.03002511
-0.05642785 -0.05962584 0.24597831 0.12235525 0.06063461 -0.25595632 -0.013453882 0.21743791

fc3.bias f4 [4]
00000000: a342 ea3d 1292 513d 9eb0 dd3d 3036 e13c
0.11438491 0.051164694 0.10824703 0.027491659
