modelo_melhor_finetune.pth (torch, 45065 bytes, 6 tensors)

net.0.weight f4 [128, 14]
0	0x3e935100	0.28772736
1	0xc0cc9129	-6.3927197
2	0x3e34dfd3	0.17663507
3	0xc1710a0e	-15.064955
4	0x3c97f624	0.018549986
5	0xbe050d22	-0.12993291
6	0x3d126da7	0.035749104
7	0xbdab6622	-0.0836909
8	0x3e8c4345	0.27395073
9	0x3f255be4	0.6459334
10	0x3ef86cc1	0.48520473
11	0xbe8fa2b9	-0.28053835
12	0xbf4c4349	-0.7979017
13	0xc03924e7	-2.8928773
14	0xc0fbf1d0	-7.873268
15	0x3f6784a6	0.9043678
16	0xbeacd793	-0.3375822
17	0x40688e9f	3.633705
18	0xbf8fda1f	-1.123844
19	0xbf26464b	-0.6495101
20	0x3c341f3d	0.010993776
21	0x3f2b3b1f	0.66887087
22	0x3d87e371	0.06635178
23	0x3ea3f5b0	0.32023382
24	0x3f98c6e9	1.1935703
25	0x3e06b415	0.13154633
26	0xc0b07acc	-5.51499
27	0xbfbe5113	-1.4868492
28	0x3d67abe0	0.056560397
29	0x3e2d0b32	0.16898802
30	0xbda726aa	-0.081616715
31	0x3d2fc2d0	0.042910397
32	0xbdb60f6c	-0.0888966
33	0xbb64c000	-0.003490448
34	0xbdd00ae6	-0.10158329
35	0x3e0e854e	0.13918039
36	0xbd8f19c8	-0.06987339
37	0xbd4e62b4	-0.0503871
38	0x3d233268	0.039842993
39	0xbe54f7e8	-0.20797694
40	0x3daf2bbc	0.085532635
41	0x3baa0600	0.0051887035
42	0xc072c7ed	-3.7934525
43	0xc0264441	-2.597916
44	0xc0ac6236	-5.3869886
45	0xc106ae05	-8.417485
46	0xbf0092e2	-0.50224125
47	0xbf0100f5	-0.50392085
48	0x3f117de7	0.56832737
49	0xbef36829	-0.47540405
50	0xbe735f71	-0.23766877
51	0xbe0f635e	-0.1400275
52	0xc052db7d	-3.2946465
53	0xc068ace4	-3.6355524
54	0xc02d3e1b	-2.7069156
55	0x3fef8963	1.8713802
56	0xbf2fe119	-0.68702847
57	0x3ff97dbf	1.94915
58	0xbf906d33	-1.1283325
59	0xbfaa4bef	-1.3304423
60	0x40376412	2.8654828
61	0x3f08185c	0.5316217
62	0xbd716903	-0.058938038
63	0xbf22abdf	-0.63543504
64	0x3e38d6cd	0.1805069
65	0xbde43b70	-0.11144149
66	0x3ec765c9	0.38944843
67	0xbf8d5ca6	-1.1043899
68	0x3ef1c139	0.4721773
69	0xc074a1ad	-3.822368
70	0xc0170d53	-2.3601882
71	0x401f75aa	2.4915566
72	0xbe86ab81	-0.26302722
73	0x408c4af9	4.384152
74	0xbed70d42	-0.42002302
75	0xbe846e9d	-0.2586564
76	0xbed54663	-0.41655263
77	0x3f662dd9	0.8991371
78	0x3f0e9c30	0.55707073
79	0x3edb9739	0.4288881
80	0x3f93737c	1.1519618
81	0x3d748632	0.05969829
82	0xc08b997e	-4.362487
83	0x4003708c	2.0537443
84	0x3cbe769b	0.023249915
85	0x3f60da55	0.8783315
86	0xc0767bd0	-3.851307
87	0x3e840659	0.25786093
88	0x3f0460ec	0.5171039
89	0x3f8db815	1.1071802
90	0x3f0d8653	0.5528309
91	0x3eea30be	0.45740312
92	0xbe61a942	-0.22037223
93	0xbebffa07	-0.37495443
94	0xbdbe634d	-0.09296284
95	0x3e2cf93b	0.16891949
96	0x3f66a064	0.90088487
97	0x3f03fe82	0.51560223
98	0xc07363a7	-3.8029573
99	0x404a52b0	3.1612968
100	0xbf7f4856	-0.9971975
101	0x3f36b993	0.71376914
102	0xbf0f4ab3	-0.55973357
103	0x3f0087a8	0.50206995
104	0xbf57b3fe	-0.8425902
105	0x3f774fcb	0.9660613
106	0x3f827d21	1.0194436
107	0x3f91f41b	1.140262
108	0x3d1abcb8	0.037777632
109	0x3f97634f	1.1827182
110	0xbe97cd1f	-0.29648682
111	0xbf30df04	-0.69090295
112	0xbe1d3acc	-0.1535446
113	0xbc06a660	-0.008218378
114	0xbbf75f40	-0.0075491965
115	0xbe06c5e6	-0.1316143
116	0xbdb065ee	-0.086131915
117	0xbe8708a0	-0.26373768
118	0xbe4309a5	-0.19046648
119	0x3e74ae4a	0.23894611
120	0xbe88a492	-0.26688057
121	0xbe828e5b	-0.25499234
122	0x3dffa540	0.12482691
123	0x3d4e7610	0.050405562
124	0xbe6840f9	-0.22681035
125	0xbdb5e8c4	-0.08882287
126	0xc0c258a2	-6.0733194
127	0x3f825258	1.0181379
128	0xc13a5a7a	-11.647089
129	0xbf090be4	-0.5353377
130	0xbf8ec935	-1.1155154
131	0xbff9d631	-1.9518491
132	0xbe5ef7ec	-0.21774262
133	0xc0272120	-2.6113968
134	0xbedfbf73	-0.43700752
135	0xbf4e7336	-0.8064455
136	0x3f847074	1.0346818
137	0xbf020a70	-0.50797176
138	0xbf8d4871	-1.1037732
139	0x401b126d	2.4229996
140	0xbfc19fed	-1.512693
141	0x4005b813	2.08936
142	0xc0a4f7eb	-5.1552634
143	0xc10a2226	-8.633337
144	0xc05c8313	-3.4455001
145	0xbda46b0a	-0.080282286
146	0xc025853e	-2.5862575
147	0xc0121493	-2.2825058
148	0xbf81d7c5	-1.0143973
149	0xbf1551c7	-0.5832791
150	0x3fa7f159	1.3120528
151	0x3bfb67cf	0.007672287
152	0x3fcded97	1.6088132
153	0x3fb644ce	1.4239748
154	0xbfee3f03	-1.861298
155	0x400ca3bf	2.1974943
156	0x3f85a87a	1.044204
157	0x407730a6	3.8623443
158	0xbf9bc1f7	-1.2168568
159	0x3edcace0	0.43100643
160	0x3e9b7b57	0.30367538
161	0x3f38890c	0.72084117
162	0x3f2761c2	0.6538354
163	0x3ed7704a	0.42077857
164	0x4022026d	2.531398
165	0x3fe92534	1.8214478
166	0xbf78cde3	-0.9718916
167	0xc007bf62	-2.121056
168	0xbfeab8bf	-1.833763
169	0x40737562	3.8040395
170	0xc0172fd9	-2.3622954
171	0xbea31d2a	-0.31858188
172	0x4047de69	3.1229498
173	0x3fda5b8c	1.7059188
174	0x3e8e66f7	0.2781293
175	0xc0ac4d4f	-5.384437
176	0x3ce66e45	0.028128752
177	0xbdafc364	-0.0858219
178	0xc00e59a6	-2.2242217
179	0xbedf5460	-0.4361906
180	0xbecfa1c7	-0.40553114
181	0xc00295ea	-2.0404
182	0x4024eed7	2.5770776
183	0xbffe38d0	-1.9861088
184	0x4060cd02	3.5125127
185	0xc0ae2a1d	-5.442641
186	0x3eb76fda	0.35827523
187	0x3fdc65d6	1.7218578
188	0x3d65789c	0.056023225
189	0xbe4df5c3	-0.20113282
190	0x3d591c2e	0.05300539
191	0xbe9bef66	-0.30456084
192	0xc016f6b6	-2.358808
193	0xbfee4198	-1.8613768
194	0xbeb6ae16	-0.35679692
195	0x3f6fcd35	0.93672496
196	0x3faa58ef	1.330839
197	0x3f897a35	1.074042
198	0xc04d9c9d	-3.212684
199	0x3e143583	0.14473538
200	0xbf870e72	-1.0551283
201	0x3ef35089	0.4752238
202	0xbf19b84d	-0.60046846
203	0x3ecbec69	0.39828804
204	0xbc0749a2	-0.0082573015
205	0xbe9c5c6e	-0.30539268
206	0x3fe18a9d	1.7620426
207	0x3f953bbf	1.1658858
208	0x3d8bf5a5	0.06833962
209	0x3ca66b01	0.020314695
210	0x40e1e766	7.059497
211	0xbfa9b8a7	-1.3259476
212	0x410acc9f	8.674956
213	0xbfe3bc5b	-1.7791857
214	0xbe7c40ac	-0.24634045
215	0xbe85179a	-0.2599457
216	0x3ef15fbf	0.4714336
217	0xbd885c2e	-0.06658207
218	0xbcbe5519	-0.023233937
219	0x3e35f779	0.17770185
220	0x3f18d06e	0.5969304
221	0x3fe32c19	1.7747833
222	0x3eac12f4	0.3360821
223	0xc007a834	-2.1196413
224	0x3fb560be	1.4170148
225	0x3f5d7faa	0.86522925
226	0xc0198559	-2.398764
227	0xbfeebfad	-1.8652245
228	0x401ba724	2.4320765
229	0x3edd4b7b	0.4322165
230	0xc0ada2a7	-5.426105
231	0x3f51ad2f	0.8190488
232	0x3d804f1c	0.06265089
233	0x3d497988	0.049188167
234	0xc0368fbc	-2.8525229
235	0xc0309d31	-2.7595942
236	0x3e1888c3	0.1489592
237	0xc05d955d	-3.4622414
238	0xbf76aab8	-0.96354246
239	0x401804bf	2.3752897
240	0xbf79f3a5	-0.976374
241	0xbf8388d8	-1.0276136
242	0x3e3089df	0.17240094
243	0xbedc9dea	-0.4308923
244	0x3f8eaed9	1.1147109
245	0x3f916139	1.1357795
246	0x3f228e9f	0.6349887
247	0x3efd8ddd	0.49522296
248	0x3fa4462d	1.2833916
249	0xbf721e6d	-0.94577676
250	0x3ff9557e	1.9479215
251	0x3fb4fbf6	1.4139392
252	0x3fcefa1a	1.6170075
253	0x402106e3	2.5160453
254	0x3da4ea18	0.08052462
255	0xc01e7df2	-2.476437

net.0.bias f4 [128]
0	0xbe503a16	-0.20334658
1	0xbefbfd7c	-0.4921683
2	0xbe54ec16	-0.20793185
3	0xbf054ee9	-0.5207353
4	0x3eb8504d	0.35998765
5	0x3e9d03c9	0.3066695
6	0x3eed94bf	0.46402547
7	0x3f138736	0.5762819
8	0x3da955ec	0.082683414
9	0xbf3c60db	-0.7358529
10	0x3d391a38	0.04519102
11	0x3e97a377	0.296169
12	0x3eefe41e	0.46853727
13	0x3faff7f5	1.3747545
14	0x3e392cc0	0.18083477
15	0xbf889099	-1.0669128
16	0x3f8e7d6f	1.1132029
17	0x3f97d742	1.1862566
18	0x3f0103c6	0.5039638
19	0x3ebb8ccb	0.36630854
20	0xbea9e133	-0.33179626
21	0xbf434746	-0.7628063
22	0x3c985b5a	0.018598247
23	0x3e2a0e46	0.16607007
24	0xbc1e9100	-0.009678125
25	0x3e64ad21	0.22331668
26	0xbe1dc7c3	-0.15408234
27	0x3fcde5dd	1.6085774
28	0x3f7110bd	0.94166166
29	0x3f435f8a	0.76317656
30	0x3fe3b4f4	1.7789598
31	0x3f11f9b5	0.5702165
32	0x3fdda543	1.7316059
33	0x3fa6e404	1.3038335
34	0x3fadc073	1.3574356
35	0xbe87d8db	-0.26532635
36	0x3feb9a02	1.8406374
37	0x3fee09ee	1.859678
38	0xbd504d4a	-0.05085496
39	0x3f58ebf6	0.8473505
40	0x3f734ade	0.95036113
41	0xbbe12d80	-0.006871879
42	0xbd8ecf22	-0.06973101
43	0x3f4fea5e	0.8121699
44	0x3f907199	1.1284667
45	0xbe267674	-0.16256124
46	0x3ce2ed3a	0.027701009
47	0x3fbc6fef	1.472166
48	0xbd690b5c	-0.0568956
49	0x3ec892de	0.3917455
50	0xbe7ce06f	-0.2469499
51	0x3ddf4436	0.10901682
52	0x3c4e8660	0.01260528
53	0x3e4da20e	0.2008135
54	0xbea1736d	-0.31533375
55	0xbe1de97a	-0.15421095
56	0x3ccde20c	0.025132202
57	0xbef8456e	-0.4849047
58	0x3ee960e1	0.45581725
59	0xbf739c3b	-0.95160264
60	0x3d7b5f8f	0.06137043
61	0xbf54d94f	-0.83144087
62	0xbe34511e	-0.17609069
63	0xbe880dfc	-0.2657317
64	0x3d896365	0.06708411
65	0x3f8c3534	1.0953736
66	0x3e6a93bd	0.2290792
67	0x3f71735d	0.94316655
68	0xbe3ccc10	-0.18437219
69	0x3fec51d5	1.8462473
70	0x3f10132a	0.5627924
71	0x3f17899e	0.5919436
72	0x3e8690cf	0.26282355
73	0x3e12bbff	0.14329527
74	0x3e7d0f9b	0.24712984
75	0x3ef0df5f	0.4704542
76	0x3dd94500	0.10608864
77	0xbf0566ea	-0.5211016
78	0x3f7906cd	0.97276
79	0x3e5b7896	0.21432719
80	0xbf0e1126	-0.55494916
81	0xbe12bf0f	-0.14330696
82	0x3f32761e	0.6971148
83	0xbf8dc406	-1.1075447
84	0x3ec4165a	0.38298303
85	0xbf107a80	-0.5643692
86	0x3ebc89da	0.36823922
87	0x3fca6004	1.5810552
88	0xbd9a9a56	-0.075489685
89	0x3f7c9868	0.98670053
90	0x3e9569d4	0.29182303
91	0x3fac0c7e	1.3441312
92	0x3fbc74f6	1.4723194
93	0x3fd35889	1.6511394
94	0x3ebec2c1	0.3725796
95	0x3ce73950	0.02822557
96	0x3e012e0a	0.12615219
97	0xbe757e9f	-0.23974083
98	0x3e5bfca5	0.21483095
99	0x3f50b9b3	0.81533355
100	0xbe9ab8b7	-0.3021905
101	0xbd197400	-0.03746414
102	0x3fb21abe	1.3914411
103	0x3e7930a9	0.24334969
104	0xbe94fc0a	-0.2909854
105	0x3e419b5a	0.18906918
106	0xbd94f770	-0.072737575
107	0x3e3900b7	0.18066679
108	0x3d7a911f	0.061173555
109	0x3f3054e1	0.68879515
110	0x3e474469	0.1945969
111	0x3f9e8ef3	1.2387375
112	0x3dbb47ff	0.091445915
113	0x3dfe7570	0.12424743
114	0xbfdc3641	-1.7204057
115	0xbeb68958	-0.3565166
116	0x3f13145a	0.5745293
117	0x3fc8bd5a	1.5682786
118	0xbe943aa0	-0.28950977
119	0xbe6cbf65	-0.23119886
120	0x3fe9991b	1.8249849
121	0x3f38fdc2	0.72262204
122	0xbfac339b	-1.3453249
123	0xbf2dd62a	-0.67904913
124	0x4013c880	2.3091125
125	0x3f77cb35	0.96794444
126	0x3e64d412	0.22346523
127	0x3f8bae96	1.0912654

net.2.weight f4 [64, 128]
0	0x3d4c5a99	0.04989109
1	0x3d5bf9f2	0.053705163
2	0xbb70ec20	-0.0036761835
3	0x3d2404ec	0.040043756
4	0xbd8a4757	-0.06751888
5	0xbd423c0c	-0.047420546
6	0x3d4a7cce	0.04943543
7	0x3d9cc411	0.07654584
8	0xbbb59740	-0.005541712
9	0x3cc26ba2	0.023732964
10	0xbdb1a4ea	-0.08674033
11	0xbdb91a5b	-0.0903823
12	0x3d577a13	0.052606653
13	0xbd33c01c	-0.04388438
14	0x3d242652	0.040075608
15	0xbdae1035	-0.08499185
16	0x3d1991a2	0.037492402
17	0xbdbea262	-0.09308316
18	0x3b8e39ca	0.004340385
19	0x3d8dbe3d	0.06921051
20	0x3d091f6e	0.03347724
21	0x3ce56895	0.02800397
22	0x3c520e28	0.012820758
23	0xbd2faed4	-0.04289134
24	0x3d939949	0.07206971
25	0xbd302fdf	-0.043014403
26	0x3d874001	0.06604005
27	0x3d384f62	0.04499758
28	0xbdb50a02	-0.088397995
29	0xbc9af2b5	-0.01891456
30	0xbd8784fb	-0.06617161
31	0xbd7097c6	-0.058738492
32	0xbd737f0a	-0.059447326
33	0x3d97526b	0.07388767
34	0x3da7fb75	0.082022585
35	0x3b5797c0	0.0032896847
36	0x3d425506	0.047444366
37	0x3d91f872	0.07127465
38	0xbcb757a5	-0.02238066
39	0xbd71df97	-0.059051123
40	0x3c72e1f4	0.014824379
41	0x3d850d9b	0.06496736
42	0x3d1491ae	0.036271743
43	0x3d8afe87	0.067868285
44	0x3d1d855b	0.038457256
45	0x3d16363a	0.03667281
46	0xbd63a3af	-0.055576023
47	0xbc02350b	-0.007947217
48	0xbd7965ee	-0.060888223
49	0xbca98f55	-0.020698229
50	0x3d0e7a4a	0.034784593
51	0x3cd01b10	0.02540353
52	0xbd46064f	-0.04834586
53	0xbd4a21c1	-0.049348596
54	0x3d91b1b1	0.0711397
55	0xbb105880	-0.0022025406
56	0xbd10fe74	-0.035398915
57	0xbd36c6be	-0.04462313
58	0x3c2380b5	0.009979417
59	0x3d1b2441	0.03787637
60	0xbdc4c465	-0.09607772
61	0xbd160c60	-0.036632895
62	0x3cc40278	0.023926958
63	0x3d8ada07	0.06779867
64	0x3c586678	0.013208024
65	0x3b212537	0.0024588832
66	0xbdb90e9f	-0.09035992
67	0x3d8292d1	0.06375659
68	0x3db3c1c7	0.087771945
69	0xbcd3d9e0	-0.025860727
70	0xbc03bd3a	-0.008040721
71	0xbd39fc6c	-0.045406744
72	0xbd901829	-0.07035858
73	0xbc6ca670	-0.014443979
74	0x3d625614	0.05525787
75	0xbc63c983	-0.013903025
76	0x3d66ef2a	0.05638043
77	0x3d1846c6	0.03717687
78	0x3c966456	0.01835839
79	0xbd25a7d5	-0.04044326
80	0x3dab4f95	0.083647884
81	0xbcabde8c	-0.020980142
82	0xbd92409b	-0.07141229
83	0x3b4883bd	0.00305961
84	0x3d95a97a	0.07307716
85	0xbda97f1e	-0.08276199
86	0xbd4c66b2	-0.049902625
87	0xbdc29f9e	-0.09503101
88	0x3da21843	0.07914784
89	0x3b8afbb0	0.0042414293
90	0xbd122507	-0.035679843
91	0xbdca3d50	-0.09874976
92	0x3da8af73	0.08236589
93	0xbccbd3d0	-0.024881274
94	0xbd3076ee	-0.04308217
95	0x3db2af43	0.08724835
96	0xbd90e8f1	-0.0707568
97	0xbd4579c5	-0.04821183
98	0x3cd8b93f	0.02645552
99	0x3d264b01	0.040598873
100	0xbcb991d2	-0.02265254
101	0x3d29809e	0.041382425
102	0xbcbc36bc	-0.022975318
103	0x3d610242	0.054933794
104	0xbcf4e773	-0.02989552
105	0xbc8f6e97	-0.017508788
106	0xb95a0800	-0.0002079308
107	0x3d3684d6	0.044560276
108	0xbd8a3cbd	-0.06749866
109	0x3d240d0d	0.04005151
110	0xbdc5315f	-0.096285574
111	0x3c8875e5	0.016657779
112	0x3c9cd154	0.019142784
113	0x3d5f928e	0.054583125
114	0x3c6c2135	0.014412214
115	0x3cfa6f1f	0.030570565
116	0xbcf38016	-0.029724162
117	0xbd9be533	-0.07612076
118	0x3c96ed92	0.01842383
119	0x3d697b9e	0.057002656
120	0xbdac6606	-0.08417897
121	0x3cea32c5	0.028588662
122	0x3c48a9a8	0.01224748
123	0xbd7399a0	-0.05947268
124	0xbd7c6f10	-0.061629355
125	0x3d60c0ae	0.054871254
126	0xbd90432c	-0.07044062
127	0xbd908060	-0.070557356
128	0x398b32dc	0.0002655004
129	0xbd8d2c41	-0.068932064
130	0xbcd7761c	-0.026301436
131	0xbd8ae850	-0.06782591
132	0x3d908d16	0.0705816
133	0xbd0b60d5	-0.034027893
134	0xbcd92182	-0.026505236
135	0xbd9780dd	-0.073976256
136	0x3d0cfc72	0.034420438
137	0xbd05c5a7	-0.0326592
138	0xbda9865e	-0.08277582
139	0x3c51f181	0.012813927
140	0x3b533520	0.003222771
141	0x3d64ac7e	0.055828564
142	0xbd538cb0	-0.051647842
143	0xbcff9951	-0.031201037
144	0x3d56a1ad	0.05240028
145	0x3c96aa57	0.018391771
146	0xb9a901ce	-0.00032235536
147	0xbc87d8ee	-0.016582932
148	0xbdc5c4dc	-0.096566886
149	0xbdb2aa65	-0.087239064
150	0x3d927b85	0.07152466
151	0x3d57440a	0.05255512
152	0xbd94302f	-0.07235753
153	0x3ca036a7	0.01955731
154	0x3c054268	0.008133508
155	0x3d1ed8be	0.03878092
156	0x3d807805	0.06272892
157	0xbd98f1a7	-0.074679665
158	0xbc9ccbf2	-0.019140217
159	0xbd7ce41f	-0.06174099
160	0x3da35ec3	0.07977059
161	0xbc82fe08	-0.015990272
162	0x3d0cec88	0.03440526
163	0x3be8cad0	0.0071042553
164	0xbc246713	-0.01003434
165	0xbc74d68f	-0.014943733
166	0x3d50ef6a	0.051009573
167	0xbd8b63ac	-0.0680612
168	0xbd81bf7e	-0.06335352
169	0xbcc37f30	-0.023864359
170	0xbd9e28f8	-0.07722658
171	0xbd7058d0	-0.05867845
172	0x3ccddb47	0.025128974
173	0x3cfe2538	0.031023607
174	0xbda7f824	-0.08201626
175	0x3cb083fe	0.021547314
176	0xbd539859	-0.051658962
177	0xbceb9faa	-0.028762657
178	0xbd848c6c	-0.06472096
179	0xbdb36ca4	-0.08760956
180	0x3d8d91a3	0.069125436
181	0xbc8d8fa8	-0.017280415
182	0xbd67fe52	-0.056639023
183	0xbd670250	-0.05639869
184	0xbc193190	-0.0093501955
185	0x3cf448a6	0.029819798
186	0x3d322cf2	0.043499894
187	0xbb893e38	-0.0041883253
188	0x3d95dd01	0.07317544
189	0xbd970504	-0.073740035
190	0x3d975aeb	0.07390388
191	0x3b7fb380	0.0039016902
192	0x3d55d742	0.05220724
193	0x3d2cbddd	0.042173255
194	0xbd7d3ac9	-0.06182364
195	0xbd98b2bc	-0.07455966
196	0xbdaa7029	-0.08322174
197	0xbc0c3dc3	-0.008559647
198	0x3ca06cd1	0.019583138
199	0xbcc042a2	-0.023469273
200	0xbd4e944d	-0.0504344
201	0xbcbff88c	-0.023433946
202	0x3d357504	0.044301048
203	0xbce4a443	-0.027910357
204	0xbc08fe08	-0.008361347
205	0xbd862556	-0.0655009
206	0x3d4dcff6	0.050247155
207	0x3d5be0ee	0.053681307
208	0xbd622516	-0.05521115
209	0xbb8dad40	-0.0043236315
210	0x3d860c6f	0.0654534
211	0xbd2a1289	-0.041521583
212	0x3d7f0cce	0.06226807
213	0xbde72c10	-0.11287701
214	0x3d66903a	0.05628989
215	0xbc8bca14	-0.017064132
216	0x3d8085e9	0.06275541
217	0xbc2aa313	-0.0104148565
218	0x3cd4b6f4	0.025966145
219	0xbdb1e6a6	-0.08686571
220	0x3d16f33d	0.036853064
221	0xbc6377b0	-0.013883516
222	0x3c126598	0.008935355
223	0x3d8c356f	0.06846129
224	0xbd74a16e	-0.059724264
225	0x3ce0958c	0.02741506
226	0x3c803677	0.01565097
227	0xbbe94f0e	-0.0071200198
228	0xbd6f0e47	-0.058363225
229	0xba8e5e80	-0.0010861903
230	0xbd5cb150	-0.053880036
231	0xbca57e78	-0.020201907
232	0xbc824295	-0.01590089
233	0xbddb8d5e	-0.10720323
234	0xbc530860	-0.012880415
235	0xbda938fe	-0.082628235
236	0x3d9ebbc7	0.077506594
237	0xbdd79811	-0.10527051
238	0x3d605281	0.05476618
239	0xbcda5dfd	-0.026656145
240	0xbcf9af40	-0.030479074
241	0x3da9dfbd	0.08294628
242	0xbcaa6f87	-0.020805134
243	0xbc30e7a3	-0.010797414
244	0xbd41824c	-0.0472434
245	0xbde2d4d2	-0.110757485
246	0x3cbf1f13	0.023330247
247	0x3cd6e750	0.026233345
248	0xbd8db473	-0.069191836
249	0xbd23c298	-0.0399805
250	0xbcf316ca	-0.029673953
251	0x3d0458da	0.032311298
252	0xbd40638a	-0.046969928
253	0xbd98e596	-0.07465665
254	0xbdc85c55	-0.09783236
255	0x3c8d36fb	0.01723813

net.2.bias f4 [64]
0	0xbda66e1d	-0.08126471
1	0x3d091738	0.03346941
2	0x3e03e0b3	0.12878685
3	0x3eaa70d6	0.33289212
4	0xb9642726	-0.00021758358
5	0x3d60634b	0.054782193
6	0xbba70840	-0.005097419
7	0x3e8bd141	0.27308086
8	0x3bfcb5eb	0.007712116
9	0x3fc5f48d	1.5465256
10	0x3e2bc46c	0.16774148
11	0xbe368822	-0.17825368
12	0x3cf91ca4	0.030409165
13	0x3e78d109	0.2429849
14	0x3f05081e	0.5196551
15	0x3de16c4b	0.11006983
16	0x3cefebea	0.029287297
17	0x3cca1324	0.02466733
18	0x3d6fd950	0.058556855
19	0x3d2629f9	0.040567372
20	0x3f09febe	0.5390433
21	0xbdd94b1b	-0.10610028
22	0xbb747c7b	-0.0037305641
23	0x3ca68c65	0.020330617
24	0x3cff155e	0.031138118
25	0x3cbac9e0	0.02280134
26	0x3f070692	0.527444
27	0xbca7e130	-0.02049312
28	0x39ee0ed8	0.00045405957
29	0xbd185230	-0.037187755
30	0x3f0b5646	0.5442852
31	0x3b919828	0.0044431873
32	0xbd508b04	-0.050913826
33	0xbf5cc36c	-0.8623569
34	0x3d00e9ed	0.03147309
35	0x3d5e0b69	0.0542101
36	0x3c6d9686	0.01450122
37	0xbf1e3603	-0.61801165
38	0x3e71a64b	0.23598592
39	0x3f6fdbc3	0.93694705
40	0x3ee09330	0.43862295
41	0xbdac010f	-0.083986394
42	0xbd19b558	-0.03752646
43	0x3f0aa87a	0.54163325
44	0xbc0fb090	-0.008770123
45	0xbdcc6f32	-0.09982146
46	0x3ee103ed	0.43948308
47	0xbd6b9a7a	-0.057520367
48	0xbcef4492	-0.029207502
49	0x3f0e623c	0.55618644
50	0xbe7ff333	-0.24995117
51	0xbc7d0f8a	-0.015445599
52	0x3e1a891c	0.15091366
53	0x3d3a26de	0.045447223
54	0xbc59085f	-0.013246625
55	0x3f03cce0	0.5148449
56	0x3ce2b1a1	0.02767259
57	0x3cb9ed84	0.022696264
58	0x3d271d8e	0.04079967
59	0x3e14aad5	0.14518292
60	0xbda8db87	-0.082449965
61	0x3cf822df	0.030290065
62	0x3c9669df	0.01836103
63	0x3fe626ba	1.7980568

net.4.weight f4 [4, 64]
0	0xbdccc2aa	-0.09998067
1	0xbbb867b5	-0.005627597
2	0xbfdc2553	-1.719889
3	0xc0a8f3f1	-5.279778
4	0x3d69e2f9	0.057101224
5	0x3d032794	0.032020167
6	0xbdb00492	-0.08594622
7	0xc0db17d5	-6.846659
8	0xbd3377bb	-0.043815356
9	0xc089fe7e	-4.312316
10	0x40d14e97	6.5408435
11	0x409c14c3	4.8775344
12	0x3c95b205	0.018273363
13	0xc097c67b	-4.7429786
14	0xc18b828d	-17.438745
15	0x418c672c	17.550377
16	0x3cbae233	0.022812938
17	0xbd45e0b0	-0.04830998
18	0x3d267220	0.04063618
19	0xbf55b465	-0.83478385
20	0xc150ca94	-13.049458
21	0xc0bc5eae	-5.8865576
22	0x3c94e566	0.018175792
23	0x3cbbeb7d	0.022939438
24	0x3ca12468	0.01967068
25	0x3d2f34fa	0.04277513
26	0xc1403cb8	-12.014824
27	0xbdff9bc7	-0.12480884
28	0xbdb8c185	-0.09021286
29	0x3d074156	0.033021294
30	0x40ad0f1f	5.408096
31	0xbd84b49f	-0.06479763
32	0x3ccc3600	0.024928093
33	0x40db062a	6.8445024
34	0x3de1da3e	0.110279545
35	0xc1b69034	-22.820412
36	0xbc1053d8	-0.008809052
37	0xc0ec4a86	-7.384097
38	0xc0afa3a2	-5.4887247
39	0x40b52910	5.6612625
40	0xc12e7f44	-10.906071
41	0x3dc2ff19	0.09521312
42	0xbd6500c5	-0.055908937
43	0x41139a7e	9.225218
44	0xbd5ae600	-0.053442
45	0x3d10a74f	0.035315808
46	0xc158948e	-13.536268
47	0x3c786900	0.015161753
48	0xbbd960c8	-0.0066338517
49	0xbfb827a4	-1.4387097
50	0xc0d0069e	-6.500808
51	0x3d9feb6f	0.07808577
52	0xc15649d4	-13.393024
53	0xc0cdfddd	-6.437239
54	0xbd0b33cd	-0.033984948
55	0xc11eb909	-9.920175
56	0x3c83ec2d	0.016103828
57	0x3d7ec8cf	0.062203225
58	0x3d4d41e1	0.050111655
59	0x411e9b9e	9.9129925
60	0x3b353b2e	0.0027653682
61	0xc0b4a59c	-5.645216
62	0xc0b9c107	-5.804813
63	0x4122bc80	10.1710205
64	0xbc791915	-0.015203734
65	0xbdb352ae	-0.08756004
66	0xc0f5d2ef	-7.6819987
67	0xc08f0adf	-4.470077
68	0xbd990208	-0.074710906
69	0x3c093dc8	0.008376546
70	0x3c7eb62c	0.015546363
71	0xc102768b	-8.153941
72	0x3df1919e	0.117953524
73	0xc028585e	-2.6303935
74	0x40a72155	5.222819
75	0x408c1b6a	4.3783464
76	0xbc802728	-0.015643671
77	0xc0d7c0b1	-6.742272
78	0xc14d2759	-12.822106
79	0x418ef840	17.871216
80	0x3d7347f5	0.059394795
81	0x3d80197e	0.06254862
82	0x3d82e67e	0.06391619
83	0xc0c93427	-6.2876163
84	0xc13fc84f	-11.986403
85	0x3f5cc2b4	0.86234593
86	0xbc6444e7	-0.013932443
87	0x3dab9ddf	0.08379721
88	0xbdaca974	-0.08430758
89	0x3c987438	0.018610105
90	0xc15d92cb	-13.848338
91	0x3d7de9e8	0.06199065
92	0xbc93e160	-0.018051803
93	0x3deede1b	0.11663457
94	0x3fb2b3b3	1.396109
95	0x3d97a8c4	0.07405236
96	0xbd42eb12	-0.04758746
97	0x40e03d31	7.0074697
98	0x3dc82b6c	0.09773907
99	0xc1bac8ef	-23.348112
100	0x3d8dbb6c	0.069205135
101	0xc0ca31c4	-6.318575
102	0xc0a6b432	-5.2094965
103	0x40a54fb3	5.165979
104	0xc0ec1352	-7.3773584
105	0x3d40df0d	0.047087718
106	0xbc842322	-0.016130034
107	0x411254c2	9.145693
108	0xbc2b3d10	-0.01045157
109	0x3d3b63b7	0.045749392
110	0xc1517b0c	-13.092541
111	0x3cee3a48	0.029080525
112	0xbdc97804	-0.09837344
113	0xc06f5098	-3.739294
114	0xc0dabb2e	-6.835349
115	0x3ddce822	0.10786463
116	0xc1882c0d	-17.02151
117	0xc0d3cfeb	-6.6191306
118	0xbf27ff29	-0.6562372
119	0xc15e9b5d	-13.9129305
120	0x3c3ec9bb	0.011644776
121	0x3c0b04a2	0.008484991
122	0x3e01b1b4	0.12665445
123	0x4125ecb4	10.370289
124	0x3db1d6c0	0.086835384
125	0xc09c4df2	-4.884515
126	0xc0fcb2f6	-7.896846
127	0x4124a79d	10.290921
128	0xbbe38060	-0.0069427937
129	0x3dd4a1ef	0.10382449
130	0xc0f99230	-7.799095
131	0xc0e46f94	-7.1386204
132	0x3ce99942	0.028515462
133	0x3d06f7e8	0.032951266
134	0x3de0b35c	0.1097171
135	0xc0f730cf	-7.724708
136	0x3d528eb8	0.05140564
137	0xc05db0ff	-3.463928
138	0x40b760c6	5.730563
139	0x4087cf65	4.2440667
140	0x3c33ab05	0.010966067
141	0xc10b6722	-8.712679
142	0xc184a588	-16.580826
143	0x4131b19a	11.10586
144	0x3ce2b91b	0.027676156
145	0xb9d3f200	-0.0004042536
146	0xbd026e2c	-0.03184335
147	0xc062d8be	-3.544479
148	0xc14626ce	-12.384474
149	0xc08b828c	-4.359686
150	0xbc38ea39	-0.011286312
151	0x3de48a6a	0.11159213
152	0x3dbabfbe	0.09118603
153	0x3c5cc49a	0.013474608
154	0xc164a6cb	-14.290721
155	0x3c7384a0	0.014863163
156	0xbc954560	-0.018221557
157	0x3d0dcd86	0.03461983
158	0x40bf3012	5.974618
159	0x3d9c88a6	0.07643251
160	0x3daaf95e	0.08348344
161	0x40f1322e	7.5373755
162	0x3cf41285	0.029793987
163	0xc1b9ca77	-23.22386
164	0x3d38849f	0.045048352
165	0xc0cb6589	-6.3561444
166	0xc0a4ec42	-5.15384
167	0x40b3748d	5.6079774
168	0xc10ee2c9	-8.930367
169	0xbca35feb	-0.019943198
170	0x3dcb685e	0.09932016
171	0x410e56c0	8.896179
172	0x3b7c2980	0.0038476884
173	0xbd9a122f	-0.075229995
174	0xc14ec7e9	-12.923806
175	0xbd92cb78	-0.07167715
176	0xbde319e6	-0.11088924
177	0xc028640a	-2.631106
178	0xc0f2d36f	-7.58831
179	0x3ddd0f77	0.10793965
180	0xc192d3a7	-18.353346
181	0xc0a4cb3a	-5.149808
182	0x3fb0d1f3	1.3814071
183	0xc12026f1	-10.009507
184	0xbdb4991a	-0.08818264
185	0xbc9299fa	-0.017895687
186	0xbdef8c1a	-0.11696644
187	0x411c68bf	9.775573
188	0xbdf83166	-0.12118797
189	0xc0a233b2	-5.0688105
190	0xc0c39e01	-6.1130376
191	0x4118fb05	9.561284
192	0xbd41dfa4	-0.04733242
193	0x3d923fcb	0.07141074
194	0xc00c817c	-2.195403
195	0xc116d6ca	-9.427439
196	0x3dc0dd61	0.09417225
197	0xbca5cd3b	-0.020239463
198	0x3d803e8b	0.06261929
199	0xc065c461	-3.590111
200	0xbd4c3ef3	-0.04986472
201	0xc092ba09	-4.5852094
202	0x40bedb9f	5.964309
203	0x40945437	4.63528
204	0x3dc6bc10	0.09703839
205	0xc13d5512	-11.833269
206	0xc1886251	-17.048006
207	0x41918717	18.190962
208	0x3d85b7c3	0.065291904
209	0xbdf80afa	-0.121114686
210	0x3c7540eb	0.014969091
211	0xc0219226	-2.5245452
212	0xc146c6ea	-12.423563
213	0xc087577f	-4.2294307
214	0x3b432025	0.0029773798
215	0xbd62ae9e	-0.05534231
216	0xbd04d7f8	-0.032432526
217	0xbe13bb0d	-0.14426823
218	0xc127c05b	-10.484462
219	0x3dc2a976	0.09504978
220	0xbc76a520	-0.015054017
221	0x3d9f3973	0.077746294
222	0x3e71f819	0.23629798
223	0xbdcb4318	-0.099249065
224	0x3df1c26a	0.1180466
225	0x40df25a7	6.973346
226	0xbdd17298	-0.10226935
227	0xc1add9c6	-21.731335
228	0x3dc07c07	0.09398656
229	0xc106c185	-8.422246
230	0xc1089608	-8.536629
231	0x40903273	4.5061584
232	0xc11c1ff1	-9.757798
233	0x3c9425a5	0.018084357
234	0x3dec88cd	0.1154953
235	0x411e9cae	9.913252
236	0xbdfe21d2	-0.124087945
237	0x3bc4184c	0.0059843417
238	0xc136518a	-11.394907
239	0xbcc8fd68	-0.024534896
240	0xbd9edfa8	-0.07757503
241	0xbf29a207	-0.6626286
242	0xc106af67	-8.417823
243	0x3d77dd7b	0.060513955
244	0xc17afe61	-15.687104
245	0xc0a13878	-5.038143
246	0xbf940fc5	-1.1567312
247	0xc11b0ecd	-9.691113
248	0xbc1231ba	-0.008922989
249	0x3d5da774	0.054114774
250	0xbd63be6f	-0.055601534
251	0x413347ef	11.205062
252	0xbd9c2a18	-0.07625216
253	0xc09cc765	-4.89934
254	0xc0d126f8	-6.536007
255	0x4121bbca	10.108347

net.4.bias f4 [4]
0	0x3f5723e7	0.8403916
1	0xbfde6a43	-1.7376179
2	0x402fee60	2.7489243
3	0xc0a9790e	-5.296027
