modelo_que_vai_funcionar.pth (torch, 571681 bytes, 6 tensors)

net.0.weight f4 [512, 18]
000000 8b 6f 42 3e 98 1d a1 bd 4d d4 3b be ef 5f 59 be
       0.18987863 -0.07866973 -0.18342705 -0.21228002
000010 e0 ce 3e bd 32 5c 98 3d ab 01 4f 3e ea b7 96 3d
       -0.04658401 0.0743946 0.2021548 0.073592976
000020 fa 9b 3b be 27 7f 54 be 19 4a 5e be 75 19 63 be
       -0.18321219 -0.2075163 -0.21707954 -0.2217768
000030 da bc cd 3d 27 05 33 be 9a 92 51 be 72 4c 9b 3d
       0.10045786 -0.17482434 -0.2046608 0.0758294
000040 15 72 26 3e 10 05 c1 bd b7 ef 2a 3e 68 38 93 3c
       0.16254456 -0.09424794 0.16693006 0.017971233
000050 0a ae 41 be 4c f6 c5 bd 7e 5a 06 be 4c a8 b9 bd
       -0.18914047 -0.09666118 -0.13120458 -0.09065303
000060 f8 2f 61 be b1 f3 e8 bd d0 f4 49 be c8 f4 37 bd
       -0.21990955 -0.113746054 -0.19722295 -0.044911176
000070 60 09 5e bc eb 76 11 be 54 76 54 3d 08 9e fd 3c
       -0.01355204 -0.1420552 0.05187066 0.030959144
000080 7a 79 89 3d a1 5e 31 3e 35 a4 02 be 28 14 10 bd
       0.06712623 0.17321254 -0.12757953 -0.035175472
000090 a7 13 f8 3e 5e c2 e5 3f ae b8 4b 3f f3 b3 cb bf
       0.48452494 1.7949941 0.79578674 -1.5914291
0000a0 78 9a 49 3f d7 2f 52 3e 56 f9 ae bf 0e b7 6a 3f
       0.78751326 0.20526062 -1.3669841 0.9168557
0000b0 0e 24 18 3e d8 2c 6d 3e 4e a1 a4 c0 81 0d 5c c0
       0.14857504 0.23161638 -5.1446905 -3.4383242
0000c0 1b c0 0d c0 64 18 9f bf 24 66 21 3f 74 b4 f8 3e
       -2.2148502 -1.2429318 0.6304648 0.48575175
0000d0 1b 95 0d 3f a1 59 5f 3e 5b 1b 9e 3f 73 2f 11 c0
       0.5530564 0.21811534 1.2352098 -2.268521
0000e0 92 28 ab be c3 72 89 c0 32 33 20 bf c4 eb c6 bf
       -0.3342939 -4.295259 -0.6257812 -1.55407
0000f0 5b 0c dc be 18 a7 19 3f 9d f0 34 3f be aa 97 3e
       -0.42978176 0.6002059 0.70679647 0.29622453
000100 b1 8f 1d 3f dc 10 17 3f 16 3a 2c bf ff 3f 44 be
       0.6154738 0.590101 -0.6727613 -0.19165038
000110 48 ad a1 be 3f 06 68 bd 0c 9c 96 be 22 75 92 3e
       -0.31577516 -0.05664658 -0.2941593 0.2860499
000120 8c 5a 90 3e 52 9d 3a be 76 c2 d6 bf d1 9d d8 bf
       0.28194082 -0.18224075 -1.6778095 -1.6923162
000130 ad 66 5f 3f bd 1a fe 3e 42 54 27 c0 f6 d6 64 bf
       0.87266046 0.49629775 -2.6145177 -0.89390504
000140 73 3b e0 3e 63 d0 c5 3e cb dc ce bf 95 df cb bf
       0.43795356 0.3863555 -1.6161131 -1.5927607
000150 92 e7 8d 3f f3 9c 2f 3d df 8b f3 bd c8 a6 b2 be
       1.1086295 0.042874288 -0.11891913 -0.3489287
000160 f3 9f 7f bf 00 c3 a7 3e 72 f1 05 bd b4 6f b7 3d
       -0.9985344 0.3276596 -0.032700963 0.089568526
000170 18 6a 81 c0 61 3a 26 3f b7 0e a9 3e 70 89 bb 3f
       -4.044201 0.6493283 0.3301904 1.4651318
000180 b3 86 64 3f df 46 98 be fd 6c 2a 3e 45 3f 1f 3e
       0.89268035 -0.2974157 0.16643138 0.15551479
000190 10 ca 2f bb ac ed 3e 3f b3 29 5b 3f 28 fb 62 be
       -0.002682332 0.7458141 0.856105 -0.22166121
0001a0 23 6d 1a bf b5 db de 3e 6a 2a 53 3f 07 14 6b be
       -0.6032278 0.43526998 0.82486594 -0.22956859
0001b0 91 cf f1 3f 05 af 21 bf 3f 93 fe 3b a0 eb 07 3e
       1.8891469 -0.63157684 0.007769018 0.13273478
0001c0 fb 06 84 bf 55 9f fc 3e 09 24 e7 3f 28 87 26 bf
       -1.031463 0.4934031 1.8057872 -0.6504998
0001d0 61 f5 4e bc ce de 18 3d 59 46 9c 3d a7 04 1f 3e
       -0.012631745 0.037321858 0.07630605 0.15529118
0001e0 1f c1 ce be 0f f9 14 c0 d3 0c 01 c0 47 22 07 3e
       -0.40381715 -2.3277013 -2.0164077 0.1319667
0001f0 c0 db 43 3f 95 98 35 bf b1 52 fe 3e 8f aa 07 bf
       0.76507187 -0.70935947 0.49672464 -0.52994627
000200 7c 44 ff bf 37 b9 1f 3f 66 44 a1 3f 94 e3 8a c0
       -1.9942775 0.6239199 1.2598999 -4.3402805
000210 8d f2 9a bf 77 ce bc 3f a4 44 a1 be 0a 9c 82 be
       -1.2105271 1.4750508 -0.3149768 -0.25509673
000220 41 bb 88 bf b3 e5 b2 bf f9 28 05 40 50 bd 8c 3e
       -1.0682145 -1.3976349 2.0806258 0.27488184
000230 72 f8 9b bf 46 05 eb bd d4 72 15 c0 4c e2 b6 3e
       -1.2185194 -0.11475615 -2.3351336 0.35719526
000240 a7 6d ee be 4a 92 a4 bf 30 57 70 c0 92 04 f0 be
       -0.46568033 -1.2857144 -3.7553215 -0.46878487
000250 88 d0 71 3f 22 65 c8 bf d0 1f 61 c0 44 a4 1e c0
       0.9445882 -1.5655863 -3.5175667 -2.478776
000260 0a c1 3a 3e c4 4b 97 3e c2 02 10 c0 a4 0a 0b c0
       0.18237701 0.29549992 -2.2501683 -2.1725245
000270 a9 c1 be 3e 96 6c 9b bf ad cf 43 bb ed 26 c5 bd
       0.37257126 -1.2142513 -0.0029878423 -0.09626565
000280 68 c0 8f 3e e2 c4 10 3f 45 f6 eb bb a2 c2 59 3f
       0.28076482 0.5655042 -0.0072009885 0.8506261
000290 af d1 c9 be df f8 2a c0 66 18 11 be e8 65 8f 3f
       -0.39417788 -2.67144 -0.14169464 1.1202974
0002a0 92 91 03 be 61 09 fa be 7b 60 1a 3e 2b 8c 70 3e
       -0.128485 -0.4883528 0.15075867 0.2349097
0002b0 90 4c 9a 3d 20 e0 3b 3e 06 58 5c 3d a2 80 65 3f
       0.075341344 0.18347216 0.053794883 0.89649403
0002c0 20 22 98 bf be f4 a0 3f 3b 7c a9 3f 9b 2c 27 c0
       -1.1885414 1.2574689 1.3241037 -2.6120975
0002d0 c9 5b 5f be 8d 36 6b bd 91 52 e0 bd 05 9c c1 bc
       -0.21812357 -0.05742507 -0.10953248 -0.023633966
0002e0 e0 c7 c8 bb dc b7 41 be 49 8a bc 3d 84 94 33 3d
       -0.0061273426 -0.18917793 0.09206063 0.043842807
0002f0 f7 1c 23 be 3f 83 af 3c 81 bd aa bd 45 c8 1b bd
       -0.15929018 0.021424888 -0.08336926 -0.03803279
000300 14 0d 18 3e c8 e6 e7 bd c6 d9 d0 bd 5e 74 64 3d
       0.14848739 -0.11323315 -0.10197787 0.05577504
000310 a0 4a 6c bc bd b9 9e 3d 4f 70 83 c0 2a df 87 3f
       -0.014422089 0.077502705 -4.1074595 1.0614979
000320 61 33 8e 3f 7d ed 30 3f fd 95 30 3f 52 32 da be
       1.110943 0.6911238 0.68978864 -0.42616516
000330 8c 3b 9a be 99 11 3c c0 44 cf c8 bd aa ec bb bc
       -0.30123556 -2.938574 -0.09805158 -0.022939999
000340 58 82 d4 3f 5c e4 64 3d 6d df f6 bf 95 6e 84 3f
       1.6602278 0.055881843 -1.9286934 1.0346247
000350 6d 3b 1f bf c3 51 86 3f 43 09 37 3f 48 1f 64 3e
       -0.6220005 1.0493702 0.7149851 0.22277558
000360 28 42 ce c0 31 92 f7 3f 84 48 0e 40 0c 0a b7 bf
       -6.4455757 1.9341489 2.223176 -1.4299941
000370 7d 74 20 bf cc 37 cf 3e 01 c2 f3 bf d8 69 9d 3e
       -0.62677747 0.40472257 -1.904358 0.30744815
000380 65 33 79 3e 24 50 53 3d 36 80 e6 bf b5 e5 32 c0
       0.24336012 0.0515901 -1.8007877 -2.7952702
000390 e1 e9 f9 be 76 cf 90 3e ea 96 84 3f cc 23 83 3f
       -0.48811248 0.2828328 1.0358555 1.0245299
0003a0 5a 82 7a bf f6 a2 ca bf 35 3b e7 bf 28 1b 0e 3f
       -0.9785515 -1.5830982 -1.8064944 0.5551019
0003b0 dd 1e f7 c0 52 7f c3 bd 14 7c 15 3f fa ad 26 bf
       -7.7225175 -0.09545769 0.58392453 -0.6510922
0003c0 34 24 27 3f de 40 24 bf 13 a3 32 3f d1 12 a3 3e
       0.65289617 -0.6416148 0.6978008 0.31850293
0003d0 d8 18 8b 3e b9 c6 15 3f 2d c3 3e c0 c9 cf 9c 3e
       0.27167392 0.5850635 -2.9806626 0.30627277
0003e0 7a b2 a0 be 72 7c 1f be ba ec 4f 3f 9a 6a 60 be
       -0.31386167 -0.15574816 0.8122059 -0.21915665
0003f0 e1 8f f0 3e 63 36 9a bd 03 39 8e 3f a7 c5 55 40
       0.4698477 -0.07529905 1.1111149 3.3401887

net.0.bias f4 [512]
000000 d0 47 cf bc 56 ec 83 bd 89 24 51 3f 94 9d a7 3d
       -0.025302798 -0.06441562 0.81696373 0.081843525
000010 69 e2 01 3f 6a 27 25 bf ed d5 d4 3e 7c 8d fe 3e
       0.507361 -0.64513266 0.41569462 0.4971732
000020 63 43 bd 3e 49 83 68 be 8e 7e 4f be 62 c4 8b 3f
       0.36965474 -0.22706331 -0.2026312 1.0919306
000030 60 df 5d 3f b2 5a 74 be 3c a0 0e bd c2 8c 55 3e
       0.8666897 -0.23862723 -0.03482078 0.20854476
000040 52 db f8 3d 80 a4 db bd 6b f4 c1 be 31 56 59 bf
       0.12151207 -0.10724735 -0.3788179 -0.8489714
000050 3e 0e 3c 3f 02 ef 7b be 1e 0c f6 3e c3 fc 5c 3f
       0.7345923 -0.24602893 0.4805612 0.86323184
000060 c3 61 8a 3f 8c 3b de 3d 55 92 d9 bd a9 e1 20 be
       1.0811085 0.108512014 -0.10623614 -0.15711083
000070 25 2c 2c be 4a 84 e8 3d 31 8b a1 bf c6 81 8b 3e
       -0.16813715 0.11353357 -1.2620603 0.27247447
000080 32 45 ad be f5 ca 9e be 33 1f 15 bf 81 88 f0 3e
       -0.33841854 -0.3101422 -0.5825073 0.46979144
000090 30 c5 26 3e 37 68 5b 3f 33 fa 57 be 98 a3 cd 3e
       0.16286159 0.85705894 -0.21091537 0.40163875
0000a0 f0 52 09 3e ae 0c 2c bf 06 f1 33 bd 5e ec 0d 3e
       0.13410544 -0.6720685 -0.04393103 0.13859698
0000b0 fe ab 34 3e 09 f5 c3 3e b1 21 58 bf b5 ff 70 be
       0.17643735 0.38272884 -0.8442641 -0.23535044
0000c0 a8 99 98 3d 82 e5 f0 3e 33 9f 1e 3f fe 17 f6 3e
       0.074511826 0.470501 0.6196167 0.4806518
0000d0 f4 0a 9d bd 84 d2 bd 3e 2f dc 12 3f 8a a4 1f 3f
       -0.07668105 0.37074673 0.57367224 0.6236044
0000e0 dd 2e 22 3d 89 9a 7a 3f ea 38 0d 3f 8f a4 70 3c
       0.039595474 0.9789205 0.5516497 0.014687671
0000f0 ca de 81 bd b2 c4 a6 3e 08 c8 eb 3e c9 4b 49 3d
       -0.06341322 0.32571942 0.4605105 0.04914454
000100 8c 78 a1 3e 43 62 8a bd d3 31 0e bf 9b f6 6d bf
       0.31537282 -0.06757023 -0.55544776 -0.92954415
000110 18 86 12 be ad 6f 1b 3e 27 54 bd 3e 40 a5 cf be
       -0.14308965 0.1517932 0.36978266 -0.40555763
000120 e7 3e 63 3f d1 d2 42 3f 2c 3c 9b 3d d2 0a 97 be
       0.88767856 0.7610293 0.07579836 -0.29500443
000130 d9 bd 97 bf 0b 08 97 3f b9 3e ac bd ec 44 3f bf
       -1.1854812 1.179933 -0.08410401 -0.7471454
000140 1c 5b 9e 3e 0a a7 a2 3f 1c 2e 0f 3e 9c 9f 8f 3e
       0.30928886 1.2707226 0.13982433 0.2805146
000150 04 e1 20 bd b3 d2 02 3f 72 a2 08 3f e3 4a 8a 3d
       -0.03927709 0.5110275 0.5337287 0.06752565
000160 a9 5e 8f 3f c4 02 ee 3e 67 9a 31 3e 57 33 40 be
       1.1200763 0.46486485 0.17344056 -0.18769585
000170 02 d6 85 bd 6f 58 39 3e 6e cf 0b 3f 9c 2c 17 3e
       -0.065349594 0.18100141 0.5461339 0.14763111
000180 3d 28 0c bf df bb 04 3f 78 33 40 bf a7 ec a9 3e
       -0.547489 0.5184917 -0.75078535 0.33188364
000190 8a 60 dd 3e 9d c9 36 3f fa f6 bc 3e 64 87 9c bf
       0.43237716 0.7140139 0.36907178 -1.2228818
0001a0 7e 08 6f be 89 ad ee be 36 16 83 bf 28 15 41 be
       -0.23343083 -0.46616772 -1.0241153 -0.18855727
0001b0 5f ec 1e bf 05 3d 95 3e 86 10 7b 3f 67 e6 14 3e
       -0.62079424 0.29148117 0.9807209 0.14541017
0001c0 41 65 10 be 94 1b fd 3d c0 cc 65 be 5e 2c 37 be
       -0.14101125 0.12358776 -0.22441387 -0.17888018
0001d0 4d 35 15 3f 45 ee 75 be 09 ca f6 bd 1f d1 7e 3f
       0.58284456 -0.24016674 -0.12050254 0.99537843
0001e0 71 ea a3 3f 05 39 d8 3c 27 4d 17 be a9 cc 3f 3f
       1.2805921 0.026394377 -0.14775525 0.7492166
0001f0 97 00 44 be 75 b3 3d bf 04 da b6 be 34 09 42 3f
       -0.1914085 -0.74101955 -0.35713208 0.7579529
000200 a3 5b e0 3e 76 a5 43 3e 76 e0 a7 bc 42 1b cc 3e
       0.43819913 0.19106087 -0.020492774 0.39864546
000210 e8 c7 10 3f c0 c5 2d be 9c 24 86 bd d6 1b 3a bf
       0.5655503 -0.16969967 -0.065499514 -0.72698724
000220 3e e0 37 3f 10 f1 58 3f 68 2e 0b 3f aa bb 81 be
       0.7182654 0.8474283 0.54367685 -0.2533849
000230 2c 5e a1 3e ae 16 98 3f 25 a2 2d 3f 19 a5 2a be
       0.3151716 1.1881921 0.6782554 -0.16664542
000240 16 72 00 3f 4f 12 0d 3e 85 15 3c 3f 47 b9 0d 3f
       0.5017408 0.13776515 0.73470336 0.55360836
000250 fc ff 65 3e 0f f3 bd 3e fe ab c9 be 5e 14 93 3f
       0.22460932 0.37099501 -0.39389032 1.149059
000260 f5 ee 8e 3f 93 00 77 bf 06 34 06 3f d4 ad 41 3f
       1.1166674 -0.9648525 0.5242313 0.75655866
000270 c6 ac fd 3e de cf 87 3e 71 8b ac 3f a8 47 96 3d
       0.49545878 0.26525778 1.3480054 0.07337886
000280 be a8 1d be 15 97 fc 3e cd 67 03 bf 2f 45 2f 3d
       -0.15396401 0.49334016 -0.5133026 0.042790588
000290 41 7b 78 3e 9e 46 d7 3d aa ae c5 3c f2 93 f2 3e
       0.24265768 0.10511516 0.024131138 0.47378498
0002a0 07 e5 ec 3e e1 9a f1 bd 58 e2 10 bf 65 01 67 be
       0.46268484 -0.11797119 -0.56595373 -0.22559126
0002b0 6f cd 46 3f 4c 3a 36 be 49 a7 a5 3d 89 da e2 3e
       0.77657217 -0.17795676 0.08088548 0.44307354
0002c0 c6 a0 95 3d 01 c8 fa 3e af 79 43 bf 55 48 84 bf
       0.07306056 0.48980716 -0.7635755 -1.0334574
0002d0 c8 eb 3e 3f 2e 26 10 3e a7 eb 2a be 22 8a 23 3f
       0.74578524 0.14077064 -0.16691457 0.6388265
0002e0 4c 83 05 bd 7f 67 66 3f 02 c8 ba 3e 06 f1 a5 3e
       -0.032595918 0.9000167 0.3648072 0.3241045
0002f0 57 3e 24 3d 2c e8 41 be 40 9a a9 bc 2c 97 02 3e
       0.040098514 -0.18936223 -0.020703435 0.1275298
000300 a6 94 08 3e 97 3a 30 3f a2 7d 83 3e 53 20 2f 3f
       0.13337955 0.688394 0.25681788 0.684087
000310 ae 29 aa be e5 4f ab be 3d d3 a6 3e 48 a1 d1 3e
       -0.33234924 -0.33459392 0.32583037 0.4094336
000320 ba 55 59 3e 45 10 c5 be 9e 95 44 3d 41 37 2c be
       0.21224108 -0.38488975 0.04799425 -0.16817953
000330 b2 a8 0e 3f 64 a5 be 3e 48 6f 2d 3f 2d f5 46 3f
       0.5572616 0.37235558 0.67747927 0.7771786
000340 7d 54 bc 3e cb 0c 5e 3f bd 59 f2 3f 56 22 59 3f
       0.3678321 0.8673827 1.8933636 0.8481802
000350 85 10 2e 3f 2c f7 70 bf 7a c7 94 3e 87 37 4d 3f
       0.67993957 -0.94127154 0.2905844 0.80162853
000360 35 07 10 bf 98 4d 5f 3e e6 b1 01 be 2d 19 b9 3f
       -0.56261 0.21806943 -0.12665519 1.4460808
000370 93 85 e2 be ec dc 71 be 44 43 51 3d 77 9f 6f 3f
       -0.44242534 -0.23619431 0.05108954 0.936027
000380 a8 4f 74 3d 6e d1 a5 be 55 e3 05 bf d9 a5 2f 3f
       0.05964628 -0.32386345 -0.52300006 0.6861244
000390 03 ea 26 be a1 b9 bf bd 78 e9 e8 bd f4 a7 12 3f
       -0.16300206 -0.09361578 -0.11372656 0.57287526
0003a0 6c 7a 62 3f 4e d1 e0 be 7d 35 01 3f c5 1a 34 3f
       0.8846805 -0.43909687 0.5047224 0.7035335
0003b0 9b 2c b5 3d 37 4f 60 3f 93 47 d9 be f2 a9 35 3e
       0.088463984 0.8762087 -0.4243742 0.1774061
0003c0 73 68 59 3f ac 98 4e 3f 40 93 ae 3e 9c 5c 7a 3f
       0.84925 0.8070171 0.34096718 0.9779756
0003d0 a8 81 11 3f 25 e8 56 3e f9 9c 04 3d 6c c4 ad bd
       0.56838465 0.20986994 0.032376263 -0.0848473
0003e0 20 36 62 be dc c2 d5 3e 8a 58 22 bf 23 1e 2d 3f
       -0.2209096 0.41750228 -0.6341635 0.6762411
0003f0 46 7b 41 be 84 c8 75 3e 88 ad 5c 3f 6f aa a5 3f
       -0.18894681 0.24002272 0.8620229 1.2942637

net.2.weight f4 [256, 512]
000000 3e ee 9f 3c de f8 04 bd 5e 18 9f 3c 7c 6d 7b 3c
       0.019522782 -0.0324639 0.019420799 0.015345927
000010 d0 18 ff 3c 11 65 6a bc 37 1f 65 bd 29 fe 66 bb
       0.031139761 -0.014306323 -0.055937972 -0.0035246706
000020 e2 39 89 bc 65 b4 96 bb b0 a0 2f 3b 1b 00 c9 bc
       -0.016751233 -0.0045991414 0.0026798658 -0.024536183
000030 95 fe c9 bc c0 4f 28 bd a0 f9 c7 bc 37 0f ff 3b
       -0.024657527 -0.04109168 -0.024411023 0.007783796
000040 4d 74 09 bd d1 31 0e 3d 17 94 0a 3c 46 27 ba bc
       -0.03355818 0.034715477 0.008458159 -0.022723805
000050 14 9b 56 bd ac 13 4a bc 56 9b 01 bd 30 51 a3 3c
       -0.052393988 -0.012333792 -0.03164228 0.019936174
000060 54 55 02 bd cb bf 67 3c 10 95 4e bc 68 2f 47 bd
       -0.031819656 0.014144848 -0.012608781 -0.048629194
000070 a9 ab f6 3c ba 7e cf 3c ee 04 d1 3c 9b 7d 2b ba
       0.03011115 0.025328983 0.025515046 -0.0006541849
000080 b2 26 e6 bc 22 b5 88 3c 8e 4c 81 3c 20 52 bb bc
       -0.028094623 0.016687933 0.015783574 -0.022866309
000090 e8 aa a0 3b 45 02 fd bc cf b2 25 3d a9 a1 69 3c
       0.004903186 -0.030884871 0.04045373 0.014259734
0000a0 bf 97 20 3d 81 16 09 bd 4c 35 f4 bc 5b 1a ae 3c
       0.039207216 -0.033468727 -0.02981057 0.021252802
0000b0 bd 60 cb 3c 54 e8 85 3c 0e 39 af bc 90 c4 22 bb
       0.024826402 0.016346134 -0.02138951 -0.0024836399
0000c0 80 36 94 bc db 89 51 3c 6b 0c 87 3b a6 d4 28 bd
       -0.018092394 0.012789215 0.0041213534 -0.041218422
0000d0 14 19 0c bc 24 f8 87 3b c9 e2 5a bc f6 e1 ca 3c
       -0.008550901 0.0041494537 -0.013359734 0.02476595
0000e0 2f 4a 36 bd 56 47 d5 bc 24 34 79 bd ad f5 29 3d
       -0.04450434 -0.026034992 -0.06084074 0.04149406
0000f0 00 42 cb b9 ef b6 53 3a 53 19 25 bd a9 6d a8 bc
       -0.0003876835 0.00080762705 -0.040307354 -0.020560103
000100 83 fd ec bc b7 66 05 bd 86 d8 c2 bb b2 86 ef 3b
       -0.028929478 -0.03256866 -0.0059462218 0.007309758
000110 26 c8 2c bd b2 b9 30 3c 80 f9 65 bd 1e 9b ff bc
       -0.042183064 0.010786461 -0.056146145 -0.031201895
000120 6f 96 ec bc d5 da d9 bb a7 bf 4d 38 5f 05 0c 3d
       -0.028880326 -0.0066484013 4.90543e-05 0.03418481
000130 40 e4 b5 bc 2b b3 fd bc fc 8b 42 bb b9 06 27 bd
       -0.022203565 -0.030969223 -0.0029685488 -0.040777896
000140 5d 75 b7 bc fd 83 6e bc 8f 6e 44 3c 7f e3 4d bc
       -0.02239483 -0.014557836 0.01198925 -0.012566446
000150 ab 2c 8f bc 17 2b 10 bb 91 03 b3 3c ec 58 2b bd
       -0.017477354 -0.002199834 0.021852287 -0.04183285
000160 8e a4 81 bc 40 90 56 bd 90 80 20 bc f2 7e f1 3c
       -0.015825536 -0.05238366 -0.009796277 0.029479478
000170 40 56 dc ba 40 55 36 3a 23 5c dc ba ab ec 03 bd
       -0.0016810372 0.0006955452 -0.0016812127 -0.032208126
000180 7f d7 c8 3c 3a 4e 7d bb 3e 50 1f bd ef 8c b1 3c
       0.024516819 -0.0038651363 -0.038894884 0.021673648
000190 75 34 52 3b 91 b9 1e bc 00 10 67 ba 89 61 a3 bc
       0.0032074724 -0.009687797 -0.0008814335 -0.01994397
0001a0 c8 5d 2b bd 9c 8a 3e 3b d3 40 5d bd de c2 fd 3c
       -0.041837484 0.0029074317 -0.0540169 0.030976709
0001b0 bf e3 bd bc 29 d7 05 3d 35 ce 16 bd cb 97 67 bc
       -0.023179887 0.032675896 -0.036817748 -0.014135311
0001c0 00 90 f3 b7 80 4f 0d 3a 0f d5 17 3d 22 65 99 3c
       -2.9034913e-05 0.00053905696 0.037068423 0.018724982
0001d0 2c 29 b9 3b dd 04 f2 3c 44 ba f4 bc 03 84 06 3d
       0.00565066 0.029543335 -0.029873975 0.03284074
0001e0 c8 5b ee 3c e4 9c f4 3c c3 75 53 bb 44 4f 1f bd
       0.0290965 0.029859968 -0.0032266236 -0.038893953
0001f0 c9 2c 21 3d 64 ae 63 bd d3 9c 0b bd 84 0a 32 bd
       0.03934935 -0.055586234 -0.034085106 -0.04346706
000200 58 fd 38 bd 92 8a 07 3c 6f 52 da 3b e8 27 5a bd
       -0.045163482 0.008272784 0.006662659 -0.053260714
000210 67 bd e9 bc 07 79 20 3d 5b 35 05 bb 8c c6 1c bd
       -0.028532697 0.03917792 -0.0020325992 -0.038275287
000220 26 86 06 3c ef 7d 51 3c 22 8f 0b ba 4e 51 f2 3b
       0.008210694 0.012786373 -0.00053237577 0.007394946
000230 d1 44 49 3b 15 af 61 bd 91 78 06 bc 2b 34 2e bd
       0.0030711184 -0.05509861 -0.008207456 -0.04253022
000240 56 a4 1b bd 39 60 cc bc be 9b eb bb 18 a1 7c 3c
       -0.03799852 -0.024948226 -0.007190197 0.015419267
000250 9e 52 02 3c 38 cf 04 3d 64 dc a6 3a 05 b8 10 3d
       0.007954268 0.03242418 0.0012730476 0.035331745
000260 9f 20 90 bb 6c a5 1c bd e4 bf 07 bd 41 3d 23 3d
       -0.00439842 -0.038243696 -0.033141986 0.03985334
000270 d9 dc f8 bc 60 5b bd bc e1 b4 5b bc ab 79 34 3d
       -0.030378746 -0.02311486 -0.013409824 0.044061344
000280 32 2c 45 bd d8 5b b9 3b db e6 2a 3c c1 dc 27 3d
       -0.04813785 0.0056567006 0.010431017 0.04098201
000290 2a 23 93 3c 11 ea 2a 3d 14 86 58 bc 6e 05 aa 3b
       0.017961103 0.04172713 -0.0132155605 0.0051886356
0002a0 fb 5d 4a bc 86 f1 7c bc df a9 ea bb 4a 14 bf 3c
       -0.012351508 -0.015438443 -0.0071613635 0.023325104
0002b0 37 30 21 3c 13 12 b7 bc f6 56 81 bc 0f 2f af bc
       0.0098381555 -0.022347486 -0.015788537 -0.021384744
0002c0 0c e8 02 3d 52 22 03 bd a5 27 21 3d b6 ae 71 3b
       0.03195958 -0.032015152 0.03934445 0.0036877817
0002d0 c0 5e 5f 3c ef 91 8e bc 16 92 69 3c 50 78 35 bd
       0.01363343 -0.017403571 0.014256021 -0.044304192
0002e0 a7 a8 04 bd 8f bc 1f bd 14 3b 0f bc 47 52 18 bd
       -0.032387402 -0.038998183 -0.008742113 -0.03718784
0002f0 25 97 e2 bc a6 4e 92 3c 8d 9c 0a bd 4c f9 06 bd
       -0.027659962 0.017859768 -0.033840705 -0.03295259
000300 e1 8a 22 bd fd 0d e9 bc 10 03 1f bd 6b 2f 88 bc
       -0.039683226 -0.028449053 -0.03882128 -0.016624173
000310 97 3e 38 bd 7e 5a 7c 3c 11 7b a0 bc 3f 38 08 bd
       -0.044981565 0.015402434 -0.019589933 -0.033256765
000320 00 9e 88 39 a3 b3 f0 bc 98 ab 94 bc f1 8a 28 bd
       0.0002605766 -0.029382532 -0.018148229 -0.04114813
000330 6e c5 36 bd 7f 72 a5 3c f4 4a 31 bd 8b d9 af 3b
       -0.044621877 0.020196198 -0.04328437 0.0053665093
000340 b9 7d b0 bc 5f a5 9c 3c 9d 49 c2 bb 7a 39 20 3b
       -0.021544324 0.019121824 -0.0059291855 0.0024448321
000350 d6 b9 cf 3c 66 90 76 bd 76 b8 85 3c c9 62 81 bc
       0.025357168 -0.060196303 0.01632331 -0.015794175
000360 93 28 29 bd 8c 9a fb bc 40 2b 52 3c 02 f4 b1 bc
       -0.04129846 -0.030713342 0.012827694 -0.021722797
000370 41 95 a0 3c 34 a1 da bc 2f ae 97 bc 48 f7 9f 3c
       0.01960242 -0.026688196 -0.018515674 0.019527093
000380 50 4d 29 3c 98 e0 4e 3c d5 ca 39 39 d5 bb 16 3b
       0.010333374 0.0126267895 0.00017718536 0.002300014
000390 46 62 ff 3c 1b b0 db 3b 60 08 81 3c 5b 73 56 bc
       0.03117479 0.006704343 0.015751064 -0.013089026
0003a0 25 55 0f bd 00 fe 02 3d 5a 84 cc 3c c0 6d 6e bc
       -0.03499331 0.031980515 0.024965454 -0.014552534
0003b0 5a 54 31 3c d6 aa a9 3c 10 4f 35 bd d0 66 90 3c
       0.010823334 0.020711344 -0.044264853 0.01762715
0003c0 e0 a5 4a bd 14 b5 01 bd 64 28 2d bd dd 1e 39 3c
       -0.049474597 -0.03166683 -0.042274848 0.011298862
0003d0 99 79 38 bd ba cd d7 bc 62 64 ec 3c 38 d0 2c bc
       -0.04503784 -0.026343215 0.02885646 -0.01054769
0003e0 9d e9 b0 bc fa 12 bf 3c d4 f1 d4 3c 3b d7 ce 3c
       -0.02159577 0.023324478 0.025994219 0.025249114
0003f0 23 d3 83 3c 4d d9 ff 3c d2 13 4d bc b5 a2 fc 3b
       0.016091889 0.031231547 -0.012516933 0.007709826

net.2.bias f4 [256]
000000 b6 d9 2d 3c 20 52 06 3f f2 94 3a 3f 9e a6 f0 be
       0.010610988 0.5246906 0.7288352 -0.4700212
000010 07 c6 df bc cb 31 d5 3d ec 0c 45 bd d8 de f2 b9
       -0.027316106 0.10409888 -0.048108026 -0.00046323868
000020 53 7a 5d 3c 99 ae 07 be e4 06 f3 bc 33 4d fb bc
       0.013517934 -0.13250197 -0.029666372 -0.03067646
000030 6f d3 8c bd 7a 21 c1 ba 45 ca 18 3e fd d6 45 bb
       -0.06876265 -0.0014734708 0.1492091 -0.0030187957
000040 40 a4 15 bb 95 84 dd 3b d8 49 3d bd 9c d6 d1 3e
       -0.0022833496 0.00676019 -0.046213 0.40984046
000050 3b c0 13 3e 33 0b 46 3a e3 e8 d0 bc e2 63 25 3f
       0.14428799 0.00075547694 -0.025501674 0.64605534
000060 00 6f 77 3e 76 aa b4 3c f9 42 0e ba a8 33 77 bd
       0.24163437 0.022053938 -0.000542685 -0.060351998
000070 39 1c 8e 3b e7 ba d7 3e a3 da 8a 3c 3a 22 5e bd
       0.0043368605 0.42134783 0.016949957 -0.05423186
000080 0e 91 99 be 04 13 53 bc 75 ce 98 bc dc b3 e7 be
       -0.2999348 -0.012882952 -0.018653134 -0.4525441
000090 cc d9 32 bb 99 69 d7 3c 52 70 87 3f 16 57 91 3e
       -0.0027290462 0.02629547 1.0581152 0.28386754
0000a0 75 25 d6 bc 57 a1 b7 3e af 64 19 bd 36 e4 03 bd
       -0.026140908 0.3586528 -0.037449535 -0.03220006
0000b0 48 b8 51 3e 4c 11 81 be a7 c0 3a bc e4 54 44 bd
       0.20480454 -0.2520851 -0.011398471 -0.04793252
0000c0 f5 61 f4 3b fc 40 85 be 8a 8a 7c bd af 82 06 3f
       0.0074579665 -0.26026142 -0.06165556 0.5254316
0000d0 e2 ff 78 3e 8e b2 82 bd b0 39 0b 3d 9e 91 c4 3e
       0.24316362 -0.06381713 0.033990562 0.38392347
0000e0 11 57 4a bc e3 68 88 3e e4 f8 0d bf 73 42 d5 3c
       -0.01234986 0.26642522 -0.554579 0.026032662
0000f0 13 e7 c2 bd 40 c6 21 bd 96 f4 26 bd 9d 3b 9d bc
       -0.0951673 -0.039495707 -0.0407606 -0.019193465
000100 e6 12 3f 39 94 70 bc 3e 0a b5 cf bc d8 b1 94 3c
       0.0001822222 0.3680464 -0.02535488 0.018151209
000110 da ba 0b bd d1 a8 0d bd 40 b5 28 bd 96 e4 8a bc
       -0.034113742 -0.034584824 -0.04118848 -0.016954701
000120 91 e1 1d 3e 01 eb 58 3b 84 e7 c6 be 0a 8d 17 bd
       0.15418078 0.0033099058 -0.38848507 -0.03699974
000130 f3 b9 82 3c 04 1b e5 bb 1e 64 28 bd 9b b2 7a 3c
       0.015957808 -0.006991746 -0.041111104 0.015301372
000140 4e 03 31 3e b6 54 24 bd 29 ab 36 bd 58 93 d2 3b
       0.17286417 -0.04011985 -0.044596825 0.006426256
000150 29 60 f0 3d 39 e8 27 3f f2 8d 51 bd df 25 1b 3e
       0.11737091 0.6558872 -0.05116076 0.15151165
000160 b2 ba 37 bd e6 6c 18 bd cf 25 be be 23 f4 e7 3e
       -0.04485578 -0.03721323 -0.3713822 0.4530345
000170 2b 4f 9a bc 38 4b b4 be c9 01 da bc 71 f4 08 bd
       -0.018836578 -0.35213637 -0.02661218 -0.033436242
000180 b0 db c3 bc ac 38 12 3f a4 19 1d bd 95 30 31 bd
       -0.023908466 0.57117724 -0.03835453 -0.043259222
000190 d8 9e d9 bc 7e a8 76 3e 9a 80 1c bf ec 05 82 3e
       -0.026565 0.24087712 -0.6113373 0.25395143
0001a0 a9 a9 d9 bc 92 2a bf 3c 6a 4a 98 3c fa 01 3f bd
       -0.026570158 0.023335729 0.01859017 -0.046632744
0001b0 ce a3 dc 3e c1 02 1b bd 76 26 ea 3e 66 df 89 be
       0.43093723 -0.037844423 0.45732468 -0.26928252
0001c0 2e 22 2c bf 52 ba 49 3f 14 fb 8f 3e a4 0b 7d be
       -0.67239654 0.7879993 0.28121245 -0.24711472
0001d0 95 a9 0d 3b 03 13 1f 3e 24 3b 84 bd eb a7 ac be
       0.0021615971 0.15534596 -0.06456593 -0.3372186
0001e0 4c 27 37 ba e6 ed 83 3c 77 62 d6 3d b2 7b 8b bc
       -0.00069867517 0.01610465 0.104679994 -0.017026756
0001f0 ea 15 76 bd dd c5 46 3e e8 25 72 3e ae 66 32 3c
       -0.060079493 0.19411416 0.23647273 0.010888739
000200 9b 72 71 3f 6c 75 db 3e aa 07 37 3f 02 f7 e2 3d
       0.943155 0.42863023 0.7149607 0.11082269
000210 3d cb 9f 3c fe 68 94 be 99 b3 df bc 2f c7 13 3d
       0.019506091 -0.28986353 -0.027307319 0.03607863
000220 b7 16 1a 3e dd 98 16 3e cf 7f 79 bd ea 20 cb bc
       0.15047728 0.1470675 -0.060912903 -0.024795968
000230 d4 ee b3 bc a6 32 46 3c f8 38 e8 bc b7 63 d6 bc
       -0.021964468 0.0120970365 -0.028347477 -0.026170595
000240 d2 71 d2 b8 2c e8 f8 3d e2 70 7c 3e 19 4f 30 be
       -0.00010034781 0.12153658 0.24652436 -0.17217673
000250 f5 1c 92 3e 95 ac ab bc 6a 8e a1 3e cc 67 d8 3e
       0.28537717 -0.020956317 0.31553966 0.4226669
000260 68 0f 4f bc 51 9f 62 3b 38 69 00 be bb ea d0 3e
       -0.0126379505 0.0034579823 -0.12540138 0.40804085
000270 11 b5 9a 3d 58 bc b2 3e 0a 82 f1 bc 2d be d2 bc
       0.07554067 0.3490932 -0.029480953 -0.025725449
000280 45 b1 41 bb 6b b1 78 3f 54 2b e0 3e a3 6d 8f bd
       -0.0029555124 0.9714572 0.43783057 -0.070033334
000290 10 ba c2 3c c0 b0 38 3f 40 fd 46 3c 8f 22 11 3c
       0.023770362 0.721447 0.01214534 0.008858337
0002a0 f3 ad e5 bc 6b 76 3e 3f 7d 59 a3 bc 8b 6b 23 bd
       -0.028037047 0.7439944 -0.019940132 -0.039897483
0002b0 29 41 04 bd 61 0d 1a 3f 28 15 93 bd 0f af ff bc
       -0.032288704 0.60176665 -0.071817696 -0.031211404
0002c0 c6 71 f8 bc 55 5a 2d 3f 0f 88 5b bd 9e e7 d6 3d
       -0.030327689 0.6771596 -0.053596552 0.10493396
0002d0 df 86 dc 3e 90 b7 62 bb 21 2b ac 3e 27 2e f2 be
       0.43071648 -0.0034594275 0.33626655 -0.47300836
0002e0 59 5a 4d be 4c b1 2b bd 5c 7e bb 3e 99 e8 90 be
       -0.20053996 -0.04191713 0.36619842 -0.28302458
0002f0 be 02 77 3e 57 12 45 bd d8 ec 81 bc 4f 40 e3 bc
       0.2412214 -0.048113193 -0.015860006 -0.027740626
000300 86 7d 2f bd 85 84 ef bc 9b be a4 3d 90 4d 36 bd
       -0.042844318 -0.029237995 0.080441676 -0.044507563
000310 10 85 2a 3e e0 2c cd be 9e 68 36 bd d8 61 43 3e
       0.16652322 -0.400733 -0.044533364 0.19080293
000320 2f c2 8f 3c be 49 7d 3e a9 cb 06 ba 04 e2 50 3f
       0.017548649 0.24735162 -0.0005142042 0.8159487
000330 0d 20 94 bb 3a 38 27 bd e3 70 32 bd e1 48 60 bd
       -0.0045204223 -0.040825106 -0.04356469 -0.054757003
000340 9c 5c 43 3f 16 e8 94 bc 66 d0 2f 3e 33 bb d0 3e
       0.76313186 -0.018177073 0.17169341 0.40767822
000350 2a 54 b8 bd aa 72 31 3f ab 5a 3c 3e e8 79 ac 3e
       -0.09000428 0.6931559 0.18393962 0.33686757
000360 ac f3 91 bc c6 37 74 bd e2 a0 45 3e e4 d6 e8 ba
       -0.017816387 -0.059623502 0.19299653 -0.0017764238
000370 ae bc 4e bd 58 9e b3 be 35 18 c6 be 5e e4 2f be
       -0.050472908 -0.35081744 -0.38690343 -0.17176959
000380 69 1d c2 bc a5 2c 9d bc 09 ac 6d 3e 17 dd 38 be
       -0.023695664 -0.019186327 0.23210157 -0.18053089
000390 8e 2a 1f bf 53 9b 0e be d9 80 93 bd 06 01 0e bd
       -0.6217431 -0.13926439 -0.0720231 -0.034668945
0003a0 55 aa 95 3e 6d c8 9e 3b 01 65 bc 3c 85 65 ac 3e
       0.29231516 0.00484567 0.022997381 0.33671203
0003b0 32 94 21 bd 74 ca 91 3e a3 39 1c 3e 53 58 36 be
       -0.03944797 0.28474772 0.15256362 -0.1780713
0003c0 ad 15 73 bb 0d 6f 09 bd 05 50 a0 be a4 dd 96 be
       -0.0037091777 -0.033553172 -0.3131105 -0.29465973
0003d0 bc c7 74 3f 9f 34 03 3e 2e 03 7b 3e 58 e4 54 bd
       0.9561727 0.12813042 0.24512932 -0.051975578
0003e0 a2 f6 47 bd 59 cb 01 3f 0f 24 d4 3e 7f bb c7 bc
       -0.04881919 0.5070091 0.4143376 -0.024381397
0003f0 38 f2 8e 3e c2 ca d4 bc fb ef 2b bd 65 5d 58 3e
       0.27919173 -0.025975589 -0.04197691 0.21129377

net.4.weight f4 [4, 256]
000000 1b 56 a9 3c 15 6d fb c0 38 6e c4 c0 ae 5d cf 40
       0.020670941 -7.8570657 -6.1384544 6.4801855
000010 26 39 05 bd f8 33 51 c0 88 ee 5a 3d 0f 53 b7 3c
       -0.032525204 -3.268797 0.053450137 0.022378473
000020 98 63 82 bc bd cd 37 40 28 86 ff bc 9e 2c 81 bc
       -0.01591663 2.8719323 -0.0311919 -0.015768345
000030 33 04 0e 3d 78 c8 09 3d d5 05 56 c0 b9 ae d8 3b
       0.034671973 0.033638448 -3.344106 0.0066126254
000040 b8 b9 47 3d 3c 9c 18 bc aa 0e 0d 3d 7e 3b a5 c0
       0.0487611 -0.009314593 0.034437813 -5.163512
000050 83 6c 53 40 01 13 6c 3c 20 bf 01 3d 26 f2 13 c1
       3.303498 0.014408828 0.03167641 -9.246618
000060 cc f5 e0 c0 e5 d9 04 3d 11 3a ad bc 51 b8 05 c1
       -7.0300045 0.032434363 -0.021145852 -8.357499
000070 a4 4a 25 3c 76 26 9e c0 0b f6 2d 3c c6 4e 2b 3c
       0.0100885965 -4.942195 0.010617743 0.010455793
000080 91 ab d4 40 56 f4 32 3d c0 b2 89 3c 1d 6c b9 bf
       6.645943 0.04369005 0.016808867 -1.4486119
000090 48 09 b3 3c 5a 3b e7 39 69 3d e3 c0 56 60 87 c0
       0.021855012 0.00044103974 -7.1012464 -4.2305098
0000a0 ce cc 23 bd 32 ea 8f c0 97 3f 0b bd 9c 70 73 bd
       -0.03999024 -4.4973383 -0.03399619 -0.059433565
0000b0 b8 8c 18 c1 0e 28 c8 40 4a 93 0f 3d 44 05 7f 3d
       -9.534355 6.2548895 0.035052575 0.06226088
0000c0 76 af 06 bd 08 17 9d c0 74 2a 25 3f b3 c9 4e 3f
       -0.032882176 -4.9090614 0.64517903 0.8077652
0000d0 c1 21 2e 40 98 f1 9a bc 38 50 51 3c ef 86 6f c0
       2.7208102 -0.018914029 0.012775473 -3.7426107
0000e0 7e 5a 58 3c a2 05 7c 40 98 ca 91 c0 c3 8c 95 bc
       0.013205169 3.9378438 -4.5559807 -0.018255597
0000f0 70 4c 9d bf f0 a6 9a 3c 7c c4 62 bd 98 c2 69 3d
       -1.2288952 0.01887843 -0.055363163 0.057070345
000100 e0 d8 6c bc 21 ab d8 40 e0 d1 ed bb f9 3d 02 3c
       -0.014456004 6.7708898 -0.007257685 0.007949346
000110 cb 73 e9 3c 19 12 40 3d 9e 5b 47 3d bb 54 00 3d
       0.028497597 0.04689226 0.048671357 0.031330805
000120 5f f2 2e c0 66 65 1a bd a0 a4 0d 41 72 1e 4a 3d
       -2.7335432 -0.037694357 8.852692 0.04934544
000130 b8 f9 c1 3c 09 99 f0 3c 40 e1 5f 3d b2 51 c0 bb
       0.023678645 0.029369848 0.054658175 -0.005869114
000140 73 67 98 c0 71 3a ed bc 98 e6 27 3c 12 3d 5f bd
       -4.762628 -0.028958531 0.010247849 -0.0545016
000150 8f f0 a0 c0 2a 90 25 40 03 f1 14 3d b2 0b bf c0
       -5.029365 2.586924 0.03636266 -5.9701777
000160 d6 e4 8f 3c 14 e1 15 3b bc 64 8e c0 b3 7f d4 c0
       0.017565172 0.0022869753 -4.4497967 -6.6405883
000170 2d 5f 35 b9 6b a2 ac c0 4f 47 3d bc d8 28 90 3c
       -0.00017296961 -5.3948264 -0.011552646 0.0175976
000180 44 ca 8d bc b3 23 ef c0 79 f4 80 3f 73 24 6f bc
       -0.017308362 -7.473108 1.0074607 -0.0145960925
000190 38 c8 0d c0 67 6d d8 c0 eb d5 d5 40 38 18 e3 c0
       -2.2153454 -6.763355 6.682363 -7.0967064
0001a0 a1 60 25 3c 1b 88 cd bf f6 4d 1f bc 13 a4 48 3d
       0.010093839 -1.6057161 -0.009723177 0.0489846
0001b0 35 cd ad c0 00 39 06 3d fd 18 f5 c0 39 5b 3c c0
       -5.4312997 0.032769203 -7.6593003 -2.9430678
0001c0 05 99 4b 40 f2 91 19 40 2c e5 ed c0 79 f2 d8 c0
       3.1812146 2.3995328 -7.434225 -6.7795987
0001d0 e7 34 de 3c a4 f6 c3 c0 7b 55 27 3b 71 88 a3 bf
       0.027124835 -6.1238575 0.0025533128 -1.2776014
0001e0 84 8c 7f 3c 49 4e c1 3c 18 b0 ca 40 00 e0 21 3c
       0.015597466 0.0235969 6.333996 0.009880066
0001f0 c6 b3 d0 3b 77 fc 8b c0 3e a5 e3 bf d5 4b b7 3c
       0.006369087 -4.3745685 -1.7784803 0.022375027
000200 97 8f 00 40 66 ce 4a 40 13 64 0e 40 8b 15 3e c0
       2.008764 3.1688476 2.224858 -2.9700649
000210 55 6b 39 3d 86 10 a6 c0 6e 67 2f bd 8f 26 d3 c0
       0.045268375 -5.189517 -0.042823248 -6.598457
000220 ab 2f 47 c0 0e 61 8e c0 ef 63 8b 3a 54 45 c8 c0
       -3.1122844 -4.4493475 0.0010634641 -6.258463
000230 1b 03 90 3c b0 b2 8a bc 2f 0d cb c0 36 b7 ca 3c
       0.017579606 -0.016930908 -6.3453593 0.024745565
000240 9f 5d 1e 3d b0 4f dd c0 f5 58 15 c1 86 f2 c2 c0
       0.038663503 -6.9159775 -9.334218 -6.092105
000250 87 19 a0 c0 57 ed 41 3d 06 d6 94 c0 e2 eb 89 3f
       -5.003116 0.047345486 -4.651126 1.0775111
000260 14 64 06 3d fc 63 0a bd 79 19 8d c0 aa ab e3 40
       0.032810286 -0.03378676 -4.4093595 7.114705
000270 da 37 c4 40 ff b0 c5 c0 19 87 f8 3c f0 80 ce 3b
       6.131818 -6.177856 0.030337857 0.0063019916
000280 9a ca ab bc 30 57 cb c0 b6 bc 78 c0 6b 8f b1 c0
       -0.020970631 -6.354393 -3.886518 -5.548757
000290 37 77 17 3c 69 c0 9c 40 d2 3f be 3c 9e 7a 61 3d
       0.009244732 4.8984876 0.023223791 0.055048577
0002a0 98 b1 6d 3d bc 43 29 be 36 56 08 3d 8e 3a 72 3c
       0.058030695 -0.16529745 0.033285342 0.014784468
0002b0 ee c5 32 bd a1 5a b9 3f 8c b8 97 40 a6 ea 65 3d
       -0.04364579 1.4480783 4.7412777 0.05613198
0002c0 34 8d ff 3c 1f 6b a2 c0 c5 ea 53 bd 12 89 19 40
       0.03119526 -5.0755763 -0.051737566 2.398991
0002d0 6d 99 64 c0 e7 fa 31 3c 2b 02 e4 3f 75 3f 9e 40
       -3.5718644 0.010863042 1.7813162 4.945246
0002e0 db 18 e6 c0 5f 11 3c bc 31 a4 aa 40 cb a0 83 c0
       -7.190534 -0.011478751 5.332543 -4.113378
0002f0 32 10 8e 40 72 b1 23 3d 29 6c 88 3b bf 30 c0 3c
       4.439477 0.039964147 0.0041632843 0.023460744
000300 be 2f 56 bd f3 64 98 bc 1c cf c6 bf 10 38 0f 3d
       -0.052291624 -0.018602824 -1.5531955 0.034965575
000310 51 fc f3 c0 71 eb 7f c0 dc 85 47 bd 8f 7d 65 be
       -7.6245503 -3.9987452 -0.048711643 -0.22411178
000320 d7 37 ab 3c a0 f7 e1 c0 53 a0 84 bd 12 79 24 c1
       0.02090065 -7.0614777 -0.06475892 -10.279558
000330 9b 06 60 3c 80 8c f9 bb 6c e6 54 3c f8 b5 97 3c
       0.01367345 -0.007615626 0.01299439 0.018519387
000340 79 06 00 40 54 f6 b6 bc b7 d1 96 c0 70 8e ec c0
       2.000395 -0.022334255 -4.7131 -7.3923874
000350 cd 96 9f c0 b5 35 db c0 db fc a5 c0 a1 4a 85 3e
       -4.9871583 -6.850306 -5.187116 0.260335
000360 10 0c e8 bc 9b 16 8d 40 2b db c6 c0 9e 18 86 c0
       -0.028326064 4.4090095 -6.214254 -4.190505
000370 94 a4 16 3d 61 24 3a 40 95 a1 b4 c0 43 23 5c c0
       0.036778048 2.9084704 -5.6447244 -3.4396522
000380 78 07 43 3d 6e 77 21 3d 8b dc 51 c0 79 20 97 c0
       0.047614545 0.039420538 -3.2790859 -4.722714
000390 eb 0b 3e 40 f5 0b df bf 20 1d c8 c0 78 50 90 3c
       2.9694774 -1.7425524 -6.2535553 0.017616495
0003a0 18 50 9d c0 86 3e 42 bd 71 5e 3e c0 f3 d1 b0 c0
       -4.916027 -0.04742291 -2.9745142 -5.5256286
0003b0 a4 14 4b 3d 28 67 05 c1 28 1c e9 c0 5e 89 17 c0
       0.04958023 -8.337685 -7.284687 -2.3677592
0003c0 41 b8 9d c0 81 b3 09 3d f5 5f 81 c0 99 1a c5 c0
       -4.928742 0.033618454 -4.0429635 -6.159497
0003d0 1c af 07 c1 47 76 80 c0 1f 03 b2 c0 65 ca a6 3c
       -8.480251 -4.014438 -5.562881 0.020360181
0003e0 e3 50 03 bd 12 89 62 c0 a6 44 8a bf cf 7b 4d bc
       -0.03205956 -3.539616 -1.08022 -0.012541725
0003f0 ed b4 de c0 aa 19 c4 3c cd 6a 29 3d 5d 90 87 c0
       -6.9595857 0.023938019 0.04136162 -4.2363725

net.4.bias f4 [4]
000000 8b 7b 95 bf 13 2a 22 3e 31 d8 56 bf db 76 52 3e
       -1.1678327 0.15836363 -0.8392363 0.20553152
