progress/modelo_top_aleatorio.pth (torch, 44977 bytes, 6 tensors)

net.0.weight f4 [128, 14]
00000000: e0c4 c83e 4b85 75c0 39f0 ac3f 2064 2dc1
00000010: fd9d cebe 8f05 a13d e40d 42be 8d4b 633e
00000020: 2e97 683e b45e 193f b1bb 323f e9c5 8abe
00000030: 13db 4ebf f799 d2bf b3ac 5cc0 b095 f2bf
00000040: 6dde 85c0 bddb 5f3f b0bd 003f 9911 0cbf
00000050: a91d 333f d489 34bd d6e5 853e 0df1 033f
00000060: 7d8e 183f ba9f 9d3e 8c5b bac0 b584 bdbf
00000070: e0ab 673d 320b 2d3e aa26 a7bd d0c2 2f3d
00000080: 6c0f b6bd 00c0 64bb e60a d0bd 4e85 0e3e
00000090: c819 8fbd b462 4ebd 6832 233d e8f7 54be
000000a0: bc2b af3d 0006 aa3b c387 87bf b9b4 7ebe
000000b0: b43d c2c0 90d3 cfc0 5f8f a3bf 0d9f ca3e
000000c0: 1eba 0e3f 99df 143d 97ca 94be 339a 45be
000000d0: b01e 71bf 1d4e 78bf 947a 203f f158 1840
000000e0: 4fe6 42bf e4d8 813f 0583 a0bb 5a1a b7bf
000000f0: f300 3540 c285 f83e a50e 853e 639c 49bf
00000100: 763f 4a3e 976e c1bd 4d04 1c3f f74e 8dbe
00000110: 1ffc 863e e21f 60c0 8086 34c0 247a 0240
00000120: 974e 09bf 1be2 7e40 beb0 98be 8502 05bf
00000130: 5ae4 d7bc c20b f53d 674a 0d3f 68f3 d83e
00000140: da01 f53e 8166 00bf 9eb2 6bc0 a299 0540
00000150: 7e3d 01be bfc3 563e acb9 d5bd e7df 6fbe
00000160: eb6c 4f3e 9729 7c3d 6ed4 b1bd 2589 5abe
00000170: f9ca 40bd a37c 4ebe 71a5 58be 60d8 053e
00000180: 2b1c c83c 5f7b f1bd 8c25 82c0 3978 4a40
00000190: 417b 31bf 993c 823f da06 8bbf 3b15 f33d
000001a0: 58b1 28bf e211 4d3f e492 1f3f cc81 3e3f
000001b0: 8df9 b9be 9369 ee3e 1174 46bf 6924 be3e
000001c0: cc3a 1dbe 60a6 06bc 405f f7bb e6c5 06be
000001d0: ee65 b0bd a008 87be a509 43be 4aae 743e
000001e0: 92a4 88be 5b8e 82be 40a5 ff3d 1076 4e3d
000001f0: f940 68be c4e8 b5bd 9935 8dc0 9dfb d33e
00000200: 0a9d 3bc1 4b9d 6f3f c918 adbe 31d6 f9bf
00000210: 8218 10bf 2021 27c0 46f4 18be 9dd0 04bf
00000220: d808 e23e e26a 89bf 3615 1ebf 3e7e 3a40
00000230: c175 0ac0 c834 0040 de4e 86c0 1e75 9cc0
00000240: 50d5 c3be 95fb 00bf e3ea a2be 46ea 723d
00000250: 1762 8ebe 19b0 1c3e 4761 063f bb22 e7be
00000260: 4d6c ba3e eb67 2040 e2c2 09c0 7632 ed3f
00000270: 219d 193f 413c 6240 418d bcbf bc8f 943e
00000280: 88a7 943e 20b2 343f f1f9 f63e ad50 7f3e
00000290: 675c 1a40 a669 dd3f 0958 99bf d160 34c0
000002a0: 9ad1 d4bf cede 0140 254b a9c0 b72e b2bf
000002b0: 09cd 3540 a804 00bf 7528 9e3f f6e6 66c0
000002c0: 4e77 0d3f 0797 e03e 1846 05c0 8999 80bf
000002d0: 6a70 65be 788b f0bf ea87 5240 2d18 adbf
000002e0: 1c84 6640 b161 b9c0 8493 433d a1cf 1a3e
000002f0: 2e5c bc3e 9a29 aebe adf5 a23e 04e9 20bd
00000300: 5669 cbbf bb2c 9bbf 2f6b 8b3f c215 a83d
00000310: 4eb6 f4bd ed33 31be bbaf 46bd 1c54 623e
00000320: 0029 2b3e b8cb 8dbd 774d 87be 30a9 d53d
00000330: cf41 fa3a 6329 97be 79d3 853d e97a 44be
00000340: 43bc cb3d bcf8 13be 295a c740 27ad 39bd
00000350: 92cc 0f41 40f0 d0bf c595 ddbd 4016 10bd
00000360: 04ab 8b3e 8900 073f d17a 8fbe 8262 a2bd
00000370: 10e9 4c3f 6287 c43f 4e71 e4be a831 8abf
00000380: 72c2 ba3e 81cc 4240 fe9f 2bbf 7632 51c0
00000390: 89c6 133f 96f6 583e 5308 89c0 6dcb 19bf
000003a0: 2b8b 153f 2519 123f a8e4 3bc0 f159 5bc0
000003b0: 13f6 0c3d d4dc 86c0 af2f 7cbd bf16 cf3f
000003c0: 779a a0bf c42e 98bf ceea ef3e 9fc9 04bf
000003d0: b5db 233f a796 9f3f bcd6 373f 6a0f 143f
000003e0: b293 793f ba54 2e3c 7e74 3140 8105 983f
000003f0: f2bc a63e c589 f53f d391 c4bf 49ed 8ebf
0.39212704 -3.8362606 1.351081 -10.836945 -0.4035491 0.07862388 -0.18950611 0.22196789
0.2271392 0.5991013 0.69817644 -0.27104118 -0.8080303 -1.6453236 -3.4480407 -1.8951931
-4.1834016 0.8744467 0.5028944 -0.5471435 0.6996713 -0.044076756 0.26151913 0.5153969
0.5959242 0.30785924 -5.823675 -1.4806124 0.056560397 0.16898802 -0.081616715 0.042910397
-0.0888966 -0.003490448 -0.10158329 0.13918039 -0.06987339 -0.0503871 0.039842993 -0.20797694
0.085532635 0.0051887035 -1.0588306 -0.24873628 -6.070032 -6.4945755 -1.2778128 0.3957447
0.5575274 0.03634605 -0.29060814 -0.19297104 -0.9418745 -0.9699419 0.6268704 2.3804286
-0.76132673 1.0144315 -0.0048984312 -1.4304917 2.828183 0.4853955 0.25987735 -0.7875425
0.19750771 -0.094449215 0.6094406 -0.27599308 0.26364228 -3.501946 -2.8207092 2.0387049
-0.53635544 3.9825504 -0.29822344 -0.5195697 -0.026354004 0.11965133 0.55191654 0.42373204
0.47852975 -0.5015641 -3.682777 2.087502 -0.12621114 0.20973109 -0.10435805 -0.23425256
0.20256393 0.0615631 -0.08683096 -0.21341379 -0.04706857 -0.20164733 -0.21156861 0.13070822
0.024427494 -0.11791109 -4.0670834 3.1635878 -0.69328696 1.0174743 -1.0861466 0.11869284
-0.65895605 0.8010541 0.6233351 0.74416804 -0.36323205 0.46564922 -0.77520853 0.37137154
-0.1535446 -0.008218378 -0.0075491965 -0.1316143 -0.086131915 -0.26373768 -0.19046648 0.23894611
-0.26688057 -0.25499234 0.12482691 0.050405562 -0.22681035 -0.08882287 -4.4127927 0.41402903
-11.72584 0.93599385 -0.33807972 -1.9518491 -0.56287396 -2.6113968 -0.14936933 -0.5188082
0.44147372 -1.0735743 -0.61751115 2.9139552 -2.1634371 2.0032215 -4.1971273 -4.8892965
-0.38248682 -0.50383884 -0.3181983 0.05930545 -0.27809212 0.15301551 0.52492183 -0.45143685
0.36410752 2.5063426 -2.1525197 1.8531024 0.60005385 3.5349276 -1.4730607 0.2901591
0.29034066 0.705843 0.48237565 0.24933119 2.4118898 1.7297866 -1.1979991 -2.8184092
-1.6626465 2.029224 -5.290423 -1.3920506 2.8406394 -0.50007105 1.2356097 -3.6078467
0.5526017 0.43865225 -2.0824032 -1.0046855 -0.22406164 -1.8792562 3.2895455 -1.3523003
3.6018133 -5.793175 0.047748104 0.15118267 0.36789078 -0.34016114 0.3182806 -0.03928472
-1.5891521 -1.2123026 1.0892085 0.08207275 -0.11948834 -0.17304964 -0.048507433 0.22102398
0.16714859 -0.06923622 -0.26426288 0.104326606 0.0019093099 -0.29523763 0.06534476 -0.19187512
0.099480174 -0.14450353 6.229756 -0.045331147 8.987444 -1.6323318 -0.10819582 -0.03517747
0.27278912 0.5273519 -0.2802339 -0.07928945 0.80043125 1.5353816 -0.44617695 -1.0796404
0.36476475 3.043732 -0.67041004 -3.268705 0.57724816 0.21187815 -4.282266 -0.6007603
0.5841548 0.5706962 -2.935831 -3.4273646 0.034414362 -4.2144566 -0.061568912 1.6178817
-1.2547139 -1.1889272 0.4685883 -0.5187015 0.6400712 1.246785 0.71812034 0.5783602
0.9749099 0.010640318 2.772735 1.187668 0.3256603 1.9182669 -1.5357002 -1.1166164

net.0.bias f4 [128]
00000000: ab6b 2b3f e4ed f13e 16ec 54be b7d6 173c
00000010: ea90 cc3e 8d5f 843e 4d20 7e3e 0425 503f
00000020: ec55 a93d 7c29 40be 01c5 0a3e f73e 373e
00000030: da5e e73e f8d1 c53e 6e07 793d d242 81be
00000040: 22b5 0f3f b4f1 443f a1c1 583f b3ab b73e
00000050: b24d 29bf 8a9e e8be b8ed 403d 460e 2a3e
00000060: 0091 1ebc 3d1b 87bd ab4d 16be 6555 3fbd
00000070: 474d 7c3f 037d cd3e 66e3 b33f 1b42 47be
00000080: b0b1 b23f f8c2 72be a00c d83c 3672 84bd
00000090: 975d 843e f594 673f 6ae8 10bc 9e87 f23e
000000a0: 7fbb ed3e 802d e1bb 22cf 8ebd a468 463f
000000b0: 6217 a13f 7476 26be 6e51 323d c450 aa3e
000000c0: dc0e dc3d af2a c23d 6fe0 7cbe 60e3 80be
000000d0: 6086 4e3c 7e00 873f afa9 9ebe 7ae9 1dbe
000000e0: a31a 2e3f bf7c ac3e a416 2c3f 10de e3be
000000f0: 4f35 99be 7589 0a3e 1e51 34be 80f6 85be
00000100: d0fc b13e a27f 093f e94d b93e d17f 2b3f
00000110: 10cc 3cbe b349 673f 2cc9 633f 46e9 033f
00000120: c309 e63e cd6d 2d3e 23b8 3d3c 73db 943e
00000130: 0045 d93d c4b6 69be 145f ec3e 9678 5b3e
00000140: aa0b b23e 0fbf 12be 2330 ff3d b0a1 c33e
00000150: 9cb7 6d3e d060 ccbe 0a93 a2bd 9346 953f
00000160: 569a 9abd 9447 273f 6b45 e13d 61cf d73e
00000170: 05e2 1fbd cc19 b73d 0eb6 493d 5039 e73c
00000180: 0a2e 013e 9f7e 75be 4ada a7be 8da0 ca3e
00000190: 3202 f2be 0074 19bd bf55 043e 6eac 02be
000001a0: 20aa 353f 0983 903e 70f7 94bd ec0f 3e3e
000001b0: 1f91 7a3d 1b84 3e3f 1260 eabe 72b3 3e3f
000001c0: e0c1 ce3d 7075 fe3d 7c22 873d 42e6 733e
000001d0: 57bb 473f 7f73 7e3f 282b 0e3e d602 63be
000001e0: fddf 903f 998c 583e 526b d13d 6ac2 503f
000001f0: eba0 643f c812 393e 80ed 973e 3eae 323f
0.66961163 0.4725181 -0.20793185 0.009267501 0.3995431 0.2585415 0.2481701 0.8130648
0.082683414 -0.18765825 0.13551714 0.17895113 0.45189553 0.38636756 0.0607981 -0.25246292
0.5613576 0.7693131 0.84670454 0.35873184 -0.6613418 -0.45433456 0.047101706 0.16607007
-0.009678125 -0.06596992 -0.14678065 -0.046712298 0.98555416 0.4013444 1.4053771 -0.19458811
1.3960476 -0.23707187 0.026373208 -0.064670965 0.25852653 0.90461665 -0.008844474 0.47369093
0.4643211 -0.006871879 -0.06973101 0.7750342 1.2585261 -0.16256124 0.04353469 0.33264744
0.10745022 0.094807975 -0.2469499 -0.25173473 0.01260528 1.0547025 -0.30988833 -0.15421095
0.68009394 0.33688924 0.67222047 -0.44505358 -0.29923484 0.13528998 -0.17609069 -0.26164627
0.34763193 0.5371038 0.36192253 0.6699191 -0.18437219 0.9034683 0.8897884 0.5152782
0.44929323 0.16936417 0.011579546 0.29073676 0.10608864 -0.22823626 0.4616629 0.21432719
0.34774524 -0.14330696 0.12460353 0.38209295 0.23214573 -0.39917612 -0.07938202 1.1662163
-0.075489685 0.65343595 0.109995686 0.42150405 -0.03903391 0.08940467 0.049245887 0.02822557
0.12615219 -0.23974083 -0.3278373 0.39575616 -0.472673 -0.03746414 0.12923335 -0.12761089
0.70962715 0.28224972 -0.072737575 0.18560761 0.061173555 0.74420327 -0.4577642 0.7449256
0.100955725 0.12424743 0.06598374 0.23818305 0.7802023 0.99394983 0.1388365 -0.2216905
1.1318356 0.21147384 0.10225548 0.8154665 0.8930804 0.1807357 0.29673386 0.6979712

net.2.weight f4 [64, 128]
00000000: 995a 4c3d f2f9 5b3d 20ec 70bb ec04 243d
00000010: 5747 8abd 0c3c 42bd ce7c 4a3d 11c4 9c3d
00000020: 4097 b5bb a26b c23c eaa4 b1bd 5b1a b9bd
00000030: 137a 573d 1cc0 33bd 5226 243d 3510 aebd
00000040: a291 193d 62a2 bebd ca39 8e3b 3dbe 8d3d
00000050: 6e1f 093d 9568 e53c 280e 523c d4ae 2fbd
00000060: 4999 933d df2f 30bd 0140 873d 624f 383d
00000070: 020a b5bd b5f2 9abc fb84 87bd c697 70bd
00000080: 0a7f 73bd 6b52 973d 75fb a73d c097 573b
00000090: 0655 423d 72f8 913d a557 b7bc 97df 71bd
000000a0: f4e1 723c 9b0d 853d ae91 143d 87fe 8a3d
000000b0: 5b85 1d3d 3a36 163d afa3 63bd 0b35 02bc
000000c0: ee65 79bd 558f a9bc 4a7a 0e3d 101b d03c
000000d0: 4f06 46bd c121 4abd b1b1 913d 8058 10bb
000000e0: 74fe 10bd bec6 36bd b580 233c 4124 1b3d
000000f0: 65c4 c4bd 600c 16bd 7802 c43c 07da 8a3d
00000100: 7866 583c 3725 213b 9f0e b9bd d192 823d
00000110: c7c1 b33d e0d9 d3bc 3abd 03bc 6cfc 39bd
00000120: 2918 90bd 70a6 6cbc 1456 623d 83c9 63bc
00000130: 2aef 663d c646 183d 5664 963c d5a7 25bd
00000140: 954f ab3d 8cde abbc 9b40 92bd bd83 483b
00000150: 7aa9 953d 1e7f a9bd b266 4cbd 9e9f c2bd
00000160: 4318 a23d b0fb 8a3b 0725 12bd 503d cabd
00000170: 73af a83d d0d3 cbbc ee76 30bd 43af b23d
00000180: f1e8 90bd c579 45bd 3fb9 d83c 014b 263d
00000190: d291 b9bc 9e80 293d bc36 bcbc 4202 613d
000001a0: 73e7 f4bc 976e 8fbc 0008 5ab9 d684 363d
000001b0: bd3c 8abd 0d0d 243d 5f31 c5bd e575 883c
000001c0: 54d1 9c3c 8e92 5f3d 3521 6c3c 1f6f fa3c
000001d0: 1680 f3bc 33e5 9bbd 92ed 963c 9e7b 693d
000001e0: 0666 acbd c532 ea3c a8a9 483c a099 73bd
000001f0: 106f 7cbd aec0 603d 2c43 90bd 6080 90bd
00000200: dc32 8b39 412c 8dbd 1c76 d7bc 50e8 8abd
00000210: 168d 903d d560 0bbd 8221 d9bc dd80 97bd
00000220: 72fc 0c3d a7c5 05bd 5e86 a9bd 81f1 513c
00000230: 2035 533b 7eac 643d b08c 53bd 5199 ffbc
00000240: ada1 563d 57aa 963c ce01 a9b9 eed8 87bc
00000250: dcc4 c5bd 65aa b2bd 857b 923d 0a44 573d
00000260: 2f30 94bd a736 a03c 6842 053c bed8 1e3d
00000270: 0578 803d a7f1 98bd f2cb 9cbc 1fe4 7cbd
00000280: c35e a33d 08fe 82bc 88ec 0c3d d0ca e83b
00000290: 1367 24bc 8fd6 74bc 6aef 503d ac63 8bbd
000002a0: 7ebf 81bd 307f c3bc f828 9ebd d058 70bd
000002b0: 47db cd3c 3825 fe3c 24f8 a7bd fe83 b03c
000002c0: 5998 53bd aa9f ebbc 6c8c 84bd a46c b3bd
000002d0: a391 8d3d a88f 8dbc 52fe 67bd 5002 67bd
000002e0: 9031 19bc a648 f43c f22c 323d 383e 89bb
000002f0: 01dd 953d 0405 97bd eb5a 973d 80b3 7f3b
00000300: 42d7 553d ddbd 2c3d c93a 7dbd bcb2 98bd
00000310: 2970 aabd c33d 0cbc d16c a03c a242 c0bc
00000320: 4d94 4ebd 8cf8 bfbc 0475 353d 43a4 e4bc
00000330: 08fe 08bc 5625 86bd f6cf 4d3d eee0 5b3d
00000340: 1625 62bd 40ad 8dbb 6f0c 863d 8912 2abd
00000350: ce0c 7f3d 102c e7bd 3a90 663d 14ca 8bbc
00000360: e985 803d 13a3 2abc f4b6 d43c a6e6 b1bd
00000370: 3df3 163d b077 63bc 9865 123c 6f35 8c3d
00000380: 6ea1 74bd 8c95 e03c 7736 803c 0e4f e9bb
00000390: 470e 6fbd 805e 8eba 50b1 5cbd 787e a5bc
000003a0: 9542 82bc 5e8d dbbd 6008 53bc fe38 a9bd
000003b0: c7bb 9e3d 1198 d7bd 8152 603d fd5d dabc
000003c0: 40af f9bc bddf a93d 876f aabc a3e7 30bc
000003d0: 4c82 41bd d2d4 e2bd 131f bf3c 50e7 d63c
000003e0: 73b4 8dbd 98c2 23bd ca16 f3bc da58 043d
000003f0: 8a63 40bd 96e5 98bd 555c c8bd fb36 8d3c
0.04989109 0.053705163 -0.0036761835 0.040043756 -0.06751888 -0.047420546 0.04943543 0.07654584
-0.005541712 0.023732964 -0.08674033 -0.0903823 0.052606653 -0.04388438 0.040075608 -0.08499185
0.037492402 -0.09308316 0.004340385 0.06921051 0.03347724 0.02800397 0.012820758 -0.04289134
0.07206971 -0.043014403 0.06604005 0.04499758 -0.088397995 -0.01891456 -0.06617161 -0.058738492
-0.059447326 0.07388767 0.082022585 0.0032896847 0.047444366 0.07127465 -0.02238066 -0.059051123
0.014824379 0.06496736 0.036271743 0.067868285 0.038457256 0.03667281 -0.055576023 -0.007947217
-0.060888223 -0.020698229 0.034784593 0.02540353 -0.04834586 -0.049348596 0.0711397 -0.0022025406
-0.035398915 -0.04462313 0.009979417 0.03787637 -0.09607772 -0.036632895 0.023926958 0.06779867
0.013208024 0.0024588832 -0.09035992 0.06375659 0.087771945 -0.025860727 -0.008040721 -0.045406744
-0.07035858 -0.014443979 0.05525787 -0.013903025 0.05638043 0.03717687 0.01835839 -0.04044326
0.083647884 -0.020980142 -0.07141229 0.00305961 0.07307716 -0.08276199 -0.049902625 -0.09503101
0.07914784 0.0042414293 -0.035679843 -0.09874976 0.08236589 -0.024881274 -0.04308217 0.08724835
-0.0707568 -0.04821183 0.02645552 0.040598873 -0.02265254 0.041382425 -0.022975318 0.054933794
-0.02989552 -0.017508788 -0.0002079308 0.044560276 -0.06749866 0.04005151 -0.096285574 0.016657779
0.019142784 0.054583125 0.014412214 0.030570565 -0.029724162 -0.07612076 0.01842383 0.057002656
-0.08417897 0.028588662 0.01224748 -0.05947268 -0.061629355 0.054871254 -0.07044062 -0.070557356
0.0002655004 -0.068932064 -0.026301436 -0.06782591 0.0705816 -0.034027893 -0.026505236 -0.073976256
0.034420438 -0.0326592 -0.08277582 0.012813927 0.003222771 0.055828564 -0.051647842 -0.031201037
0.05240028 0.018391771 -0.00032235536 -0.016582932 -0.096566886 -0.087239064 0.07152466 0.05255512
-0.07235753 0.01955731 0.008133508 0.03878092 0.06272892 -0.074679665 -0.019140217 -0.06174099
0.07977059 -0.015990272 0.03440526 0.0071042553 -0.01003434 -0.014943733 0.051009573 -0.0680612
-0.06335352 -0.023864359 -0.07722658 -0.05867845 0.025128974 0.031023607 -0.08201626 0.021547314
-0.051658962 -0.028762657 -0.06472096 -0.08760956 0.069125436 -0.017280415 -0.056639023 -0.05639869
-0.0093501955 0.029819798 0.043499894 -0.0041883253 0.07317544 -0.073740035 0.07390388 0.0039016902
0.05220724 0.042173255 -0.06182364 -0.07455966 -0.08322174 -0.008559647 0.019583138 -0.023469273
-0.0504344 -0.023433946 0.044301048 -0.027910357 -0.008361347 -0.0655009 0.050247155 0.053681307
-0.05521115 -0.0043236315 0.0654534 -0.041521583 0.06226807 -0.11287701 0.05628989 -0.017064132
0.06275541 -0.0104148565 0.025966145 -0.08686571 0.036853064 -0.013883516 0.008935355 0.06846129
-0.059724264 0.02741506 0.01565097 -0.0071200198 -0.058363225 -0.0010861903 -0.053880036 -0.020201907
-0.01590089 -0.10720323 -0.012880415 -0.082628235 0.077506594 -0.10527051 0.05476618 -0.026656145
-0.030479074 0.08294628 -0.020805134 -0.010797414 -0.0472434 -0.110757485 0.023330247 0.026233345
-0.069191836 -0.0399805 -0.029673953 0.032311298 -0.046969928 -0.07465665 -0.09783236 0.01723813

net.2.bias f4 [64]
00000000: 1d6e a6bd 3817 093d b3e0 033e d670 aa3e
00000010: 2627 64b9 4b63 603d 4008 a7bb 41d1 8b3e
00000020: ebb5 fc3b 6652 853f 9c6f 053e 61a6 5dbd
00000030: a41c f93c f023 863e 1e08 053f b873 473d
00000040: eaeb ef3c 2413 ca3c f0a0 913d f929 263d
00000050: 9429 2e3f bd56 223e 7b7c 74bb 9184 de3c
00000060: 7453 193d e0c9 ba3c d431 183f 30e1 a7bc
00000070: d80e ee39 3052 18bd 5336 503c 2898 913b
00000080: 048b 50bd 1a04 d6be ede9 003d 5079 a23e
00000090: ac53 dc3c e8a4 febc b887 813e 1d13 6f3e
000000a0: a844 203f 3d29 8cbd 58b5 19bd 71d2 e33e
000000b0: 90b0 0fbc 326f ccbd 9c81 fb3e 93c8 44bd
000000c0: 9244 efbc 887f 2e3f 33f3 7fbe 8a0f 7dbc
000000d0: 1c89 1a3e de26 3a3d 53b6 abbd e0cc 033f
000000e0: 885d 023d 84ed b93c 8e1d 273d 1264 cd3e
000000f0: 87db a8bd df22 f83c 99f5 723d 9f2b 033f
-0.08126471 0.03346941 0.12878685 0.33289212 -0.00021758358 0.054782193 -0.005097419 0.27308086
0.007712116 1.0415771 0.13030857 -0.05411375 0.030409165 0.26199293 0.5196551 0.048694342
0.029287297 0.02466733 0.071107745 0.040567372 0.68032193 0.158534 -0.0037305641 0.027162822
0.037433103 0.02280134 0.5945103 -0.02049312 0.00045405957 -0.037187755 0.012708264 0.0044431873
-0.050913826 -0.41800004 0.03147309 0.3173318 0.026895367 -0.031084493 0.25298858 0.23347135
0.6260476 -0.06843803 -0.03752646 0.44496492 -0.008770123 -0.09982146 0.49122322 -0.048042845
-0.029207502 0.6816335 -0.24995117 -0.015445599 0.15091366 0.045447223 -0.08384385 0.5148449
0.03182748 0.022696264 0.04079967 0.4011541 -0.082449965 0.030290065 0.05931625 0.51238436

net.4.weight f4 [4, 64]
00000000: aac2 ccbd b567 b8bb 5325 dcbf f1f3 a8c0
00000010: f9e2 693d 9427 033d 9204 b0bd d517 dbc0
00000020: bb77 33bd f29a 94c0 d28e b640 7b7e 8440
00000030: 05b2 953c 7d12 98c0 8d82 8bc1 3508 2fc0
00000040: 33e2 ba3c b0e0 45bd 2072 263d 65b4 55bf
00000050: 77e0 30c1 77c8 c8c0 66e5 943c e568 dd3c
00000060: 6824 a13c fa34 2f3d b83c 40c1 c79b ffbd
00000070: 85c1 b8bd 5641 073d beb7 1b3c 9fb4 84bd
00000080: 0036 cc3c f563 1240 3eda e13d ccc4 a8c1
00000090: d853 10bc aba8 f5c0 a2a3 afc0 fa0d 8c40
000000a0: 6075 12c1 702a e23d c500 65bd 9609 9240
000000b0: 00e6 5abd 4fa7 103d d6b8 5cc1 0069 783c
000000c0: c860 d9bb 35b2 94bf 9e06 d0c0 6feb 9f3d
000000d0: d449 56c1 ddfd cdc0 9794 e33d 09b9 1ec1
000000e0: 2dec 833c cfc8 7e3d e141 4d3d e85b 1d41
000000f0: 2e3b 353b 9ca5 b4c0 07c1 b9c0 a1a2 ed40
00000100: 1519 79bc ae52 b3bd efd2 f5c0 df0a 8fc0
00000110: 0802 99bd c83d 093c 2cb6 7e3c 8b76 02c1
00000120: 9e91 f13d 72d4 f2bf a590 9e40 5274 5240
00000130: 2827 80bc b1c0 d7c0 5927 4dc1 eeee 0741
00000140: f547 733d 7e19 803d 0ebd 9c3d 2734 c9c0
00000150: 7296 73c1 7786 f03f e744 64bc 4179 e53d
00000160: fd41 b0bd 3874 983c 4cb9 5dc1 e8e9 7d3d
00000170: 60e1 93bc 1bde ee3d a0bc 1c3d c4a8 973d
00000180: 12eb 42bd 787c 9240 6c2b c83d 479c cfc1
00000190: 6cbb 8d3d e69f cbc0 32b4 a6c0 deee 4f40
000001a0: 8ce3 c5c0 0ddf 403d 2223 84bc 8e84 22c0
000001b0: 103d 2bbc b763 3b3d 752d 4bc1 483a ee3c
000001c0: 0478 c9bd b8d8 77c0 2ebb dac0 22e8 dc3d
000001d0: 0d2c 88c1 ebcf d3c0 e789 80bb 5d9b 5ec1
000001e0: 60f9 e53c a204 0b3c b4b1 013e 756f 1241
000001f0: c0d6 b13d f24d 9cc0 f6b2 fcc0 c825 e840
00000200: 6080 e3bb efa1 d43d 3092 f9c0 946f e4c0
00000210: 4299 e93c e8f7 063d 5cb3 e03d cf30 f7c0
00000220: b88e 523d 66c6 82c0 8401 c840 b397 5b40
00000230: 05ab 333c 2267 0bc1 88a5 84c1 09d9 8240
00000240: 1bb9 e23c 00f2 d3b9 2c6e 02bd bed8 62c0
00000250: 2d53 45c1 6a60 70c0 39ea 38bc 7520 d13d
00000260: bebf ba3d 9ac4 5c3c cba6 64c1 a084 733c
00000270: 6045 95bc 86cd 0d3d abd8 8b3b a688 9c3d
00000280: 5ef9 aa3d b01a 1340 8512 f43c b653 aec1
00000290: 9f84 383d bf3d f7c0 42ec a4c0 91cf 8740
000002a0: 3947 0ec1 eb5f a3bc 5e68 cb3d 60c6 9b3f
000002b0: 8029 7c3b 2f12 9abd e57b 4ec1 4a27 a6bd
000002c0: e619 e3bd 1c37 d3bf 6fd3 f2c0 770f dd3d
000002d0: a7d3 92c1 3acb a4c0 f215 ee3d f126 20c1
000002e0: 1a99 b4bd fa99 92bc 1a8c efbd 09c5 1041
000002f0: 6631 f8bd b233 a2c0 019e c3c0 e3fc eb40
00000300: a4df 41bd cb3f 923d 7c81 0cc0 cad6 16c1
00000310: 61dd c03d 3bcd a5bc 8b3e 803d 61c4 65c0
00000320: f33e 4cbd 7ecd 9cc0 db02 be40 311b 8340
00000330: 10bc c63d dc7b 3dc1 5162 88c1 30ef 2bc0
00000340: c3b7 853d fa0a f8bd eb40 753c 2692 21c0
00000350: 73be 52c1 a98e 90c0 2520 433b 7f9c c3bb
00000360: f8d7 04bd 0dbb 13be 01ad 28c1 76a9 c23d
00000370: 20a5 76bc 7339 9f3d 7575 4abd 1843 cbbd
00000380: 6ac2 f13d 5de1 8040 9872 d1bd 1c56 b7c1
00000390: e4ee cb3d b91d 03c1 07cf 08c1 b310 c53f
000003a0: 3bf0 12c1 65f0 a83b cd88 ec3d 4694 9140
000003b0: d221 febd 4c18 c43b 35d4 3ac1 68fd c8bc
000003c0: a8df 9ebd 4d94 51bf 67af 06c1 7bdd 773d
000003d0: 61fe 7ac1 7838 a1c0 f015 2ebd cd0e 1bc1
000003e0: c86f a7bc 74a7 5d3d 6fbe 63bd e6b4 1541
000003f0: 182a 9cbd 65c7 9cc0 2920 d2c0 b54e fc40
-0.09998067 -0.005627597 -1.719889 -5.279778 0.057101224 0.032020167 -0.08594622 -6.846659
-0.043815356 -4.643914 5.704934 4.1404395 0.018273363 -4.752257 -17.438745 -2.734876
0.022812938 -0.04830998 0.04063618 -0.83478385 -11.054801 -6.274471 0.018175792 0.027027557
0.01967068 0.04277513 -12.014824 -0.12480884 -0.09021286 0.033021294 0.009504257 -0.06479763
0.024928093 2.287351 0.110279545 -21.096092 -0.008809052 -7.6768394 -5.4887247 4.376706
-9.153656 0.110432506 -0.055908937 4.56367 -0.053442 0.035315808 -13.795126 0.015161753
-0.0066338517 -1.1616884 -6.500808 0.07808577 -13.393024 -6.437239 0.11112326 -9.920175
0.016103828 0.062203225 0.050111655 9.834938 0.0027653682 -5.645216 -5.804813 7.426102
-0.015203734 -0.08756004 -7.6819987 -4.470077 -0.074710906 0.008376546 0.015546363 -8.153941
0.117953524 -1.8971083 4.955157 3.2883496 -0.015643671 -6.742272 -12.822106 8.495832
0.059394795 0.06254862 0.07653247 -6.2876163 -15.22423 1.8791035 -0.013932443 0.11204768
-0.08606336 0.018610105 -13.8577385 0.06199065 -0.018051803 0.11663457 0.038265824 0.07405236
-0.04758746 4.577694 0.09773907 -25.951307 0.069205135 -6.363269 -5.2094965 3.2489543
-6.1840267 0.047087718 -0.016130034 -2.5393405 -0.01045157 0.045749392 -12.698598 0.029080525
-0.09837344 -3.8726025 -6.835349 0.10786463 -17.02151 -6.6191306 -0.0039226892 -13.9129305
0.028073013 0.008484991 0.12665445 9.152211 0.086835384 -4.884515 -7.896846 7.254612
-0.0069427937 0.10382449 -7.799095 -7.1386204 0.028515462 0.032951266 0.1097171 -7.724708
0.05140564 -4.0867186 6.250185 3.431134 0.010966067 -8.712679 -16.580826 4.0889935
0.027676156 -0.0004042536 -0.03184335 -3.544479 -12.332807 -3.7558846 -0.011286312 0.10211269
0.09118603 0.013474608 -14.290721 0.014863163 -0.018221557 0.03461983 0.004267772 0.07643251
0.08348344 2.2985039 0.029793987 -21.790874 0.045048352 -7.7262874 -5.15384 4.2440877
-8.892388 -0.019943198 0.09932016 1.2169914 0.0038476884 -0.075229995 -12.905248 -0.081129625
-0.11088924 -1.6501193 -7.58831 0.10793965 -18.353346 -5.149808 0.116252795 -10.009507
-0.08818264 -0.017895687 -0.11696644 9.048104 -0.12118797 -5.0688105 -6.1130376 7.37462
-0.04733242 0.07141074 -2.195403 -9.427439 0.09417225 -0.020239463 0.06261929 -3.590111
-0.04986472 -4.9000845 5.9378486 4.0970693 0.09703839 -11.842739 -17.048006 -2.6864738
0.065291904 -0.121114686 0.014969091 -2.5245452 -13.171496 -4.5174146 0.0029773798 -0.0059695835
-0.032432526 -0.14426823 -10.542237 0.09504978 -0.015054017 0.077746294 -0.049428422 -0.099249065
0.1180466 4.02751 -0.10226935 -22.917046 0.09957674 -8.1947565 -8.550544 1.5395721
-9.18365 0.0051556104 0.1154953 4.54935 -0.124087945 0.0059843417 -11.676808 -0.024534896
-0.07757503 -0.81866914 -8.417823 0.060513955 -15.687104 -5.038143 -0.04250139 -9.691113
-0.020439044 0.054114774 -0.055601534 9.356665 -0.07625216 -4.89934 -6.566426 7.884608

net.4.bias f4 [4]
00000000: 564c 4c40 50d0 65bf b38f 15c0 5bb7 12c0
3.1921592 -0.89770985 -2.3368957 -2.2924411
